knn/models/pretrained-autoencoder/autoencoder-in_features180-latent_size0.pt (torch, 17369 bytes, 1 tensors)

bias f4 [180]
-0.028318487 -0.028352208 -0.028326051 -0.028278753 -0.028356738 -0.028306903 -0.028235065 -0.028075492
-0.027998727 -0.027944472 -0.027908022 -0.027802115 -0.02773638 -0.027594445 -0.027527163 -0.02748353
-0.027467422 -0.02734557 -0.027406972 -0.027355568 -0.027372163 -0.02730974 -0.027374327 -0.027306851
-0.02717338 -0.027131127 -0.02711268 -0.027114926 -0.027147988 -0.027132167 -0.02705679 -0.027032968
-0.026863089 -0.026807832 -0.026656061 -0.026451876 -0.026278304 -0.026180606 -0.026155498 -0.02610251
-0.025896875 -0.025781559 -0.025636487 -0.025609294 -0.025386393 -0.02517035 -0.024901314 -0.024742957
-0.024453605 -0.02417447 -0.023858853 -0.02368494 -0.023463141 -0.023332654 -0.023206204 -0.023040071
-0.022776503 -0.02240289 -0.022066329 -0.021951228 -0.02160002 -0.021388076 -0.02080962 -0.020318555
-0.019919896 -0.019510133 -0.019062307 -0.018637959 -0.018171187 -0.017750852 -0.017139556 -0.016579233
-0.016068585 -0.015491896 -0.014607254 -0.01388621 -0.013054469 -0.012506551 -0.0119222 -0.011695628
-0.011066456 -0.010566075 -0.010066503 -0.00941706 -0.008722494 -0.008132686 -0.007477491 -0.0065572793
-0.0058254614 -0.0051413924 -0.0043998053 -0.0038472717 -0.0031026066 -0.002429369 -0.0014715157 -0.0009089702
-0.0003146221 0.00051370816 0.0010908996 0.0017582681 0.0025126121 0.0031543036 0.0040191007 0.004689524
0.0052969046 0.0059119514 0.0066555007 0.007157222 0.007862604 0.008523343 0.009050996 0.009709339
0.010226963 0.01083357 0.01155538 0.012153162 0.01259385 0.013192157 0.013726922 0.014403726
0.015141558 0.015686698 0.016163254 0.0167771 0.017143298 0.017723273 0.018163057 0.018453686
0.018660871 0.019050937 0.019452523 0.019840576 0.020122364 0.020347428 0.02046571 0.020695992
0.020765074 0.020990105 0.021268792 0.021414764 0.021672536 0.021817973 0.021900805 0.021985713
0.022171095 0.022125432 0.022139313 0.022174992 0.022172347 0.022213604 0.022285152 0.022372259
0.022483708 0.02256494 0.02267866 0.022732427 0.022770954 0.022816656 0.022859436 0.022877406
0.022974348 0.02306861 0.023214798 0.023303391 0.023425896 0.02357651 0.02357826 0.023577992
0.023697706 0.023737207 0.023773652 0.02389954 0.023915835 0.023967149 0.024062607 0.024033036
0.023984848 0.02398814 0.023993136 0.024032192
00000000: 2cfc e7bc e442 e8bc 090c e8bc d8a8 e7bc
00000010: 644c e8bc e1e3 e7bc 394d e7bc 93fe e5bc
00000020: 965d e5bc ceeb e4bc 5d9f e4bc 43c1 e3bc
00000030: 6837 e3bc bf0d e2bc a580 e1bc 2425 e1bc
00000040: 5c03 e1bc d103 e0bc 9684 e0bc c918 e0bc
00000050: 963b e0bc adb8 dfbc 2040 e0bc 9eb2 dfbc
00000060: b59a debc 1942 debc 691b debc 1f20 debc
00000070: 7565 debc 4744 debc 34a6 ddbc 3e74 ddbc
00000080: fb0f dcbc 199c dbbc d05d dabc 9bb1 d8bc
00000090: 9945 d7bc b678 d6bc 0e44 d6bc eed4 d5bc
000000a0: af25 d4bc d933 d3bc 9c03 d2bc 95ca d1bc
000000b0: 20f7 cfbc 0d32 cebc d7fd cbbc beb1 cabc
000000c0: ed52 c8bc 8a09 c6bc a473 c3bc eb06 c2bc
000000d0: c635 c0bc 1f24 bfbc f01a bebc 88be bcbc
000000e0: ca95 babc 4486 b7bc 72c4 b4bc 10d3 b3bc
000000f0: 86f2 b0bc 0c36 afbc f078 aabc 1973 a6bc
00000100: 0d2f a3bc b7d3 9fbc 8e28 9cbc a2ae 98bc
00000110: bedb 94bc 3c6a 91bc 4168 8cbc 2cd1 87bc
00000120: 44a2 83bc b9d1 7dbc 4453 6fbc fc82 63bc
00000130: 69e2 55bc 47e8 4cbc 5555 43bc 059f 3fbc
00000140: 1550 35bc 551d 2dbc f9ed 24bc 034a 1abc
00000150: cbe8 0ebc f53e 05bc be05 f5bb 72de d6bb
00000160: 83e3 bebb 2079 a8bb 3e2c 90bb 8222 7cbb
00000170: 1a55 4bbb 0c36 1fbb e0df c0ba f547 6eba
00000180: ddf3 a4b9 5faa 063a 84fc 8e3a b075 e63a
00000190: a3aa 243b 6fb8 4e3b a9b2 833b 94aa 993b
000001a0: a891 ad3b 0bb9 c13b 6316 da3b 2187 ea3b
000001b0: 27d2 003c 7ea5 0b3c a14a 143c eb13 1f3c
000001c0: fe8e 273c 497f 313c c752 3d3c 0e1e 473c
000001d0: 6f56 4e3c eb23 583c e2e6 603c 9bfd 6b3c
000001e0: 4c14 783c 6481 803c cd68 843c 2170 893c
000001f0: 1a70 8c3c 6630 913c b1ca 943c 2f2c 973c
00000200: afde 983c b610 9c3c e65a 9f3c b488 a23c
00000210: a8d7 a43c a6af a63c b4a7 a73c a48a a93c
00000220: 841b aa3c 71f3 ab3c e43b ae3c 046e af3c
00000230: 9a8a b13c 9bbb b23c 5169 b33c 621b b43c
00000240: 28a0 b53c 6540 b53c 815d b53c 54a8 b53c
00000250: c8a2 b53c 4ef9 b53c 5a8f b63c 0746 b73c
00000260: c12f b83c 1cda b83c 99c8 b93c 5b39 ba3c
00000270: 278a ba3c ffe9 ba3c b643 bb3c 6669 bb3c
00000280: b334 bc3c 62fa bc3c f62c be3c c1e6 be3c
00000290: aae7 bf3c 8623 c13c 3227 c13c a226 c13c
000002a0: b121 c23c 8874 c23c f6c0 c23c f8c8 c33c
000002b0: 24eb c33c c156 c43c f21e c53c eee0 c43c
000002c0: df7b c43c c782 c43c 418d c43c 29df c43c
