knn/models/pretrained-autoencoder/autoencoder-in_features180-latent_size6.pt (torch, 109781 bytes, 12 tensors)

weight f4 [54, 180]
0	0xbcb2b37a	-0.021814097
1	0x3c928a27	0.017888142
2	0xbd20f74e	-0.039298348
3	0xbd966bfc	-0.07344815
4	0xbc844f98	-0.016151235
5	0xbb979fb5	-0.004627193
6	0xbd6935f0	-0.056936204
7	0x3d5ec105	0.054383297
8	0xbcdcd913	-0.026958978
9	0xbd96e633	-0.07368126
10	0xbd8420c3	-0.06451561
11	0x3d268d88	0.04066232
12	0xbc1b9c1f	-0.009497671
13	0x3c711780	0.0147150755
14	0x3d35e06c	0.04440348
15	0xbd430070	-0.04760784
16	0x3d32d7d1	0.04366285
17	0x3b7bb4b1	0.003840726
18	0x3ce26167	0.027634336
19	0x3d945dc2	0.072444454
20	0x3d743726	0.059622906
21	0x3d729604	0.059225097
22	0x3d3cf422	0.04613126
23	0x3c36c8ac	0.011156242
24	0x3d3b398c	0.045709178
25	0xbd2d4426	-0.04230132
26	0x3d041662	0.03224791
27	0xbd86add3	-0.06576123
28	0xbd0e59dd	-0.03475367
29	0x3d90da13	0.07072844
30	0x3cc2afd8	0.02376549
31	0xbc65ae26	-0.014018571
32	0x3cddd778	0.027080283
33	0x3d62c957	0.055367794
34	0x3d930802	0.07179262
35	0xbc704edc	-0.014667239
36	0x3d65bf3f	0.05609059
37	0x3d596bbf	0.05308127
38	0x3ca6a727	0.020343376
39	0x3d74226b	0.059603136
40	0xbafa857c	-0.0019113268
41	0x3d6b4ed4	0.057448223
42	0x3cb9fc56	0.022703331
43	0xbd710ca3	-0.058849942
44	0x3d0f932e	0.03505247
45	0xbceac2c0	-0.028657317
46	0xbd8a661b	-0.06757756
47	0xbceb222e	-0.028702822
48	0xbd49a4ea	-0.04922954
49	0xbcde0878	-0.027103648
50	0xbd47200a	-0.04861454
51	0xbd44d25f	-0.048052188
52	0x3c749fe2	0.014930697
53	0xbd91d543	-0.071207546
54	0x3d427dc7	0.047483232
55	0xbd3537ac	-0.044242546
56	0xbd4fee12	-0.05076415
57	0x3d85aaa2	0.06526686
58	0xbd8b02fd	-0.06787679
59	0xbd5a71b0	-0.053331077
60	0xbd6a9e58	-0.057279915
61	0xbc8c57f1	-0.017131777
62	0xbc367865	-0.011137103
63	0xbce6e2eb	-0.028184375
64	0xbcc6be6c	-0.024260722
65	0xbd36c231	-0.04461879
66	0x3c93ba97	0.018033309
67	0x3d48a4c4	0.048985258
68	0x3d8cf4fa	0.06882663
69	0x3cf2cd04	0.029638775
70	0x3d96080f	0.07325756
71	0xbd42603a	-0.04745505
72	0xbbbd478d	-0.005776352
73	0x3d0ff9be	0.035150282
74	0xbd2eaccf	-0.042645272
75	0x3c518fed	0.012790662
76	0x3c4fa761	0.012674184
77	0xbc9ae5ad	-0.018908346
78	0xbd48e44e	-0.049045853
79	0x3d91d8f9	0.071214624
80	0x3d2ea228	0.042635113
81	0x3d1cea33	0.038309287
82	0x3ca5fb7d	0.02026152
83	0xbd4ba1ef	-0.04971498
84	0xbd117367	-0.035510447
85	0xbd88917f	-0.06668376
86	0x3d265b8c	0.04061465
87	0xbd36c36f	-0.044619974
88	0xbc1c377e	-0.009534715
89	0x3d2cf532	0.042226024
90	0x3ce5a4ad	0.028032625
91	0xbcb3a1f5	-0.021927813
92	0xbd982a0a	-0.07429893
93	0xbd02a2be	-0.031893484
94	0x3bafbe49	0.00536326
95	0x3c80b8a7	0.01571305
96	0xbcdd1930	-0.02698955
97	0x3ca16b5e	0.019704517
98	0x3d205d0b	0.039151233
99	0xbd126f01	-0.035750393
100	0x3d967752	0.07346977
101	0x3d01b94b	0.03167085
102	0xbd080363	-0.033206355
103	0xbd91947b	-0.071083985
104	0xbd65e31c	-0.05612479
105	0x3ccfd44f	0.025369791
106	0xbcfc994e	-0.03083482
107	0xbc4fba94	-0.012678761
108	0x3c3aa4d5	0.011391838
109	0x3d37ba36	0.04485532
110	0xbd833f57	-0.064085655
111	0xbd1e6324	-0.038668767
112	0x3d135f2b	0.03597943
113	0xbd1ad43c	-0.03780006
114	0xbd708e79	-0.058729623
115	0xbcedec01	-0.0290432
116	0x3b768597	0.0037616247
117	0x3cf27872	0.029598448
118	0x3d31f5b3	0.043447208
119	0xbc992704	-0.018695362
120	0xbd11c84f	-0.03559142
121	0x3cfa65d7	0.03056614
122	0x3c52ec47	0.012873716
123	0x3d5db065	0.0541233
124	0xbd26b42a	-0.04069916
125	0xbd40b1ff	-0.04704475
126	0xbd790029	-0.06079117
127	0x3d5391d1	0.051652733
128	0x3d9546d7	0.07288902
129	0x3d44ae19	0.048017595
130	0xbbc228c8	-0.0059252717
131	0x3d84812a	0.064699486
132	0x3ca8fc92	0.020628247
133	0xbd20f677	-0.039297547
134	0xbd43ce14	-0.047803953
135	0x3cad2972	0.021137927
136	0xbd40e887	-0.047096755
137	0x3bcdef73	0.006284648
138	0xbd0f8aa1	-0.035044316
139	0xbc8d48e0	-0.017246664
140	0xbd82a407	-0.06378942
141	0xbcc773d1	-0.024347218
142	0x3b335531	0.002736401
143	0xbd5fb001	-0.05461121
144	0x3d93e847	0.07222038
145	0x3d90a82a	0.07063325
146	0x3d77d629	0.060506973
147	0x3c033827	0.008008993
148	0x3d00a84d	0.031410504
149	0xbd200278	-0.039064854
150	0xbd4b8d0c	-0.04969506
151	0xbc9ef592	-0.019404206
152	0xbb11a984	-0.0022226283
153	0xbd89d349	-0.067297526
154	0xbd872e50	-0.0660063
155	0xbd8234ad	-0.06357703
156	0xbc0dc2e6	-0.008652424
157	0x3d9197a7	0.071090035
158	0xbca3fdf2	-0.020018551
159	0xbca9875e	-0.02069443
160	0x3d8e79dd	0.06956837
161	0xbd1c1b87	-0.03811219
162	0x3cceaafd	0.025228018
163	0xbbeb4f9e	-0.007181122
164	0x395d17ac	0.00021085021
165	0xbc9b4346	-0.018952977
166	0xbd05d46a	-0.032673277
167	0x3d890160	0.066897154
168	0xbd23a6a1	-0.03995383
169	0x3d1426a3	0.03616966
170	0xbd3dc89d	-0.046333898
171	0xbd42a7f1	-0.047523443
172	0x3d16c901	0.036812786
173	0x3d0c3b2b	0.034236114
174	0x3d31a063	0.043365847
175	0xbd40b47c	-0.047047123
176	0xbcc279ab	-0.023739656
177	0x3d7dfbbd	0.062007654
178	0xbcfbd0f9	-0.030739294
179	0x3d353f3b	0.044249754
180	0x3d90f130	0.07077253
181	0x3cb74e9a	0.022376347
182	0x3d420c3a	0.04737494
183	0xbd420618	-0.047369093
184	0x3d94e442	0.07270099
185	0x3ce2edba	0.027701247
186	0x3d63c375	0.055606324
187	0xbcb77771	-0.022395821
188	0xbd0a5ccd	-0.033779908
189	0xbd4a6e26	-0.049421452
190	0xbceecfb6	-0.029151779
191	0x3d340b95	0.043956358
192	0x3cde398a	0.027127046
193	0xbd2fbf1d	-0.04290687
194	0xbd2149c0	-0.039376974
195	0xbd8df9ca	-0.06932409
196	0x3c92058a	0.017824907
197	0xbd5931dd	-0.05302607
198	0xbd3413c2	-0.043964155
199	0x3d72dd5a	0.05929313
200	0x3d5f5c8c	0.05453162
201	0x3d820fd3	0.063506745
202	0x3d39b36a	0.04533712
203	0xbd5282bd	-0.051394213
204	0xbc467c85	-0.012114649
205	0x3cec77a6	0.028865647
206	0x3c95291d	0.01820808
207	0x3d6f5fa5	0.058440823
208	0xbc0426d1	-0.008065895
209	0x3d5943d3	0.053043198
210	0x3c18702b	0.009304087
211	0xbd2009ec	-0.039071962
212	0xbc89b12e	-0.016808119
213	0xbcca6fa0	-0.02471143
214	0xbb7df5df	-0.0038751287
215	0x3d88f63a	0.06687589
216	0xbcaa2580	-0.020769835
217	0xbd3c9630	-0.046041667
218	0xbd894995	-0.06703488
219	0xbc665878	-0.0140591785
220	0x3d4fe9ab	0.050759953
221	0xbd397748	-0.04527977
222	0xbcb56fb3	-0.022147989
223	0x3b6dd172	0.003628817
224	0x3c93a53f	0.018023131
225	0xbd96b9c4	-0.07359651
226	0xbd8a2a00	-0.06746292
227	0x3bfd3007	0.0077266726
228	0xbd8689f1	-0.06569279
229	0xbd86e015	-0.06585709
230	0xbd256aa2	-0.040384896
231	0x3d564301	0.052309994
232	0xbbfcf09b	-0.007719112
233	0x3cc5f326	0.024163794
234	0xbd97d468	-0.0741356
235	0x3d6af7a2	0.057365067
236	0xbd1144e8	-0.035466105
237	0x3d95f268	0.07321626
238	0x3d69344a	0.056934632
239	0x3cfce290	0.030869752
240	0xbd060bcc	-0.032726094
241	0x3cbd736f	0.023126332
242	0x3d880ac6	0.0664268
243	0xbb47322e	-0.00303949
244	0xbce36c6c	-0.02776166
245	0xbd36cbe5	-0.044628043
246	0x3ce04d62	0.027380649
247	0x3c832b98	0.016011998
248	0x3cad6cd0	0.02117005
249	0xbca56272	-0.020188544
250	0xbd37b818	-0.0448533
251	0xbd5f654c	-0.054539964
252	0xbd3074a0	-0.043079972
253	0x3d06a746	0.032874368
254	0xbcb8fe20	-0.022582114
255	0xbc9388cb	-0.018009564

bias f4 [54]
0	0xbd4c8d7a	-0.04993961
1	0xbd07f3e2	-0.03319157
2	0x3c1e8642	0.009675564
3	0xbd0f422d	-0.03497522
4	0xbbb86ef4	-0.005628461
5	0xbcf29b16	-0.029614966
6	0x3ca0f214	0.019646682
7	0xbd942202	-0.07233049
8	0xbd791d6a	-0.060819067
9	0x3cd0787d	0.025448078
10	0x3bce69d2	0.006299236
11	0x3ba8949d	0.005144669
12	0xbd357bc6	-0.044307493
13	0x3b467f4b	0.0030288275
14	0xbb330f6a	-0.002732242
15	0x3ca9d031	0.020729156
16	0x3d266118	0.04061994
17	0xbd2c4b34	-0.042063907
18	0xbd5384d2	-0.05164034
19	0xbd6e4df4	-0.05817981
20	0xbd8cd88b	-0.0687724
21	0x3d45b140	0.048264742
22	0x3cab1824	0.020885535
23	0x3d809339	0.062780805
24	0xbc8a4b71	-0.016881676
25	0x3d731787	0.05934861
26	0xbd4c5578	-0.049886197
27	0x3c8b4d6f	0.017004697
28	0x3cf90c14	0.030401267
29	0x3cf48274	0.029847361
30	0xbd801b14	-0.06255165
31	0xbd8431c6	-0.06454806
32	0xbc8fe34a	-0.017564435
33	0x3d188641	0.03723741
34	0xbcd6cd36	-0.0262209
35	0x3ab04d9e	0.0013450866
36	0xbb21f6b9	-0.0024713709
37	0x3ccd4246	0.025056016
38	0x3d3d2c13	0.04618461
39	0xbd805645	-0.062664546
40	0x3d2508e3	0.04029168
41	0x3c30e54e	0.010796858
42	0x3d236fac	0.03990142
43	0xbd403950	-0.046929657
44	0xbd83112d	-0.063997604
45	0xbd4edcb0	-0.050503433
46	0x3cb8904b	0.022529742
47	0xbcdaf25f	-0.0267269
48	0x3d8e9b57	0.069632225
49	0xbd5f6ff6	-0.054550134
50	0x3c28113f	0.010258018
51	0xbd1c8117	-0.038209047
52	0xbd825ad7	-0.063649826
53	0xbd267151	-0.04063541

weight f4 [18, 54]
0	0x3db9ad41	0.09066249
1	0x3d118fbb	0.035537463
2	0xbdd84df1	-0.10561741
3	0x3d27f072	0.04100079
4	0xbd6b818f	-0.057496604
5	0x3de0b6d5	0.109723724
6	0xbd162e1b	-0.036665063
7	0x3d83b363	0.064307
8	0xbcf7e741	-0.030261638
9	0xbdfa61d8	-0.122256935
10	0x3d226f02	0.039656647
11	0x3e077e32	0.13231733
12	0x3e085125	0.13312204
13	0xbde30b58	-0.11086148
14	0xbd957acb	-0.072988115
15	0x3dc44887	0.09584146
16	0x3d9c9697	0.0764591
17	0x3daa209b	0.08307
18	0x3ddb0b77	0.10695546
19	0x3dbd6335	0.09247438
20	0x3bc6f181	0.00607127
21	0x3dace4a7	0.084420495
22	0xbc000983	-0.007814768
23	0xbdc77166	-0.09738426
24	0x3dad095e	0.08449052
25	0x3dc32830	0.095291495
26	0x3d48fa03	0.049066555
27	0x3d833514	0.06406608
28	0x3d9f4a79	0.077778764
29	0xbdb4a3ba	-0.08820291
30	0xbc2a3eb5	-0.010390927
31	0x3dd5f98e	0.104479894
32	0xbd29d36a	-0.041461386
33	0x3df87303	0.12131312
34	0xbb20e886	-0.0024552657
35	0xbe085912	-0.13315228
36	0xbdb40a0c	-0.08790979
37	0x3dbb0836	0.091324255
38	0x3d2e3571	0.042531434
39	0xbd73a2fc	-0.059481606
40	0x3dc46c12	0.09590925
41	0xbd276807	-0.040870693
42	0xbcfb68a8	-0.030689552
43	0x3dbd38d5	0.092393555
44	0x3dc6cb69	0.09706766
45	0xbc7f9eea	-0.015601853
46	0xbd6e3210	-0.058153212
47	0xbd90b161	-0.07065082
48	0xbde90326	-0.11377554
49	0xbdcbf689	-0.09959132
50	0xbd05903c	-0.032608256
51	0xbdaba202	-0.0838051
52	0x3c927665	0.01787872
53	0x3dfee3ba	0.12445779
54	0xbe0894ea	-0.13338056
55	0xbe003a99	-0.12522353
56	0x3dee8789	0.11646945
57	0x3de1aa8e	0.11018859
58	0x3df6f2c4	0.120580226
59	0xbcabd541	-0.02097571
60	0x3cedf8de	0.029049333
61	0xbdff1789	-0.12455661
62	0xbd94a84d	-0.07258663
63	0xbd87a2ed	-0.066228725
64	0xbe0a5d93	-0.13512258
65	0xbdb6379c	-0.088973254
66	0x3e074758	0.13210809
67	0xbdfcf594	-0.12351528
68	0xbd166d73	-0.036725473
69	0x3dbf83b4	0.09351292
70	0x3d8c1617	0.06840151
71	0xba1b9bef	-0.00059360167
72	0xbcf8b413	-0.030359304
73	0xbd649d2a	-0.055813946
74	0x3c6de1df	0.014519184
75	0x3d13e7ab	0.036109608
76	0xbdb10686	-0.08643822
77	0x3e05b6a3	0.13057952
78	0xbd801feb	-0.06256088
79	0x3d92d70a	0.07169922
80	0x3df4723c	0.11935851
81	0x3d6efc24	0.05834593
82	0xbc51f7ca	-0.012815425
83	0x3ddf3ec2	0.10900642
84	0x3d68070a	0.056647338
85	0xbcb86631	-0.022509666
86	0xbdc8ee0a	-0.09811027
87	0x3deb640b	0.11493691
88	0xbcaebc46	-0.02133001
89	0xbba3816c	-0.0049897935
90	0x3d13c3ad	0.036075283
91	0x3d446712	0.047949858
92	0x3c2424f5	0.010018577
93	0xbb7f6418	-0.0038969573
94	0xbdbc5e29	-0.09197647
95	0x3d8f5242	0.06998111
96	0x3b926960	0.004468128
97	0x3cb42f19	0.021995114
98	0x3dc7d592	0.09757532
99	0xbdf6f996	-0.120593235
100	0xbda4d687	-0.0804873
101	0x3d8d7528	0.069071114
102	0xbdb65839	-0.08903546
103	0xbe0c254d	-0.13686104
104	0x3dd1ec48	0.10250145
105	0x3ded8655	0.115978874
106	0x3dcb8ba2	0.09938742
107	0xbda0bb4b	-0.07848223
108	0x3bacf419	0.005278122
109	0x3de8b7ff	0.113632195
110	0x3d280f3c	0.041030154
111	0x3ce07c1b	0.027402928
112	0x3d906d29	0.07052071
113	0xbc032274	-0.00800382
114	0x3d63236a	0.055453695
115	0xbd532726	-0.051551007
116	0xbdc2bab6	-0.095082685
117	0xbd68f814	-0.05687721
118	0x3d19372c	0.03740613
119	0x3b837de7	0.0040128115
120	0xbccc376e	-0.024928775
121	0x3c8f2aa5	0.01747639
122	0x3ca3cfd3	0.01999656
123	0xbd342eb2	-0.043989845
124	0xbde14922	-0.11000277
125	0x3b2c7c51	0.0026319216
126	0x3db272eb	0.08713325
127	0x3d9db091	0.07699693
128	0x3d9882a1	0.074467905
129	0x3dfd457b	0.12366768
130	0x3d20350f	0.0391131
131	0xbd4c7edb	-0.049925666
132	0x3e0955e8	0.13411677
133	0xbde8c142	-0.11364986
134	0xbd21985a	-0.039451934
135	0x3d9c15fb	0.0762138
136	0x3daa020d	0.083011724
137	0xbe06209c	-0.13098377
138	0x3d932a26	0.071857736
139	0xbcae44af	-0.021272985
140	0x3d3f567c	0.046713337
141	0xbe07e3fc	-0.13270563
142	0xbdd65af9	-0.104665704
143	0x3bd6b706	0.00655258
144	0xbb563802	-0.0032687192
145	0xbca5f74b	-0.02025952
146	0xbd8eee0f	-0.06979
147	0x3d498a8a	0.049204387
148	0x3dfdd5fc	0.1239433
149	0x3d7f0cc5	0.062268037
150	0xbd1e5fed	-0.0386657
151	0x3d7b920b	0.061418574
152	0xbd1f2f2e	-0.038863353
153	0xbc03ec44	-0.008051936
154	0xba9f22d9	-0.0012141123
155	0xbba57b53	-0.005050102
156	0x3e006556	0.12538657
157	0xbb4b34ec	-0.0031006886
158	0x3c811268	0.015755847
159	0xbd9be526	-0.07612066
160	0xbbe631fd	-0.007025002
161	0xbe0907d1	-0.13381888
162	0xbd5b2562	-0.053502448
163	0x3df9f6fd	0.122053124
164	0xbd6b0f6f	-0.057387765
165	0x3e09c92d	0.13455649
166	0x3dcf9e76	0.10137646
167	0xbd8488a9	-0.06471378
168	0x3d58fd21	0.052975778
169	0x3daaec26	0.08345823
170	0xbd9a134d	-0.075232126
171	0xbd6b1dd6	-0.0574015
172	0x3dc5dd47	0.09661346
173	0xbd71b496	-0.05901011
174	0xbc2ceacd	-0.010554028
175	0xbe097903	-0.13425069
176	0xbd81c2e0	-0.063359976
177	0x3d0dda08	0.03463176
178	0xbd90b21e	-0.07065223
179	0x3e039126	0.12848338
180	0x3d347608	0.044057876
181	0xbc7f7100	-0.015590906
182	0xbc942026	-0.018081736
183	0xbd51c0ed	-0.05120938
184	0xbcb5ea8f	-0.022206573
185	0x3df2a6a8	0.118481934
186	0x3dc9e8a5	0.098588265
187	0x3ce4a258	0.027909443
188	0xbc46e230	-0.012138888
189	0x3d68dc28	0.056850582
190	0xbda9bcea	-0.082879856
191	0x3d2f4ffa	0.04280088
192	0x3d93d358	0.07218045
193	0xbdaee6dd	-0.085401274
194	0x3db67adf	0.089101546
195	0x3da9431c	0.08264753
196	0x3dc766f1	0.097364314
197	0xbd13f313	-0.036120486
198	0x3dd9292d	0.10603557
199	0xbe03dcb4	-0.1287716
200	0x3d852f2d	0.06503139
201	0xbbd3bf8c	-0.006462043
202	0xbd8b481a	-0.06800862
203	0xbcdab59e	-0.02669793
204	0xbddc084b	-0.10743769
205	0xbc57a09f	-0.013160854
206	0xbdc469f0	-0.095905185
207	0x3d8b5e21	0.06805063
208	0xbdae3c97	-0.0850765
209	0xbdfe4558	-0.1241557
210	0xbdcca2c5	-0.09991983
211	0xbc4949b7	-0.012285641
212	0x3dfefbea	0.124503925
213	0x3df489da	0.119403556
214	0x3d59bc91	0.053158347
215	0xbd4ecd26	-0.050488614
216	0xbcdde279	-0.02708553
217	0x3d535f7a	0.051604725
218	0x3d97388b	0.073838316
219	0xbdadff84	-0.08496001
220	0x3df3d352	0.119055405
221	0xbdf6825d	-0.120365836
222	0x3dec464e	0.11536847
223	0xbdd141be	-0.102176175
224	0x3cff4ae8	0.031163648
225	0xbca8ff7a	-0.020629633
226	0x3b8bc9a7	0.004265982
227	0x3d59383a	0.053032137
228	0x3df747fe	0.12074278
229	0x3da6d992	0.08146967
230	0xbdc954e9	-0.098306485
231	0x3d480d1f	0.04884064
232	0xbde67d2f	-0.112543456
233	0x3c4a2b84	0.0123394765
234	0x3cb517e8	0.022106126
235	0x3d702fbb	0.05863927
236	0xbda2f686	-0.07957177
237	0x3db52bdd	0.08846257
238	0xbd75634b	-0.059909146
239	0xbd0042ef	-0.031313833
240	0x3de1332a	0.10996087
241	0x3e07ac5d	0.13249345
242	0x3da5bfb8	0.08093208
243	0xbdecd2fb	-0.11563679
244	0xbc2b260e	-0.010446085
245	0xbddb00fd	-0.10693548
246	0x3e048eff	0.12945174
247	0xbdec5349	-0.11539323
248	0xbc75508d	-0.014972818
249	0xbc911731	-0.017711254
250	0xbd4a1305	-0.049334545
251	0x3dfafce9	0.1225527
252	0xbdbe73b7	-0.092994146
253	0x3e058188	0.13037694
254	0xbe0051c3	-0.1253119
255	0xbdf51867	-0.11967545

bias f4 [18]
0	0x3c7e911e	0.015537528
1	0x3dd00431	0.101570494
2	0x3d3e6ed0	0.046492398
3	0x3d1181da	0.035524227
4	0xbd4f3dc2	-0.050596006
5	0xbdcff38b	-0.10153874
6	0x3dfd9722	0.12382342
7	0x3d28bf72	0.0411982
8	0xbd27350f	-0.040822085
9	0x3de9a2b1	0.11407984
10	0x3d8be553	0.068308495
11	0xbd3355fe	-0.04378318
12	0x3d1c4f7b	0.038161736
13	0x3dcc6b4b	0.09981402
14	0x3d8a5fb5	0.06756536
15	0x3d36ee49	0.04466084
16	0xbbffe9a0	-0.0078098327
17	0xbc899fba	-0.016799796

weight f4 [6, 18]
0	0xbcc0d7ad	-0.023540342
1	0xbe0b2d77	-0.13591562
2	0x3d440fd6	0.047866665
3	0xbdf18753	-0.11793389
4	0xbd3e58a8	-0.046471268
5	0x3d7df966	0.062005423
6	0x3d4554fb	0.048176747
7	0xbe2225b6	-0.15834698
8	0x3c20517e	0.009785054
9	0xbe0549b9	-0.13016404
10	0xbe181f43	-0.14855675
11	0x3d9a9334	0.07547608
12	0x3e3cf7aa	0.18453851
13	0x3d2412e1	0.040057067
14	0xbe37e0ef	-0.17956899
15	0x3d9cf1b2	0.07663287
16	0xbd45e6ed	-0.04831593
17	0xbce0e1c5	-0.027451405
18	0xbcaa5041	-0.020790221
19	0x3e66f136	0.22552952
20	0x3c15ba83	0.009138706
21	0xbe5a0e89	-0.21294607
22	0x3e43344f	0.19062923
23	0x3c561e3a	0.01306873
24	0x3d7e13a6	0.062030457
25	0x3cbc8b45	0.023015628
26	0x3cf3c1da	0.029755522
27	0xbac147f9	-0.0014746181
28	0x3dcdad94	0.10042873
29	0xbdc5336e	-0.0962895
30	0xbdc5e1a7	-0.096621804
31	0xbdcace07	-0.09902578
32	0x3e284b13	0.16434889
33	0xbde780c0	-0.11303854
34	0xbe4087e0	-0.18801832
35	0x3cf006ad	0.029300058
36	0x3e2e7ba3	0.17039351
37	0x3d8403db	0.06446048
38	0x3dbd21bb	0.09234949
39	0x3daedf82	0.085387245
40	0xbdb475c6	-0.08811526
41	0xbe4fdd9b	-0.2029938
42	0xbe70e38a	-0.235243
43	0x3c2c8e0e	0.010531915
44	0x3cef9094	0.029243745
45	0xbdc2b5e1	-0.09507347
46	0x3e1dde3c	0.15416807
47	0xbe4a2f4b	-0.19744603
48	0x3c0360c1	0.008018673
49	0x3e0d893f	0.13821886
50	0x3e34e192	0.17664173
51	0xbd3a479d	-0.045478452
52	0xbe4dd194	-0.20099479
53	0x3df01c41	0.11724139
54	0xbd0b56ce	-0.03401833
55	0xbd3f0a66	-0.046640776
56	0xbe39838f	-0.18116592
57	0x3e57a56e	0.210592
58	0xbe0bf529	-0.1366774
59	0x3e129624	0.14315087
60	0x3d98ac49	0.07454736
61	0xbda59c67	-0.08086472
62	0x3d0d0c27	0.034435418
63	0xbe05a303	-0.13050465
64	0xbe1a939b	-0.1509537
65	0x3d9e512e	0.077303275
66	0xbe624dad	-0.22099943
67	0x3db80968	0.08986169
68	0xbd0dcc3a	-0.034618594
69	0xbe04acdb	-0.12956564
70	0xbcb8137a	-0.022470225
71	0xbe00bbad	-0.12571593
72	0xbdb3a09a	-0.08770867
73	0xbe337989	-0.1752683
74	0xbe23b517	-0.15987049
75	0x3d9492f0	0.072545886
76	0x3e2f1992	0.17099598
77	0x3ccaf039	0.02477275
78	0x3df2e06a	0.1185921
79	0x3e35ada1	0.17742015
80	0x3deeb20b	0.11655053
81	0x3e7125d3	0.23549585
82	0x3e1fd7ab	0.15609615
83	0xbd064b99	-0.03278694
84	0x3e0e456d	0.13893671
85	0x3c9584dd	0.01825183
86	0xbe1c04fd	-0.15236278
87	0xbd4b8748	-0.04968956
88	0xbdaf4677	-0.08558362
89	0x3e3be271	0.183481
90	0xbe3578cd	-0.17721863
91	0x3d96ea26	0.07368879
92	0x3e485db3	0.19566993
93	0x3e5cbd71	0.21556641
94	0x3e28378a	0.16427436
95	0x3e0a5162	0.13507608
96	0xbcde4fdb	-0.027137687
97	0xbd6c3d13	-0.057675432
98	0x3d1a1df0	0.037626207
99	0xbe5cf5a7	-0.21578084
100	0x3e4f3af7	0.20237337
101	0x3da10a78	0.07863325
102	0xbe1e240c	-0.15443438
103	0xbe2b334f	-0.16718791
104	0x3dd07a37	0.10179561
105	0xbdaddef8	-0.084897935
106	0x3dcc3275	0.099705614
107	0x3c91c237	0.017792804

bias f4 [6]
0	0x3dbe1523	0.09281375
1	0xbd6e14d3	-0.05812533
2	0x3e524720	0.20534945
3	0xbded5b93	-0.11589732
4	0x3e303c4d	0.17210503
5	0x3da93cb0	0.08263528

weight f4 [18, 6]
0	0xbd8f7704	-0.07005122
1	0x3da02814	0.07820144
2	0x3e9f63ca	0.3113082
3	0x3e03d330	0.1287353
4	0xbeaf7f51	-0.34276822
5	0x3de97d98	0.11400908
6	0x3e5954f4	0.21223813
7	0xbecff099	-0.4061325
8	0xbea0a11b	-0.31372914
9	0x3d256228	0.040376812
10	0x3ed0123e	0.40638918
11	0xbd98b86a	-0.07457049
12	0x3ddd84d0	0.108163476
13	0xbecde5e4	-0.40214455
14	0xbdbbe1d8	-0.09173936
15	0x3d7da668	0.061926275
16	0x3ea3bca8	0.3197987
17	0xbeb07c8f	-0.3447003
18	0xbdb4469c	-0.0880253
19	0xbecb1552	-0.39664704
20	0x3e902272	0.2815128
21	0xbc6d18d6	-0.014471253
22	0x3e83906c	0.25696123
23	0x3ea70fa9	0.32629135
24	0x3ebb2776	0.36553544
25	0x3e96ae27	0.29429743
26	0x3e9cdf7a	0.3063925
27	0x3e02610d	0.12732334
28	0xbe25758b	-0.1615812
29	0x3baefc0a	0.005340104
30	0xbe8864b2	-0.26639324
31	0x3d8022a8	0.0625661
32	0x3ec26ece	0.37975162
33	0xbc917630	-0.017756552
34	0x3d6fb1a8	0.058519036
35	0xbe87457e	-0.26420206
36	0x3e7f3c44	0.24925333
37	0x3d986c3b	0.07442518
38	0xbe09efc4	-0.1347037
39	0xbea9a33f	-0.3313236
40	0xbe303fc7	-0.17211829
41	0x3e5b66d3	0.21425943
42	0x3d235b98	0.039882272
43	0xbec63294	-0.38710463
44	0x3e253d64	0.161367
45	0x3de07540	0.10959864
46	0xbd1c6930	-0.038186252
47	0xbeb0ce3e	-0.3453235
48	0x3ea4703e	0.32116884
49	0xbeb138ec	-0.3461374
50	0x3ebfc2ab	0.37453207
51	0xbe469450	-0.19392514
52	0xbe51348f	-0.20430206
53	0x3e217b96	0.157698
54	0xbdf838b8	-0.12120193
55	0xbe1dbddc	-0.15404457
56	0xbe4aaa1f	-0.19791459
57	0xbdcd627c	-0.1002855
58	0x3e972006	0.2951662
59	0x3e57df84	0.21081358
60	0x3e54a5a0	0.20766306
61	0x3eb89bd4	0.36056387
62	0xbe52e266	-0.20594177
63	0x3e8a92b8	0.27065063
64	0xbc22c660	-0.009934992
65	0x3ebb2f30	0.3655944
66	0x3e8e7fc8	0.27831864
67	0x3e9b1f42	0.30297285
68	0x3ea0db60	0.3141737
69	0x3ebbc1dc	0.3667134
70	0xbe2e0003	-0.16992192
71	0x3e9a0d30	0.30088186
72	0x3ea56c6e	0.32309288
73	0xbec93e3f	-0.39305303
74	0xbda9d834	-0.082931906
75	0x3d47b950	0.048760712
76	0xbe741fa5	-0.23840196
77	0xbe417836	-0.18893513
78	0x3ebf3f5c	0.37353027
79	0x3e9714e2	0.2950812
80	0xbd7750b0	-0.060379684
81	0xbe97bf4d	-0.29638138
82	0x3eaa4d59	0.33262137
83	0x3e42af2c	0.19012135
84	0xbd89afe8	-0.067230046
85	0x3e677c94	0.22606117
86	0xbd534f58	-0.05158934
87	0xbd6c0528	-0.057622105
88	0x3e564df8	0.2092818
89	0xbe8b3402	-0.27188116
90	0xbe225015	-0.15850861
91	0x3de1ff16	0.11034982
92	0x3e3401c7	0.17578803
93	0xbe186bc0	-0.14884853
94	0xbe6b8337	-0.22999273
95	0x3e866708	0.26250482
96	0x3d86dfbf	0.06585645
97	0xbd6cb00e	-0.057785086
98	0x3e8622af	0.26198336
99	0xbe07b4f7	-0.13252626
100	0xbdc5b886	-0.09654336
101	0xbeb7f97a	-0.35932523
102	0xbda6ea87	-0.08150201
103	0x3cfcdb93	0.03086642
104	0xbebcfee2	-0.3691321
105	0xbe9ef864	-0.31048882
106	0x3d492964	0.04911174
107	0x3ecd62ce	0.40114444

bias f4 [18]
0	0xbebeea96	-0.3728835
1	0xbde1a03a	-0.11016889
2	0xbec20b7d	-0.3789939
3	0xbe844be8	-0.25839162
4	0x3ecbe574	0.39823496
5	0xbe625871	-0.2210405
6	0xbe451eba	-0.19250003
7	0xbe74a5a7	-0.23891316
8	0xbe33523c	-0.17511839
9	0xbe945a08	-0.28974938
10	0xbea51748	-0.32244325
11	0xbe22da1a	-0.15903512
12	0xbe0e74a2	-0.1391168
13	0xbdc23c76	-0.09484188
14	0xbe935f65	-0.28783718
15	0xbcbf02e5	-0.02331681
16	0x3be144e8	0.0068746693
17	0x3e8fd230	0.28090048

weight f4 [54, 18]
0	0xbde8dc63	-0.113701604
1	0xbe25e91d	-0.16202207
2	0x3da2d13a	0.07950063
3	0xbda16d3c	-0.07882163
4	0xbcb1beb8	-0.021697387
5	0x3e2f105f	0.17096089
6	0x3e43e2d7	0.19129501
7	0xbe2dfff6	-0.16992173
8	0xbe67d1d4	-0.22638637
9	0xbe107655	-0.1410764
10	0xbe268504	-0.16261679
11	0xbbdf9ee0	-0.0068243593
12	0x3e6310b3	0.22174339
13	0xbc951638	-0.018199071
14	0xbb3fc700	-0.00292629
15	0x3da418ee	0.080125675
16	0xbe18d850	-0.14926267
17	0xbe475787	-0.19466983
18	0x3e596769	0.21230854
19	0x3d90efe5	0.07077006
20	0x3e3da7d7	0.18521057
21	0xbe2020ac	-0.15637463
22	0x3d57b200	0.05265999
23	0xbe48e670	-0.19619155
24	0x3e278a49	0.16361345
25	0xbe27033e	-0.1630983
26	0xbd8ccf63	-0.068754934
27	0xbda57c60	-0.08080363
28	0x3dfdea02	0.12398149
29	0xbda69d28	-0.08135444
30	0x3e49af0b	0.1969568
31	0x3dd2c974	0.102923304
32	0x3cbfef68	0.023429587
33	0x3e33e69b	0.17568438
34	0x3e21a21e	0.15784499
35	0x3e01a8a3	0.12661986
36	0x3ce2b4b8	0.027674064
37	0x3da9d8a6	0.082932755
38	0x3dbc0be2	0.09181954
39	0x3cfd1a18	0.030896232
40	0x3e1f6ef8	0.15569675
41	0x3e018de5	0.12651785
42	0x3e3e69d1	0.18595053
43	0x3e41acff	0.18913649
44	0xbd0d7b45	-0.034541387
45	0x3e6c8989	0.2309934
46	0x3d34f204	0.044176117
47	0xbd425e0c	-0.04745297
48	0xbe5995fc	-0.21248621
49	0xbdeb2d18	-0.1148321
50	0xbd93c8d6	-0.07216041
51	0x3e57495a	0.21024075
52	0xbd77ce77	-0.060499635
53	0xbe55298a	-0.20816627
54	0x3e5155d3	0.20442896
55	0x3e3591cb	0.17731397
56	0xbe12b22a	-0.14325777
57	0xbe3dcabe	-0.18534371
58	0x3e3bf8b7	0.18356596
59	0x3db9cd42	0.09072353
60	0xbce7b130	-0.028282732
61	0x3e564483	0.20924573
62	0xbe00544a	-0.12532154
63	0xbcaf8a78	-0.021428332
64	0xbd7dbf64	-0.061950102
65	0xbd34e66c	-0.04416506
66	0xbe3f48ea	-0.18680158
67	0x3dde88aa	0.1086591
68	0xbe016938	-0.12637794
69	0xbc91a658	-0.017779514
70	0x3db7640a	0.08954628
71	0xbdac7f78	-0.0842275
72	0x3d68e19c	0.056855783
73	0x3cbaa9f6	0.022786122
74	0xbde43a95	-0.11143986
75	0xbbb9a4e1	-0.005665407
76	0xbe643ca7	-0.22288762
77	0x3bcfd740	0.0063427985
78	0x3db4cbac	0.0882791
79	0xbd854f54	-0.06509271
80	0xbe173c1e	-0.14769027
81	0xbe660d11	-0.22465922
82	0xbe4c6e50	-0.19963956
83	0xbdc14534	-0.094370276
84	0xbc211130	-0.009830758
85	0xbdae0df6	-0.084987566
86	0xbd54d6a4	-0.05196251
87	0xbde536e0	-0.11192107
88	0xbe29ed17	-0.16594349
89	0x3e642168	0.22278368
90	0x3c17e500	0.009270906
91	0x3e2a4f7e	0.16631886
92	0x3c235350	0.009968594
93	0xbd0422ff	-0.032259937
94	0xbd46b9be	-0.04851698
95	0x3e2c7941	0.1684313
96	0xbd076dd4	-0.033063725
97	0x3da49a32	0.08037223
98	0x3e0eb43a	0.13935938
99	0x3e225a5f	0.15854786
100	0xbe54da2c	-0.20786351
101	0x3e5ec47f	0.21754645
102	0xbe134492	-0.14381626
103	0xbe49eb72	-0.19718722
104	0xbd533300	-0.05156231
105	0x3dd3b4e6	0.10337238
106	0xbe1cc620	-0.15309954
107	0x3e380431	0.17970349
108	0x3e373583	0.17891507
109	0xbd967c9c	-0.07347986
110	0x3d29c8fc	0.04145144
111	0xbc280ec0	-0.010257423
112	0xbbd44e20	-0.00647904
113	0xbe41b0ea	-0.18915144
114	0x3de44476	0.111458704
115	0xbe42d88d	-0.1902792
116	0xbd2d8124	-0.042359486
117	0xbdee042c	-0.116218895
118	0xbe39b542	-0.1813555
119	0xbe297152	-0.16547135
120	0xbdb8f0c0	-0.090302944
121	0xbe6f513e	-0.23370835
122	0x3d908482	0.07056524
123	0xbdd50fe0	-0.104034185
124	0xbd80f2b4	-0.06296292
125	0xbd30d2f0	-0.043169916
126	0xbdac8f60	-0.08425784
127	0xbe239264	-0.15973812
128	0xbe125356	-0.14289603
129	0xbddd65e3	-0.10810449
130	0x3e69c56c	0.22829217
131	0x3e1d931b	0.15388148
132	0xbdc0be68	-0.09411317
133	0xbd1129e8	-0.035440356
134	0xbd951692	-0.072796956
135	0x3d9dfece	0.07714616
136	0xbd666414	-0.056247786
137	0x3e2cfa31	0.16892315
138	0xbd9ac906	-0.075578734
139	0xbddf51c2	-0.10904266
140	0xbd61bda8	-0.05511251
141	0xbe260423	-0.16212516
142	0xbdefa956	-0.1170222
143	0x3e73a4b8	0.23793304
144	0xbdcd1b74	-0.10015002
145	0xbe1b5844	-0.1517039
146	0x3b02a200	0.0019932985
147	0x3e5875f6	0.21138749
148	0xbb164809	-0.002293112
149	0xbda5d960	-0.080981016
150	0xbe1124a9	-0.14174141
151	0xbd82e294	-0.063908726
152	0xbd9ed3ef	-0.07755267
153	0xbdd67a7a	-0.10472579
154	0x3d519204	0.051164642
155	0x3d6d4c24	0.05793394
156	0xbe115856	-0.14193854
157	0x3d0fab94	0.03507574
158	0xbd30e700	-0.04318905
159	0xbe0eb6e3	-0.13936953
160	0xbd043e64	-0.032286063
161	0xbcaa43a3	-0.020784205
162	0xbe5bddf9	-0.21471395
163	0xbe418275	-0.18897422
164	0x3e66cd0f	0.22539161
165	0xbdb42daa	-0.08797772
166	0x3e1545bb	0.14577381
167	0xbe623c22	-0.22093251
168	0xbe17a800	-0.1481018
169	0xbe2d7a5e	-0.1694121
170	0x3df4d71c	0.11955091
171	0xbe0e65b0	-0.13905978
172	0xbdd14c5e	-0.10219644
173	0x3d81e152	0.063418046
174	0x3be57180	0.0070020556
175	0x3d72b147	0.059251096
176	0x3d348044	0.044067636
177	0xbe2e6da8	-0.17034018
178	0x3e1b2f15	0.15154679
179	0x3e57bc73	0.21067981
180	0x3e43abff	0.1910858
181	0xbd6e5630	-0.058187664
182	0xbcfbbd00	-0.03072977
183	0x3e658739	0.22414865
184	0xbe439d08	-0.19102871
185	0xbb61b0c0	-0.0034437627
186	0x3d91c7fe	0.071182236
187	0x3e5d4965	0.21610029
188	0x3e639319	0.22224082
189	0xbdf252dc	-0.118322104
190	0xbce73170	-0.028221816
191	0x3e44ff9b	0.19238131
192	0xbe3cc36d	-0.18433924
193	0x3d953a0e	0.07286464
194	0x3e4dcd3b	0.2009782
195	0xbe148a79	-0.14505948
196	0x3e071c1d	0.13194318
197	0xbb73c840	-0.0037198216
198	0xbe3b79b0	-0.18308139
199	0xbd9b3433	-0.075783156
200	0xbe52f7a0	-0.20602274
201	0x3cdbfef4	0.02685497
202	0x3d8a308a	0.06747539
203	0x3e64a37d	0.22327991
204	0x3dda5a62	0.106617704
205	0xbe07d94f	-0.1326649
206	0xbe6ccd5c	-0.23125213
207	0x3cae1918	0.0212522
208	0x3e6e9a15	0.23300965
209	0xbe0e817d	-0.13916583
210	0x3ddbd2f2	0.10733594
211	0x3c8ae615	0.016955415
212	0x3e56da89	0.20981802
213	0x3e6e5624	0.23275048
214	0xbdb1776a	-0.086653545
215	0xbd822ce8	-0.063562214
216	0xbd5ad898	-0.053429216
217	0xbc7e5e34	-0.015525389
218	0xbdbb7a14	-0.09154144
219	0xbe566f06	-0.2094079
220	0xbe0ceb6b	-0.1376168
221	0xbdf873e7	-0.121314816
222	0x3e413f81	0.18871881
223	0x3e515701	0.20443346
224	0x3cf0d30e	0.029397514
225	0x3d46c3e4	0.04852666
226	0x3e5c7769	0.21529926
227	0x3e6c9821	0.23104908
228	0x3dfb9c1a	0.122856334
229	0xbdacdcc5	-0.08440546
230	0xbe6ff183	-0.23431973
231	0x3e2a44aa	0.16627756
232	0x3e6be6f5	0.23037322
233	0xbdd8dbb6	-0.105887815
234	0xbdd729b4	-0.10506001
235	0x3e22c2cb	0.1589462
236	0xbe4da87a	-0.200838
237	0xbd884b68	-0.066550076
238	0xbd466c50	-0.04844314
239	0x3d79d064	0.060989752
240	0x3c933718	0.017970607
241	0x3d835ade	0.06413816
242	0x3e652c39	0.22380151
243	0xbe6cbcb5	-0.23118861
244	0xbe6977d9	-0.22799625
245	0x3e38172f	0.17977594
246	0x3d13d08c	0.036087558
247	0x3e182cef	0.14860891
248	0xbd0dae84	-0.03459026
249	0xbdeb91e9	-0.115024395
250	0xbdeef3cb	-0.116675936
251	0xbe101019	-0.14068641
252	0xbd93fff2	-0.07226552
253	0x3e162b93	0.1466506
254	0x3dcd0902	0.10011484
255	0x3e1bd015	0.15216096

bias f4 [54]
0	0xbe48f630	-0.19625163
1	0x3e32cf96	0.17462
2	0xbcb73443	-0.022363788
3	0xbe69f744	-0.2284823
4	0x3ccb1fe9	0.02479549
5	0x3e2eec7e	0.17082402
6	0xbe1feb4a	-0.156171
7	0xbdb7d709	-0.089765616
8	0x3dedcc11	0.11611188
9	0x3e3c3e7e	0.18383214
10	0xbd1e7e24	-0.038694516
11	0x3c3a0b18	0.011355184
12	0x3e77be14	0.24193603
13	0xbe317cc2	-0.17332748
14	0xbe543a3f	-0.20725344
15	0xbe4ab32e	-0.19794914
16	0xbdfeca89	-0.12440974
17	0x3e256775	0.16152747
18	0xbddf7c30	-0.10912359
19	0x3e3ae97b	0.18253128
20	0xbd9ce4e0	-0.07660842
21	0xbcab5e6f	-0.020919053
22	0x3d124e6a	0.035719313
23	0xbd8afa2c	-0.06785998
24	0x3e6195dc	0.22029823
25	0x3d7dca13	0.06196029
26	0x3d037314	0.03209217
27	0xbe2dd002	-0.1697388
28	0x3e04161c	0.12899059
29	0x3e292cb9	0.16520967
30	0x3d58de27	0.052946236
31	0xbdcd6506	-0.10029034
32	0x3ddfd4b7	0.10929244
33	0x3d895932	0.06706466
34	0x3e184095	0.14868386
35	0xbdaa3160	-0.08310199
36	0x3de6fa14	0.11278167
37	0xbe594e54	-0.21221286
38	0x3d2080ae	0.03918522
39	0xbdb5582a	-0.088547066
40	0x3bdf6024	0.006816881
41	0x3e01ad39	0.12663735
42	0x3dedaa47	0.116047435
43	0xbe116652	-0.14199188
44	0x3e5852bf	0.21125315
45	0x3e3f1788	0.1866132
46	0xbe59326e	-0.21210644
47	0x3c6738d1	0.014112667
48	0xbd6d5ce0	-0.0579499
49	0xbe6b7827	-0.22995053
50	0xbdad718c	-0.08468923
51	0x3e3cdec1	0.18444349
52	0xbdf2b38b	-0.11850651
53	0xbe2f3d1e	-0.17113158

weight f4 [180, 54]
0	0xbd05334c	-0.032519624
1	0x3d837d82	0.06420423
2	0x3e07a581	0.13246728
3	0xbdb3d5e6	-0.08781032
4	0xbdb78cab	-0.08962377
5	0x3df0ccba	0.117577985
6	0xbe013137	-0.1261643
7	0x3bcd07a3	0.006257014
8	0xbc5d3f79	-0.013503903
9	0x3d9ac9da	0.075580314
10	0x3cd63608	0.026148811
11	0x3dd82d57	0.10555523
12	0x3cda0fcc	0.02661886
13	0x3c29ba30	0.010359332
14	0x3dff985c	0.12480232
15	0x3d5ec004	0.05438234
16	0xbd1ea1b4	-0.03872843
17	0xbd0a0192	-0.033692904
18	0x3c13d910	0.00902392
19	0xbca96f69	-0.020683007
20	0x3e044c8a	0.12919822
21	0x3daaa671	0.083325274
22	0x3e05be40	0.13060856
23	0xbc648bbf	-0.013949334
24	0x3de36b4b	0.11104449
25	0xbda3eb8f	-0.080039136
26	0xbdd7ac5a	-0.1053092
27	0xbd4b047e	-0.04956483
28	0x3e05aad8	0.13053453
29	0x3dfb19b0	0.12260759
30	0x3dbc6989	0.09199817
31	0x3d633c6c	0.055477545
32	0xbdba564e	-0.090984926
33	0xbe065bc9	-0.13120951
34	0x3dfeb7ba	0.12437387
35	0xbd1d5c6a	-0.03841821
36	0xbdee39a6	-0.11632089
37	0x3de34178	0.110964715
38	0x3df68508	0.120370924
39	0x3cebf8d8	0.028805181
40	0x3dbf79cf	0.09349405
41	0xbb4eacc4	-0.0031536082
42	0x3d260b96	0.040538393
43	0xbd56a4cc	-0.052403256
44	0xbd542f64	-0.051803008
45	0xbcd8e534	-0.02647648
46	0xbd8388e4	-0.06422594
47	0x3c0256f0	0.007955298
48	0xbdf345e3	-0.11878564
49	0x3ca5ad78	0.020224318
50	0xbdea1170	-0.11429107
51	0x3adfc383	0.0017071817
52	0x3dde5f2a	0.10857995
53	0x3d9684fc	0.073495835
54	0xbd812d63	-0.06307485
55	0x3c6fbaba	0.014631921
56	0xbdf712d4	-0.12064138
57	0xbcff2988	-0.031147733
58	0x3c47cdcb	0.012195061
59	0xbd4e10a3	-0.050308835
60	0xbc4014e8	-0.011723734
61	0x3dab1ee7	0.083555035
62	0x3d5dbe84	0.054136768
63	0xbcf5ee09	-0.03002073
64	0xbd8466d5	-0.06464926
65	0xbdd4ecec	-0.10396752
66	0xbe0e4352	-0.13892868
67	0x3d0514a8	0.032490402
68	0xbd0bbaf4	-0.03411384
69	0xbe096811	-0.13418604
70	0xbd045df5	-0.032316167
71	0xba6e4bdb	-0.0009090283
72	0xbc997374	-0.01873181
73	0xbddd7743	-0.10813763
74	0x3c8a7bd8	0.016904756
75	0x3e003a7f	0.12522314
76	0x3dfac2b4	0.12244168
77	0xbd3dbcdb	-0.046322685
78	0x3d95e643	0.073193096
79	0x3ce0c36b	0.027436933
80	0xbd249c84	-0.040188327
81	0x3aca9500	0.0015455782
82	0xbe0521b2	-0.13001135
83	0x3de18987	0.110125594
84	0xbd16419d	-0.036683667
85	0x3d137714	0.036002234
86	0x3de489f9	0.11159129
87	0xbdd53f79	-0.10412497
88	0x3dd6ae8d	0.10482512
89	0x3d0db320	0.034594655
90	0xbcc8ded9	-0.024520325
91	0x3d32bf24	0.043639317
92	0xbde21050	-0.110382676
93	0x3d5c2ac0	0.053751707
94	0xbdccae6d	-0.099942066
95	0xbb838550	-0.004013695
96	0x3b9ad48d	0.004725045
97	0xbe0852c1	-0.13312818
98	0xbd6464f6	-0.055760346
99	0xbd026b44	-0.031840578
100	0x3d48b3a0	0.04899943
101	0xbdbe0187	-0.09277635
102	0x3e0a1c26	0.134873
103	0x3da72c64	0.08162764
104	0xbdcda5d4	-0.10041395
105	0xbd34f71d	-0.044180978
106	0x3d97fd53	0.07421365
107	0xbd939acd	-0.0720726
108	0x3e077042	0.13226417
109	0x3c00ec75	0.007868876
110	0x3d294760	0.041327834
111	0x3da930e2	0.08261277
112	0x3cd395bb	0.025828233
113	0xbdb57481	-0.08860112
114	0x3ce70710	0.02820161
115	0xbda78e22	-0.081814066
116	0x3dc2762c	0.09495196
117	0x3db92353	0.09039941
118	0xbd259a34	-0.040430263
119	0xbd470fbe	-0.048598997
120	0x3d3f9d8e	0.046781115
121	0x3c5f1520	0.013615876
122	0xbc584dd8	-0.013202153
123	0xbd8834d2	-0.066507
124	0xbdd08921	-0.10182405
125	0x3b3cff04	0.0028838525
126	0xbd7f9b80	-0.062404156
127	0x3da24249	0.07922799
128	0xbd097564	-0.033559218
129	0xbc213d96	-0.009841343
130	0xbd8b580a	-0.068039015
131	0xbdacab96	-0.08431165
132	0x3d8d18ae	0.06889473
133	0x3d64c722	0.05585397
134	0x3d935e8a	0.07195766
135	0x3b067bc0	0.0020520538
136	0x3d8de2ed	0.06928048
137	0xbdfcfbf2	-0.12352742
138	0xbcbe404a	-0.023224015
139	0x3d893ef4	0.067014605
140	0x3dc3386d	0.09532247
141	0xbd732a9c	-0.059366807
142	0x3db7e0a6	0.08978395
143	0x3e0635da	0.1310648
144	0xbc883a3e	-0.016629335
145	0x3de88898	0.11354178
146	0xbdb1cc07	-0.08681493
147	0x3d69a890	0.05704552
148	0xbd9baf29	-0.076017685
149	0xbd83487c	-0.0641031
150	0x3daace58	0.08340138
151	0x3cb6f200	0.022332191
152	0xbd9914c4	-0.07474664
153	0xbdeb3bb2	-0.11485995
154	0x3d98c26e	0.074589595
155	0x3df81017	0.12112444
156	0x3df76418	0.12079638
157	0x3de86b94	0.11348644
158	0xbd820905	-0.063493766
159	0x3d3088d7	0.04309925
160	0xbd0c6645	-0.03427722
161	0xbdab5068	-0.08364946
162	0x3d1ad838	0.03780386
163	0xbdb2194c	-0.08696231
164	0x3c982f6d	0.018577302
165	0xbd71e3f0	-0.05905527
166	0x3cf94fa2	0.03043348
167	0x3dbc3718	0.09190196
168	0x3dfc90d8	0.12332314
169	0xbdfc4eb0	-0.12319696
170	0x3d927813	0.071518086
171	0xbcea1ee1	-0.028579177
172	0x3ca33c98	0.019926354
173	0xbd8c9c8c	-0.068657964
174	0x3d654691	0.0559755
175	0x3d4edd98	0.050504297
176	0x3b363cc0	0.0027807206
177	0xbdbe1794	-0.09281841
178	0xbc4facbe	-0.012675462
179	0x3db2cbe8	0.08730298
180	0x3d44c090	0.048035204
181	0xbde0bbde	-0.10973333
182	0xbd0058f2	-0.031334825
183	0xbddf54dc	-0.109048575
184	0xbd179c7a	-0.037014462
185	0xbcc4c78a	-0.024020929
186	0xbdd8ac6e	-0.10579763
187	0x3c898454	0.016786732
188	0xbd661a38	-0.056177348
189	0x3cad35c8	0.021143809
190	0x3cb679d7	0.022274895
191	0xbda5a840	-0.08088732
192	0xbddefd61	-0.10888172
193	0xbd99ede5	-0.07516078
194	0x3def25e5	0.1167715
195	0xbdad9ab4	-0.08476773
196	0xbd53168e	-0.05153518
197	0xbbb68fc0	-0.0055713356
198	0xbd87b094	-0.066254765
199	0xbb187840	-0.0023265034
200	0x3c426fb9	0.011867457
201	0x3cad9cb8	0.021192893
202	0xbdf1aee0	-0.11800933
203	0xbdc5436e	-0.09632002
204	0xbb3ec805	-0.002911092
205	0x3df24760	0.1183002
206	0x3dd2220c	0.102604
207	0x3bb875b1	0.0056292643
208	0xbce12b34	-0.027486421
209	0xbc3c270e	-0.011483921
210	0x3db48524	0.08814457
211	0xbd5b7670	-0.053579748
212	0x3ddc65d4	0.1076161
213	0x3de28030	0.11059606
214	0xbda770bb	-0.081757985
215	0xbdc25f52	-0.09490837
216	0xbd7708c6	-0.0603111
217	0x3e01af68	0.12664568
218	0xbd8a47f0	-0.06752002
219	0xbdfaf212	-0.122532025
220	0xbdce2141	-0.100649364
221	0x3ce44ec8	0.027869597
222	0xbd6ab97a	-0.05730579
223	0xbc010cea	-0.007876614
224	0xbdd941f3	-0.10608282
225	0x3d42ccc1	0.04755855
226	0xbc67cb70	-0.014147624
227	0x3d854d2a	0.065088585
228	0xbdf29f4d	-0.118467905
229	0xbc4c1b28	-0.012457646
230	0x3deae254	0.1146895
231	0x3cb3b020	0.021934569
232	0xbddf1107	-0.108919196
233	0xbcfc95b4	-0.030833103
234	0xbca313c8	-0.019906893
235	0x3d3d2015	0.046173174
236	0xbb1f5f80	-0.0024318397
237	0x3d968414	0.07349411
238	0x3d79f718	0.061026663
239	0xbdf6585b	-0.12028571
240	0xbd5e7bc2	-0.054317243
241	0xbe08c75b	-0.13357298
242	0xbccd9dd4	-0.025099672
243	0xbc971558	-0.018442795
244	0x3da3389f	0.07969784
245	0x3db1f859	0.08689947
246	0x3daff9d5	0.085925736
247	0x3bbf2b80	0.005834043
248	0xbae8f218	-0.0017772345
249	0xbde6a8cf	-0.112626664
250	0xbda1795d	-0.07884476
251	0x3c04aea0	0.0080982745
252	0xbd24cea4	-0.04023613
253	0xbdf71cca	-0.12066038
254	0x3d336b9e	0.043803804
255	0xbd93095f	-0.07179522

bias f4 [180]
0	0x3d9906bb	0.07471987
1	0xbd345e5f	-0.04403531
2	0xbe1d81b5	-0.1538151
3	0x3cb3904f	0.021919398
4	0xbda71c3d	-0.08159683
5	0xbdd11db7	-0.10210746
6	0x3bbacb00	0.005700469
7	0x3ccd7af2	0.025083039
8	0xbd5ab562	-0.053395636
9	0xbdf31f5d	-0.118712164
10	0xbd8d2dea	-0.06893523
11	0xbe18df71	-0.14928986
12	0x3d0a6236	0.033785067
13	0x3a5b1cda	0.0008358486
14	0x3c501f09	0.012702712
15	0xbe0f9899	-0.14023055
16	0xbc4c1e05	-0.012458329
17	0xbcc2cc04	-0.023778923
18	0xbe01b56c	-0.12666863
19	0xbd87250d	-0.06598864
20	0x3c96e940	0.01842177
21	0xbcf393c8	-0.029733554
22	0xbde63dd8	-0.112422645
23	0xbdab26ac	-0.083569854
24	0x3dc7c581	0.09754468
25	0xbe15b661	-0.14620353
26	0x3dbbf367	0.09177285
27	0x3d9fc901	0.0780201
28	0xbd811ed6	-0.063047096
29	0x3dc3e983	0.09566023
30	0xbcf7c978	-0.030247435
31	0xbdbba5f8	-0.091625154
32	0xbdd3fb14	-0.10350624
33	0xbdb53668	-0.08848268
34	0x3d93ec5c	0.07222816
35	0x3cfc2b9f	0.030782519
36	0xbc8371dd	-0.016045505
37	0xbcbee2d1	-0.023301514
38	0x3d9f8436	0.07788889
39	0xbe00184a	-0.12509266
40	0x3d2f0064	0.042724982
41	0x3d91ba55	0.07115618
42	0x3bf5a744	0.0074967463
43	0xbd83c819	-0.0643465
44	0x3dc9afc6	0.09847979
45	0xbdd74385	-0.10510925
46	0xbabc3812	-0.0014359972
47	0xbda6519c	-0.081210345
48	0x3d9c5afc	0.076345414
49	0x3c872ce9	0.016500907
50	0x3d0d48db	0.03449331
51	0xbd8a0c95	-0.06740681
52	0x3d6dbd8e	0.0580421
53	0x3d37fa6a	0.044916548
54	0xbd1b8d59	-0.037976597
55	0x3d06e306	0.03293135
56	0x3db97665	0.09055785
57	0xbc2e28b2	-0.01062982
58	0xbc3c6772	-0.011499273
59	0x3dd8a4a1	0.105782755
60	0x3d7b48bb	0.061348658
61	0xbe025a36	-0.12729725
62	0x3d80dcea	0.06292136
63	0xbdcd3733	-0.10020294
64	0x3c13f4e6	0.009030556
65	0xbe0a156a	-0.13484731
66	0x3d014c54	0.031566933
67	0xbc3f3681	-0.01167071
68	0xbd86be40	-0.06579256
69	0x3dd68e45	0.104763545
70	0xbdfa1917	-0.12211817
71	0xbc7aa313	-0.015297669
72	0xbd4bbdef	-0.04974168
73	0x3bc12e96	0.005895446
74	0x3d8e4dcb	0.069484316
75	0x3dd1ef40	0.102507114
76	0xbc5db288	-0.013531335
77	0xbc1073a7	-0.008816636
78	0x3d28dedb	0.041228157
79	0x3d8cd2d0	0.06876147
80	0x3d8d382f	0.06895482
81	0x3c570a36	0.013124993
82	0x3d9d1227	0.07669478
83	0xbb265e53	-0.0025385811
84	0x3dbc5dc0	0.09197569
85	0xbd999307	-0.07498746
86	0x3de1deee	0.110288486
87	0xbddccdd4	-0.10781446
88	0xbd724898	-0.059151262
89	0xbce6bd1a	-0.028166343
90	0x3de98fa2	0.11404349
91	0xbdf51e08	-0.11968619
92	0xbcd2c805	-0.025730142
93	0xbca19208	-0.019722953
94	0xbde67b27	-0.11253958
95	0x3d570ab4	0.05250044
96	0xbd65d7ce	-0.05611401
97	0xbd86eb14	-0.06587806
98	0x3dbe7378	0.09299368
99	0x3d6d6f4a	0.05796746
100	0x3c132d41	0.008982957
101	0xbca6dc13	-0.020368611
102	0x3e03d9e8	0.12876093
103	0xbdd63b6c	-0.104605526
104	0x3dd2743e	0.10276078
105	0xbdb0d9f7	-0.086353235
106	0xbd5deb77	-0.054179635
107	0xbdd7a163	-0.10528829
108	0x3d96be4c	0.07360515
109	0xbda31f8c	-0.079650015
110	0x3ddc0f69	0.10745127
111	0x3d7e4096	0.062073313
112	0xbd9ed318	-0.07755107
113	0x3dc9c9a0	0.0985291
114	0x3b28529d	0.0025684007
115	0xbd615f06	-0.055022262
116	0x3d85ba59	0.065296836
117	0xbdbb4e81	-0.09145833
118	0xbbacd0b0	-0.005273901
119	0xbc3c029d	-0.011475232
120	0x3d2f256f	0.04276031
121	0xbd8b3d04	-0.06798747
122	0x3e06de9f	0.1317086
123	0x3dafdd4c	0.08587131
124	0x3c08883f	0.008333265
125	0x3c804d13	0.015661752
126	0x3e140aea	0.14457288
127	0x3cd4f111	0.025993856
128	0x3d2f46a1	0.042791966
129	0xbd402cf6	-0.046917878
130	0x3d4b040f	0.049564417
131	0x3da39395	0.079871334
132	0x3b9cf643	0.004790099
133	0x3d9c8a62	0.07643582
134	0x3c9a668d	0.018847728
135	0x3d9e5ea0	0.07732892
136	0x3dbe0280	0.092778206
137	0xbdd1c27c	-0.10242173
138	0x3d8f337a	0.0699224
139	0xb87466f7	-5.8270027e-05
140	0x3e1031b9	0.14081468
141	0x3e0e484d	0.13894768
142	0x3e174770	0.14773345
143	0xbd539126	-0.051652096
144	0x3ccbdacb	0.024884602
145	0x3dbf1348	0.093298495
146	0xbda464ad	-0.08027015
147	0xbda652b2	-0.08121242
148	0x3dae7800	0.08518982
149	0xbd9520be	-0.07281636
150	0xbd273a1f	-0.040826913
151	0x3d23b34f	0.039965924
152	0xbc439ceb	-0.011939268
153	0x3d4df608	0.05028346
154	0xbbdac675	-0.00667649
155	0xbd4144f8	-0.047184914
156	0xbc3dde15	-0.011588593
157	0xbdaff61d	-0.08591864
158	0xbc8f007d	-0.017456288
159	0x3cfdf7fb	0.031002035
160	0xbd982fe8	-0.074310124
161	0x3e0d45af	0.13796113
162	0xbd471dbe	-0.04861235
163	0x3df0f361	0.11765171
164	0xbdb2be53	-0.08727708
165	0xbd449d70	-0.048001707
166	0xbd29c1ea	-0.041444696
167	0x3d7b88ac	0.061409637
168	0xbd9a5653	-0.07535996
169	0x3d530b2a	0.05152432
170	0xbccffc1d	-0.025388772
171	0x3dd9a9d0	0.10628092
172	0x3e0721a8	0.13196433
173	0x3dc59cc8	0.09649044
174	0x3e0c9a5f	0.13730763
175	0x3dacc645	0.084362544
176	0x3e050c9f	0.12993096
177	0x397ac192	0.00023913968
178	0x3b9aa386	0.0047192005
179	0x3e10483e	0.14090058
