knn/models/pretrained-autoencoder/autoencoder-in_features180-latent_size30.pt (torch, 630854 bytes, 12 tensors)

weight f4 [270, 180]
00000000: 81be 58bc 4780 913d 04ea 813c 056c 76bd
00000010: a061 8cbd f8de 8bbd 18fc b03b ecea d53c
00000020: 95c6 473d 3a3d 18bd ee1e 5c3d b73b 80bd
00000030: aa40 893c 54e4 4f3d 1e1b 64bd 1046 5abd
00000040: c7a1 11ba 9714 12bd 5d46 8abd 74cf 77bd
00000050: 8d06 8ebd 7727 6dbc 72d4 f43c 8602 f33b
00000060: b5bf 78bc 889e 79bc 8284 e43a ddf7 95bd
00000070: 91b5 bf3c 5b9c 3cbd 67e5 51bd 5adb 723c
00000080: 049e 91bd cd24 09bd 8aa0 063d 2b18 afbc
00000090: 9573 97bd 4d2a af3c 22ec 76bd 8cad 6f3d
000000a0: 817c 3bbd bdba 363c 771a 8e3c f24b f4bc
000000b0: 8e91 b13b ae99 61bc 3d91 cebc d250 563a
000000c0: c486 4f3d c638 6ebc dcfb 81bc d8fc 5abd
000000d0: 7473 21bd 6515 88bd 263f ea3c a4c6 4fbc
000000e0: 2ecf b43c c6ac 3abd 96d9 cd3b 19c1 90bc
000000f0: 0e12 983d 55ac 8b3d 2834 0d3d b911 023d
00000100: 6f0e 5bbc 67c3 6ebd a4fd 493d 3ed4 293b
00000110: 8c96 dfbb 453f 28bd e381 95bc ff49 86bc
00000120: f1d8 403d e9ca 2f3d 84c4 21bd 4ad4 8bbd
00000130: 4ae7 273d 5f23 99bc 7bda 8dbc 7297 6c3d
00000140: 34b3 41bd 34d3 7c3d 3439 d73c 243a c3bc
00000150: 0d68 46ba 3143 88bd ab80 3fbd 6284 413d
00000160: fa2b 7dbd 1681 2e3d 1cd7 02bc 8b0a 76bd
00000170: bb83 213c b486 133d bc39 20bd b85b 35bd
00000180: 631e 753c ca2a ebbc 4cb1 aaba cbe0 91bd
00000190: 02cd 223d 1209 dbbb acff 35bd 196a 0e3c
000001a0: f6c1 27bd 7210 8ebd 962a 42bd b21a 4c3d
000001b0: 574a 543d ba54 19bd a216 223c f28a bbbc
000001c0: 4ff1 4e3d 376a a1bc e288 74bd 7483 7a3d
000001d0: 3d55 6c3d f336 5c3d 80f6 b83c 4ea5 ff3c
000001e0: 95e0 913d 16eb 96bd 09fe 21bd 474a 0dbd
000001f0: a180 d5bb 2faf 333d 42cb 3fbd 152b 32bd
00000200: fd71 183d 0a1b b63c 13c3 703d 7710 1c3d
00000210: 0324 b03b f30c 5bbd b064 8bbb 3d72 063d
00000220: 8640 803d 4edd 2d3d d56e 613c 2c83 f5bb
00000230: 5677 86bc 4e2f 30bc 1027 823d 73b7 0e3c
00000240: d608 96bd 1b92 033d 2fd3 8a3d 3a9c 36bd
00000250: 97c0 2ebd 1a32 23bc 2229 e0bb 9cb6 8abd
00000260: 5859 7a3d 90af 2f3d 0b08 56bd 1ccc 92bc
00000270: 99d1 3b3d 7788 51bd 7109 193d 1966 5fbd
00000280: 0d4b 93bc 74af 20bd b453 56bc b425 003c
00000290: 77a2 8fbd 2abf 0d3c a768 68bc 77b1 dfbc
000002a0: f684 a33c 6f66 973d 1f2b 83bd 47d8 9cbc
000002b0: 9cdd fbbc d7d3 8cbd 5c78 29bd 27ee ab3c
000002c0: b3ba 6e3d c3c5 78bd aab1 c13c 3833 dbbc
000002d0: 6497 92bd 1e51 5bbc 3a23 b3bc 9bea 883d
000002e0: 9264 6b3c 2e5b a3bc 2fee 7d3d ad5d bebc
000002f0: 1e31 093d df76 2fbd d1dd be3c 3c12 07bc
00000300: 5abd 2c3c dbdc f23b cd09 b4bc 8c55 3bbd
00000310: a97b 67bd 95af 50bd 87bc 22bd e4bb 5c3d
00000320: 09e0 8a3d f097 343d f5ce 8cbd 65a3 1ebd
00000330: 8d68 6bbb ce68 5d3d 6157 933d 044f 1b3c
00000340: 9671 173d 1c5e 503d ff1b fe3c 1a3b 0abd
00000350: e5b8 933d bed7 303d 69ca 5a3c dd3d 57bd
00000360: d109 473d 19f4 163c d38c 6e3d 9ad7 243c
00000370: 5c9a a6bc 2eb0 60bd 6f52 833d cb31 223d
00000380: 86a5 a43c f1d5 873d 91b0 45bd 43ed 8abd
00000390: b98c 76bd d966 7e3d 0b11 28bc b617 4a3d
000003a0: a15b 313d 3efc 85bd 4ea1 423c 3b65 b93c
000003b0: f4e4 29bd 0d6b 15bc 31d6 733d b011 38bd
000003c0: cca0 e9bc efee e83c 7d0a 423d d236 13bd
000003d0: 3f5a e63b a664 7b3d cab2 563c 6dfb 973d
000003e0: a137 b3bb 2d19 b7ba 1e86 59bd 460a 193d
000003f0: 9ce5 94bd 8fc5 4c3c da18 6cba 1abe 483d
-0.013229013 0.07104545 0.015858658 -0.06016161 -0.06854558 -0.06829637 0.0054011457 0.026112996
0.048773367 -0.037167765 0.053740434 -0.0626139 0.016754467 0.05075486 -0.055689923 -0.053289473
-0.0005555418 -0.035664167 -0.06751702 -0.060500577 -0.06934843 -0.014474741 0.029886458 0.0074160723
-0.015182425 -0.015235551 0.001743451 -0.07322667 0.023402007 -0.04604755 -0.051244166 0.014822805
-0.07110217 -0.03348236 0.032867946 -0.021373829 -0.073950924 0.021382475 -0.060283788 0.058515117
-0.045773033 0.01115292 0.017346604 -0.02982137 0.005418963 -0.01376955 -0.02521574 0.00081754953
0.050665632 -0.014539903 -0.015867166 -0.053463787 -0.039416745 -0.06644706 0.028594565 -0.012681637
0.022071447 -0.045574926 0.006282042 -0.017670201 0.07425319 0.06819979 0.03447357 0.031755183
-0.01337014 -0.05829182 0.049314156 0.002591386 -0.0068233665 -0.041075964 -0.018250411 -0.016392706
0.04708189 0.04291812 -0.039494053 -0.068276 0.04099206 -0.018693624 -0.017316094 0.057761617
-0.047290042 0.061724856 0.026272394 -0.023831435 -0.00075686054 -0.06653441 -0.046753567 0.04724539
-0.061809517 0.042603575 -0.007985856 -0.06006865 0.009858067 0.036017135 -0.03911756 -0.044276923
0.014960858 -0.028706927 -0.0013022809 -0.07122954 0.039746292 -0.006684431 -0.04443328 0.008692288
-0.04095646 -0.069367304 -0.047403894 0.049830146 0.05182871 -0.037434317 0.009893091 -0.022893403
0.0505231 -0.019703967 -0.059700854 0.06116052 0.057698477 0.05376334 0.022578478 0.031206753
0.07122914 -0.07369058 -0.039548907 -0.034494665 -0.006515578 0.04386824 -0.0468247 -0.043498117
0.037218083 0.02222969 0.058779787 0.03810164 0.0053753867 -0.053479146 -0.0042539462 0.03282379
0.06262307 0.04244738 0.013759335 -0.0074924435 -0.016414326 -0.010753466 0.06355107 0.00871073
-0.07325904 0.03212176 0.06778561 -0.044582583 -0.042664137 -0.009960676 -0.006840841 -0.06773111
0.06112036 0.04289204 -0.052253764 -0.017919593 0.045854185 -0.051155534 0.03736252 -0.054540727
-0.017980123 -0.039229825 -0.01308148 0.007821489 -0.070134096 0.008651534 -0.014185107 -0.027306302
0.019960862 0.073925845 -0.06404709 -0.019146098 -0.03074532 -0.06876343 -0.04137455 0.020987583
0.05828352 -0.060735475 0.023644287 -0.026757821 -0.07157782 -0.013386039 -0.021867383 0.066853724
0.01436724 -0.019940939 0.061994728 -0.023238027 0.033494107 -0.042837974 0.02329913 -0.0082440935
0.010543192 0.007411582 -0.02197733 -0.04573588 -0.056514416 -0.050948698 -0.039730575 0.053890124
0.067810126 0.04409021 -0.068754114 -0.038730044 -0.0035920471 0.054055028 0.071944006 0.009479288
0.03697356 0.050871 0.031019209 -0.03374777 0.07213 0.043174498 0.013353922 -0.05254923
0.048593346 0.009213471 0.05823977 0.010061169 -0.020337276 -0.054855518 0.06412207 0.039598268
0.020098459 0.06632603 -0.04826409 -0.06783535 -0.060192797 0.062109802 -0.01025797 0.04933902
0.043300275 -0.06542252 0.011879278 0.022631278 -0.041478112 -0.009119761 0.05953044 -0.044938743
-0.028519057 0.028434245 0.047373284 -0.035940953 0.007029801 0.061375283 0.01310415 0.074210025
-0.005469278 -0.0013969295 -0.05310642 0.037363313 -0.07270357 0.0124982735 -0.0009006389 0.04900942

bias f4 [270]
00000000: cf8d 923d 93d1 4f3d e727 6ebd 76d3 95bc
00000010: 6294 c43c 683d 333c 3258 34bd 1a67 fabc
00000020: efc0 cdbc d629 363d c715 b0bc 52db 8fbd
00000030: 1817 6dbd 967a 2d3c 122d 073d ae70 2e3c
00000040: fe66 a63c 6e5d 61bd bc10 03bd 40f6 aabc
00000050: d9e4 823d f406 d03c 1e14 0d3d 1c98 38bd
00000060: 73d4 6b3d 0957 3a3d c0e4 673d 4b15 623d
00000070: df3d 7e3d 1201 043d bfd0 0fbd 85c4 ba3b
00000080: 325b 00bd ab29 95bd 15cd e139 306b e23b
00000090: ba7e 2c3d 3e8f 41bd bbbe 8b3d 1db4 5bbd
000000a0: 48f4 86bd 77e4 813d a3d6 80bd d9af babc
000000b0: b034 98bc 6cb9 1a3d fcd6 f33c a1cd 4cbd
000000c0: 60da 893d a72a 163d bf83 8fbd e400 bcbb
000000d0: ccaa f0bb 5697 3cbd c635 4bbd 03bd e13b
000000e0: 0029 233d 0652 57bd 74bc 3ebd 1f24 823d
000000f0: f9c2 0bbd f81e adb9 8b09 f9bc f54e 063d
00000100: 4a07 32bd bda3 6e3c 3c74 10bd 2be3 b53c
00000110: b2e1 5abd d088 63bd fa28 193d 9b49 893d
00000120: 83a8 823d 62c6 8d3d 142a 10bd 2bd6 693d
00000130: 5f6d 673d 8d88 79ba 5851 393b 14af 743d
00000140: 3430 80bd 88fb 88bd 4b0b 8e3d e184 0938
00000150: 5830 a93c 5f31 70bd 324c 65bd d00e 48bd
00000160: 688f 8a3d e1ce c8bc 696b 8abd 0864 f6bc
00000170: 3e77 723d 8418 8bbc db86 823d 8691 b03c
00000180: 8048 73bd 7f21 aabc 460d 313c b628 b3bc
00000190: 5882 75bd e82a 873d c355 57bc d185 8c3d
000001a0: 30f6 8bbd 4be1 6cbd aeb3 3b3d 6dc8 843c
000001b0: c45e 54bd 5855 1cbb 0d21 80bc f6fe 803d
000001c0: 7980 833d dc48 003d 0da7 4e3d 82d0 593d
000001d0: 9c07 e9bc 00c9 033d a77f 563d 325e 2bbd
000001e0: d0ec eb3c 43e8 13bd d23e 76bc eb96 30bd
000001f0: d2d4 2a3d ddb1 073d d8fe 363d 4f04 ad3c
00000200: 0dd2 5d3d b979 83bd b316 b83b 0a7a fcbc
00000210: e2d1 0d3d 8e5e 24bd 327d 7cbd 8a85 bdbc
00000220: f033 55bd ce67 353d 8fc1 14bd 3846 8d3d
00000230: 3415 60bc 4fc9 03bd 4ca4 003d ea57 fdbc
00000240: 5638 79bd 653d 77bd fa7d 613d 81ab 27bc
00000250: 69a6 5cbd f109 1fbd 4aa6 133c 30c9 2dbb
00000260: 2cf0 13bd 1c70 0d3d 4ba8 66bd a1c4 5bbd
00000270: 5e4e 78bd f6a9 e43c f341 75bd ddcc 803d
00000280: 84b4 4abd 27be d83c ae66 873d 13c2 503d
00000290: 950a 04bd dc70 0fbd e64f c93c 5cbc 8a3d
000002a0: 1f55 a13c b885 f63c 6360 01bd ae69 1b3b
000002b0: d40d 543d 6fea 94bd 5734 90bd bed6 5b3c
000002c0: 82fd 473d 2fd9 b33b d330 713d 27be 39bd
000002d0: 9328 80bd 2ff0 283d 8086 913d 4273 6bbb
000002e0: 8f7a d13b a71b 1e3b 8fb1 123c d80f 293d
000002f0: 0385 9c39 ca78 dbbc 8d91 8a3d 7e4e 2c3d
00000300: 95c8 113d c2de 71bd 6d40 91bd 8aab f43c
00000310: 3591 8bbd 5520 633d 0926 073c 5bc0 ed3c
00000320: 777d f0bc 1d14 403d 00de 663c de7f 34bd
00000330: 45df 3ebd 9492 343d 3ca8 713d bec2 e93c
00000340: c0a1 d1bc 12c9 5c3d 771f f0bc de9c 5f3d
00000350: 7890 11bd 376a 6a3c 41af a5bb eba9 c8bb
00000360: df63 f23b 216e 773c 389e 8f3d 3b4b 6e3d
00000370: 00a3 61bd 6bbd d73c 0211 5ebc 46ab 1b3d
00000380: 1ef2 2a3d 161b 1dbd 69ad 893d a444 333d
00000390: 3e48 563d 96f4 fbb9 bf76 f83c 0498 f03c
000003a0: cc5e 093d ded6 fb3c 7bdb cebc dc7e 33bd
000003b0: 1241 67bd 57db 90bc cea1 613c 4e78 97bc
000003c0: c34c 07bd bef4 793c 0c41 483c b9f3 88bc
000003d0: 0b4a dcbc d5e1 033d 50b6 873c 95f7 2f3d
000003e0: 5321 29bd a86d 47bd 4f0e 373d 571b 8bbc
000003f0: 009f ec3c 83f4 10bd 60f0 9ebc c05c b9bb
0.07155954 0.050736975 -0.058143523 -0.018289309 0.023996536 0.010939933 -0.044029422 -0.03056674
-0.025116412 0.04447349 -0.02149476 -0.07024254 -0.057883352 0.010588309 0.033001967 0.010646982
0.020312782 -0.055020742 -0.03199838 -0.020869374 0.063913055 0.02539394 0.034443013 -0.045066938
0.057575654 0.04549316 0.056614637 0.055196088 0.062070724 0.032227583 -0.035111185 0.0056996965
-0.03133697 -0.07283338 0.00043068142 0.0069097504 0.042113043 -0.047255747 0.06823488 -0.053638566
-0.06589562 0.06342404 -0.06290939 -0.022788929 -0.01857981 0.03777449 0.029765598 -0.05000079
0.06731105 0.03666177 -0.070075504 -0.005737411 -0.0073445793 -0.046042763 -0.04961183 0.006888987
0.039834023 -0.052568458 -0.04656644 0.06354546 -0.034121487 -0.00033020205 -0.030400058 0.032790143
-0.043463983 0.014565405 -0.0352671 0.022203049 -0.053437896 -0.055550396 0.037392594 0.06703492
0.06379797 0.06922604 -0.03519638 0.057089012 0.05650079 -0.0009518944 0.0028277244 0.05973728
-0.06259194 -0.06688601 0.06935748 3.27871e-05 0.020652935 -0.058640834 -0.05598087 -0.04884225
0.06765634 -0.02451271 -0.06758768 -0.030076995 0.05919575 -0.016979463 0.06373378 0.021553766
-0.059395313 -0.020767925 0.010806387 -0.021869998 -0.05993876 0.065999806 -0.013143006 0.06861461
-0.06834066 -0.057832044 0.045825653 0.016208852 -0.051848188 -0.002385458 -0.01564076 0.0629863
0.064209886 0.031319484 0.05045228 0.053177364 -0.028446011 0.03217411 0.052367833 -0.04183788
0.028799444 -0.036110174 -0.015029626 -0.043112677 0.041706868 0.033128608 0.04467663 0.021120219
0.0541554 -0.06419701 0.0056179403 -0.030819912 0.034623988 -0.040129237 -0.061642833 -0.023134965
-0.052051485 0.04428845 -0.036317404 0.06898159 -0.01367693 -0.032174405 0.031406686 -0.03092571
-0.06084474 -0.060361285 0.05505178 -0.010233761 -0.05386964 -0.03882784 0.009011814 -0.0026517622
-0.036117718 0.034530744 -0.05631284 -0.053654317 -0.06062161 0.027913075 -0.059877347 0.062890746
-0.04948856 0.02645786 0.066113815 0.050966334 -0.032236654 -0.03501974 0.024574231 0.06774208
0.01969391 0.030093059 -0.031586062 0.0023714113 0.051771 -0.07271277 -0.07041233 0.013417898
0.04882575 0.005488537 0.058884453 -0.04534736 -0.06257739 0.041244682 0.07105732 -0.0035926853
0.006392784 0.0024125369 0.008953466 0.041274875 0.0002985374 -0.026790995 0.06766043 0.042067043
0.03559168 -0.05905033 -0.07092366 0.029866952 -0.068148054 0.055450756 0.008248814 0.029022386
-0.029356701 0.04689418 0.014091015 -0.044067256 -0.046599645 0.0440851 0.05899833 0.028535243
-0.025589824 0.053902693 -0.029311879 0.05459296 -0.035538167 0.01430755 -0.0050562923 -0.0061237714
0.0073971595 0.01510194 0.070126 0.058177214 -0.05508709 0.026335439 -0.01355386 0.038005136
0.041734807 -0.03835591 0.067225285 0.043766633 0.05231499 -0.0004805668 0.03033006 0.029369362
0.03353767 0.030742105 -0.02525114 -0.043822154 -0.05645854 -0.017682714 0.013771487 -0.018489983
-0.03303219 0.015256105 0.01222254 -0.016717779 -0.026890775 0.032197792 0.016566426 0.042960722
-0.041291546 -0.04868856 0.04469138 -0.01698081 0.02888441 -0.035389435 -0.01940173 -0.0056568086

weight f4 [90, 270]
00000000: 5cb2 2c3d 35be 673a 7351 0fbd 516e 023b
00000010: 45cf 46bd f028 fa3c 351a 623c b7f4 113d
00000020: c472 243b 73b1 833b 80e0 8f3c ed99 9cbb
00000030: 7ab7 1d3d 0fe7 9e3c e271 103d 829e 3e3d
00000040: 50c7 11bd 754e 45bc 5717 cbbc 159c 3b3d
00000050: 7e10 313c d049 1a3d c088 b53c 9888 5e3c
00000060: 741f 693d 08a6 6a3d 3a49 aabc 9935 8a3c
00000070: 4a0b 763b 015f c33c 8f16 6b3c a7bf c93c
00000080: 15ab e93c 6317 a9bb 3380 5a3d 1b56 463d
00000090: 2182 4ebc c0bb a3bc 1f0d 223d def3 1abd
000000a0: 3cef 593c 6e16 e43c 414b 99bc a2c1 c03b
000000b0: b82d c2bc 120b 25bd ca75 0cbd 7a5f f1bc
000000c0: 587f 4cbc bb1c b43c 85a9 dabc a8da 34bd
000000d0: 8db4 58bc c481 4e3d 8d14 29bd e569 7f3c
000000e0: e771 0bbd 70af f23c b6f2 b13c 78fc 6b3d
000000f0: 3536 3ebd 6c08 1dbd e8ad 7e3d aa43 853b
00000100: 3174 0cba fb12 ad3c 4005 5dbd 87ba 1c3c
00000110: 697e e8bc b195 613d 8710 1abc ed56 be3c
00000120: 5aa7 2d3d 6be7 8a3c 296e 573d db8f 5e3d
00000130: e664 673c a563 f3bc 1a8f 4ebc b6e3 41bd
00000140: 00a1 a2bc c98a b2bc f908 4f3d fbf8 67bd
00000150: 746d e9bc a214 d33c 888e 4abc 186d 093d
00000160: ee23 4d3d c9c3 363d ad95 86bb 400d 0bbd
00000170: 3b94 81bc 8284 4dbd 0a4f 0b3d fb2a 0e3c
00000180: 99cf 1f3a 5521 f43c 49ea 4bbb 7e48 41bc
00000190: b25a 37ba 0e4f f33c a101 de3c fe17 dabb
000001a0: ff17 61bd 4447 f6bc 14d5 2dbd d11e 03bd
000001b0: 5443 aebc 65e2 0b3c b2da 5fbd eefb 1ebc
000001c0: ac2b 69bd 58e3 203d 782c 2f3d 3516 9e3b
000001d0: 49e4 24bd 920a f7bc 7795 5d3c a3c7 9bbc
000001e0: 9c40 71bd bceb 6e3d 97d9 183d 30a3 333d
000001f0: ce91 34bd 34f7 fabc 03e3 46bd b7c7 453c
00000200: fb8a 093d fa40 12bc b2bb 1b3d f2b7 373d
00000210: 38e7 af3c 85a5 54bd 159e 6a3d 484b 77bd
00000220: a8eb 383c 4076 91bc c0c7 713d df0b 29bd
00000230: 6c2e 093c c680 a1bc 6f62 653c e95c ee3c
00000240: 3f09 dc3c 8ca4 f33c 7de8 123d 2e21 503d
00000250: bf36 353c 1f01 40bd 5012 403d f561 ab3c
00000260: 24cb 1f3d e52a 823d 3ed5 163d ea80 a4bc
00000270: 087a 713b fbf5 68bc 90e8 2c3d bda7 193d
00000280: 9324 35bd 42e7 de3c eb97 41bd d7cf 2dba
00000290: b170 d9bc d5c3 ac3c bb37 7a3d 0be6 423c
000002a0: e0d9 4c3a 3b28 2f3c 0345 63bd 3e94 083d
000002b0: 19a9 4b3d dd33 6b3c a12e 5ebc c33a 50bd
000002c0: 2a3c 103d 91c4 443c b91b bf3c d078 423c
000002d0: 06ac b83c 671b 05bd 1772 34bd 8257 b43c
000002e0: e420 96bc 4a88 83bc 9333 2a3d 09b3 123d
000002f0: 3758 333d a2ea 6c3d 5ca5 6ebd b565 1a3d
00000300: 9875 55bd 8bf4 ee3b 8671 4a3d 9418 163c
00000310: da3e 023a 2f62 003d f660 533d 0bbd 563d
00000320: bd0f 49bd 51bd 0cbd c054 d3bc 759b 073d
00000330: 9a32 debc 6e96 433c 4c0b 2dbd 3f6b 26bd
00000340: 7ae7 32bd bf68 e33b 142d 2bbd c339 283c
00000350: 8b5d 703d 3d57 e1bc 2342 083d e8ca 253d
00000360: 592f 093d 98aa e9bc 693b bfbc ab51 753d
00000370: 3cc3 3a3c 2008 f13c c9ba 03bd e403 f53c
00000380: b216 77bb 6eb9 583d 9f03 30bd 3a57 193d
00000390: a685 363a 8460 45bd bcba f33c 9c16 3ebc
000003a0: 643d e63b 1c90 203c 8ebd 283d d8b4 5cbd
000003b0: 1d26 66bc 514c 9f3b 5a48 183d a74f 543d
000003c0: 5389 fbbc 62bf 043d a9d9 5ebd b8a6 3c3d
000003d0: 8263 52bd 1e2e 15bd 2055 26bd 94e2 293d
000003e0: 1e17 18bd 04e5 0bbd 4634 4dbc 6a6e f9bc
000003f0: d647 843c 7c9b c13b 6f5a b7bc 50f5 523d
0.042162284 0.0008840294 -0.034989785 0.001990218 -0.04853751 0.030537099 0.013800194 0.03563377
0.002509282 0.0040189563 0.017563105 -0.0047790916 0.038505055 0.019397287 0.035264857 0.046537884
-0.03559047 -0.012042631 -0.024791403 0.04580315 0.010807155 0.03766805 0.022159934 0.013582371
0.05691476 0.057287246 -0.02078687 0.01687126 0.003754335 0.023849012 0.01434864 0.02462752
0.028523961 -0.0051602586 0.053344917 0.04842196 -0.012604267 -0.019986987 0.039563295 -0.037830226
0.013301667 0.027842727 -0.018712642 0.005882458 -0.023703441 -0.04029376 -0.03429202 -0.029464472
-0.012481533 0.021986356 -0.026692161 -0.04415384 -0.01322664 0.050416723 -0.041279364 0.015589212
-0.034044173 0.02962467 0.021722179 0.05761382 -0.046438415 -0.03833811 0.06217757 0.004066904
-0.000535789 0.021127215 -0.053960085 0.009565956 -0.02838059 0.055074397 -0.0094033545 0.023234809
0.042395927 0.016956052 0.05259529 0.05433641 0.014123177 -0.0297106 -0.01260736 -0.047336303
-0.019852161 -0.021794694 0.050545666 -0.05663393 -0.028494574 0.025766674 -0.012363084 0.033551306
0.050083093 0.04462031 -0.004107198 -0.033948183 -0.015817752 -0.050175197 0.034010924 0.0086772395
0.0006096303 0.02980105 -0.0031114987 -0.011797069 -0.00069944107 0.029700782 0.027100386 -0.006655692
-0.054954525 -0.030063279 -0.042439535 -0.03201181 -0.021272339 0.008537863 -0.054651923 -0.009703619
-0.056926414 0.039279312 0.042767018 0.0048244246 -0.040256772 -0.030156408 0.013524405 -0.019016093
-0.058899507 0.058330283 0.037316885 0.0438568 -0.044084363 -0.030635454 -0.04855634 0.0120715415
0.033579808 -0.008926624 0.038020797 0.04485316 0.021472558 -0.051915664 0.057279665 -0.06037453
0.011286654 -0.017756581 0.059028387 -0.041271087 0.008372884 -0.019714724 0.014000519 0.029097037
0.026859878 0.029741548 0.03586625 0.050812893 0.011060416 -0.04687607 0.046892464 0.020920733
0.03901209 0.06355838 0.036824457 -0.020081002 0.0036846418 -0.014218803 0.042213976 0.037513483
-0.044224333 0.027209882 -0.04726402 -0.0006630397 -0.026542993 0.021089474 0.061088305 0.011895667
0.00078144483 0.010690744 -0.055485737 0.0333445 0.04972181 0.014355627 -0.013560922 -0.05083729
0.035213627 0.012009756 0.023328649 0.011869624 0.022542965 -0.032496836 -0.044054117 0.022014383
-0.01832623 -0.016056199 0.04155309 0.035815272 0.0437853 0.05784095 -0.058263168 0.03769465
-0.0521141 0.0072923354 0.04942467 0.009161133 0.0004968472 0.031343635 0.05160614 0.05242638
-0.049087275 -0.034360234 -0.025797248 0.03310724 -0.027123738 0.011937721 -0.0422471 -0.04062962
-0.043677785 0.006939977 -0.041791037 0.010267678 0.05868296 -0.027507419 0.033266198 0.04047671
0.03349242 -0.028523728 -0.023343759 0.059892338 0.011399087 0.02942282 -0.032160554 0.029909082
-0.0037702736 0.052911215 -0.042972203 0.0374367 0.0006962664 -0.048187748 0.029752128 -0.01160207
0.0070263613 0.009799983 0.0411964 -0.053883404 -0.014047173 0.0048613925 0.037178375 0.051833775
-0.03070513 0.03240908 -0.054406796 0.046057433 -0.05136443 -0.036420934 -0.040608525 0.041475847
-0.03713142 -0.034153953 -0.01252467 -0.030448157 0.016147535 0.0059084278 -0.02238199 0.05150348

bias f4 [90]
00000000: 5ded 67bd d8b5 3e3d d28b 593d c08c fd3b
00000010: 8704 633b b5ad 703d 57df 04bc 8ec6 f5bc
00000020: 27f3 6d3d fd85 833b a5e0 ddbc a53a 13bd
00000030: 6a41 c93c bd9b 163d 9dd4 6ebd 3341 f5bc
00000040: 53f6 abbc 9d65 f83c a608 66bd 7314 2c3c
00000050: b51d 62bd c436 5bbd 7c36 b1bc 0066 56bc
00000060: 282f 4ebd a739 4c3d 5a08 6abd b702 3c3d
00000070: 76d8 4e3d 686c e5bb 3ee9 61bd 396d e7bb
00000080: 48d3 ab3c 607e 073d 1d03 363d 15ea c5bb
00000090: 1377 2dbd b8a5 553d 168c 2ebd 5782 5fbd
000000a0: 996d f13b 17b8 493b bef4 153d 55e3 d13c
000000b0: 71ff 3ebd 5c3b 59bd 5a91 cfbb a3df 38ba
000000c0: e99a d5bc 4d36 5bbb 61d0 913c e02a 353c
000000d0: 0967 443d 080b 5f3c 2426 233d bc94 d53c
000000e0: 8d0c 1a3d 3770 1a3d 9562 263d 7f14 2ebd
000000f0: e002 b4bc cd6d 10bd 5d69 233d 4e27 95bb
00000100: 4a3d 2abd cc04 a3bc e67d d9bc be42 493d
00000110: 1d9e 943c 9bbc 15bd 4704 fbbc 7a01 4a3d
00000120: c7b1 c83c 2c06 553d 0848 9cbc 66d1 853c
00000130: 3da5 6cbd 05d9 50bd 175f 3abb d565 4f3d
00000140: b532 e2bc 7da4 0e3d cafc 793a 84c6 2abd
00000150: fbd3 2fbc 13b7 d9bc f0f1 123d f6a7 2e3d
00000160: 2bbc 123d e343 0cbc
-0.05662285 0.04656014 0.05311186 0.007737726 0.003464015 0.05875941 -0.008109889 -0.030001905
0.058093216 0.0040137754 -0.027084658 -0.0359446 0.024567325 0.036769617 -0.058308233 -0.029938316
-0.02099148 0.03032189 -0.05616059 0.010502922 -0.055204112 -0.053519025 -0.021632425 -0.013085842
-0.05033794 0.04985967 -0.05713687 0.045901027 0.050499402 -0.0070014484 -0.055154078 -0.007062581
0.02097477 0.033079505 0.044436563 -0.0060398676 -0.042349886 0.052159995 -0.042614065 -0.05456766
0.0073678014 0.0030779892 0.036610357 0.025621096 -0.046630327 -0.053035125 -0.006334466 -0.00070523674
-0.026074843 -0.0033449114 0.017799558 0.0110575855 0.047949824 0.01361347 0.039831296 0.026071899
0.037609626 0.037704673 0.04062136 -0.042500015 -0.021974027 -0.035260964 0.039895404 -0.0045518046
-0.041562356 -0.019899748 -0.02654929 0.049135916 0.0181418 -0.03655682 -0.030641688 0.049317814
0.024498833 0.05200784 -0.019077316 0.0163352 -0.05777477 -0.050988216 -0.0028438026 0.050634224
-0.02761207 0.034824837 0.00095362647 -0.041693226 -0.010731692 -0.026576554 0.03587526 0.04264065
0.035823982 -0.008561107

weight f4 [30, 90]
00000000: 07c4 cebb af26 773d ecb4 cebd 77e5 793d
00000010: 5d5e cf3c d6b0 a43c ff2f 2dbd c028 ac3d
00000020: ad45 4d3c 9495 9f3c 3584 21bd f730 9e3d
00000030: c4e2 c93c 0ee0 d2bd 34e2 8fbd 0e96 633d
00000040: aa54 083d 9d9c 2fbd d667 91bc 468b d4bb
00000050: 5a4a 4ebd 4683 853d d4f0 9cbd b870 a23d
00000060: 57a0 d23d facd 9cbd 262f d6bd afb7 d13d
00000070: 32e1 8c3d 675f a83d e5f9 9cbd f3a4 bd3d
00000080: 99dc 8f3c 0a58 503d 5bc2 0c3c e958 95bb
00000090: 6bb9 39bd 7cca aabd b9e4 9bbc 13f4 abbd
000000a0: 7dd3 4d3d 554b 60bd 9777 65bd c2ba d93d
000000b0: 8df2 5abc 1af9 d53d 0aaa 0fbd 8d7e b83c
000000c0: 9e9c 27bd 7d7d 463d f695 8abd 4c52 a73b
000000d0: 5c72 1f3b 0168 273d 49b7 9b3d a69f 893d
000000e0: 401d cebd 311a 8d3c 50c9 fdbc 78e1 19bd
000000f0: e16a ae3d 161a cabd 2962 3abd 8d14 7cbd
00000100: d8f0 9a3d ca7b 47bd 31af dbbc 009c 94bd
00000110: 50b5 313c ba01 67bd cc4e 3d3d f67f ae3d
00000120: 3d5d 14bd d9ea 3a3d 564e af3d fed4 ac3d
00000130: 5f3c a0bd 71a2 99bc cf12 56bd 3398 e53a
00000140: b7b8 c4bd 7ac8 a5bd bb2a 813d 4095 873d
00000150: b100 c5bc 163e 74bc a7d1 74bd 8da8 edbc
00000160: 8497 503d c7a1 af3d 322a 083d fec9 c43c
00000170: 5888 c8bd 47b7 f3bc 1227 9dbd 312b 8c3d
00000180: b165 233c f389 a1bc 7619 e43c 7f75 7d3d
00000190: ab00 c6bd 65fd 14bc 32cd 03bd 3ed4 443d
000001a0: 0ea3 0ebd 95cc a03d 035c 90bd 0009 85bd
000001b0: df58 21bc f0ca 8b3d a932 cd3d caf8 81bd
000001c0: 53dd d3bc 0d10 91bd f4a9 533d 76e3 2d3d
000001d0: 7b0f 89bd 285e b9bd fc69 d0bd 39fb 96bd
000001e0: ae36 d23c fab0 b43d 1d31 73bc a862 bcbc
000001f0: 4276 a4bb a5d3 7abd d840 dfbc d075 10bd
00000200: d224 803d 2343 fe3c b680 d73c 2ca4 953d
00000210: 456d e43c 540a 5fbd d09a 923b 1514 d43d
00000220: dd6d 22bc 32c9 e53c 0b26 c4bd 1532 bd3c
00000230: 7fc0 01bd afb2 50bc e50e 9ebd aa98 713d
00000240: 7d7e 54bd 065b 1c3d 2a19 503d 282a 563d
00000250: fb86 9a3d 7460 19bd cc57 5fbc 1caa d03d
00000260: 5f87 84bd 5356 a23d 833f c7bd 31e8 4cbd
00000270: 8ab2 86bd 5c45 b9bb 44e6 8e3d a5a5 8dbb
00000280: 18dd 103d d820 9bbd 96b5 d33b 8ebf 18bd
00000290: 6ab1 a13d d18a 9a3d 70c2 84bd c1ef b73d
000002a0: dca8 7a3d 3cd7 613d 6d22 803d c761 b5bd
000002b0: 8632 61bd a2ca 883d b0c7 8fbd 7664 a5bd
000002c0: c4a3 d2bd 6a1c 5bbd 3903 7ebd 033a f1ba
000002d0: dab3 82bd 4c7c 3e3d 14a2 aebd 6bc0 db3c
000002e0: f1cb d03d 8e2e d83d 7bc6 923b 8f32 a9bd
000002f0: f070 86bd 6cd6 ac3d 48d0 a43d 4df3 253d
00000300: caea b73d f436 12bd 256b e9bc d234 433d
00000310: d761 f8bc 44e2 b9bd 51c8 b53d e9ef 713d
00000320: 343e 663d 217f 263d a584 afbd 66f0 c7bd
00000330: 2331 68bd bae0 1ebd 3d3a 7f3d b619 ca3c
00000340: 333a d83d 321b c63c eeb7 173d 0873 8f3d
00000350: 7c84 cfbd bb04 bf3d 6e76 6b3d b890 33bd
00000360: b07b db3c 73fb 73bd de09 92bc d3be d13d
00000370: fc88 023d 45be c6bc b8eb acbc 7d4a ae3d
00000380: 96b8 83bd 1860 6fbd 915e acbd e0d6 8d3d
00000390: bc20 d3bc a603 1b3d 01dc 6ebd 5bfc 2abd
000003a0: 90ee 74bd a149 3ebd 2c9b 963d 38eb a73d
000003b0: 3451 043d a6a2 083d 6e58 573c a4c8 b63d
000003c0: a575 453d 74ec a23c a465 75bc 0d3f 243d
000003d0: 26af ccbd fa93 f1bc c820 923d 2778 c43d
000003e0: a355 08bb a118 93bc 02b1 5b3b 5dcf 19bc
000003f0: 7aba cabd 0ff6 673d 2c6f 9a3d 8809 12bd
-0.0063099894 0.060339626 -0.10093102 0.06100985 0.02531355 0.020103853 -0.0422821 0.0840621
0.012528819 0.019480504 -0.039432723 0.07724183 0.024644263 -0.10296641 -0.07025567 0.055563025
0.033283867 -0.042873967 -0.017749708 -0.0064863293 -0.050363876 0.06519179 -0.07663122 0.07931656
0.10284489 -0.076564744 -0.104582116 0.10240113 0.0687889 0.082213216 -0.07664851 0.09259977
0.017561244 0.05086521 0.00859126 -0.004557718 -0.045342844 -0.08339402 -0.019029962 -0.08396163
0.05025052 -0.054759342 -0.056022253 0.10631324 -0.013363493 0.10447903 -0.03507427 0.022521282
-0.040920846 0.04845952 -0.06766884 0.005106246 0.0024329638 0.04087067 0.07603318 0.06719904
-0.10064173 0.017224403 -0.030979782 -0.03756854 0.08516479 -0.09868257 -0.04550377 -0.061543036
0.075654685 -0.04870204 -0.026816936 -0.07256317 0.010846451 -0.05639813 0.046217725 0.085205
-0.03622173 0.045634124 0.08559863 0.084390625 -0.07824015 -0.018754216 -0.05226403 0.0017516672
-0.09605544 -0.080948785 0.06306978 0.06620264 -0.024048181 -0.014907381 -0.059770253 -0.029011035
0.050925747 0.085757785 0.033243366 0.024022099 -0.097916305 -0.02975048 -0.07673468 0.068441756
0.009972976 -0.0197191 0.027844172 0.06187963 -0.09668096 -0.009093617 -0.03217811 0.048053972
-0.03482347 0.07851521 -0.070488 -0.06495857 -0.009847849 0.06825817 0.10019428 -0.06346281
-0.025862372 -0.070831396 0.05167575 0.04245325 -0.06692406 -0.09051162 -0.10176465 -0.07372136
0.025660839 0.08822818 -0.0148432525 -0.022996262 -0.0050189802 -0.061236996 -0.0272526 -0.035268605
0.06257023 0.031037873 0.026306491 0.07306704 0.027884135 -0.05445321 0.0044740215 0.10355393
-0.009913889 0.028050039 -0.095775686 0.02309517 -0.03167772 -0.012737914 -0.07717685 0.058983482
-0.05187844 0.038172744 0.05080525 0.052286297 0.07545277 -0.0374455 -0.013631772 0.10188696
-0.064711325 0.07926621 -0.09728911 -0.050026122 -0.065770224 -0.0056540202 0.069775134 -0.004322725
0.0353671 -0.07574624 0.0064608557 -0.037292056 0.07895167 0.075460084 -0.064823985 0.08981276
0.061196193 0.055136904 0.06256566 -0.0885654 -0.054979824 0.06679274 -0.07020509 -0.08075802
-0.10285142 -0.053493895 -0.062014792 -0.001840413 -0.0638196 0.046505257 -0.08527008 0.02682515
0.10195149 0.105557546 0.004479227 -0.082615964 -0.0656451 0.08439335 0.08047539 0.040515233
0.08980329 -0.03569694 -0.028493473 0.047657795 -0.030320091 -0.0907636 0.08876098 0.059066687
0.056211665 0.040648583 -0.08570222 -0.09762649 -0.056687485 -0.038788535 0.0623114 0.024670463
0.105579756 0.02418289 0.037040643 0.07004362 -0.10132691 0.09327074 0.05748599 -0.043839186
0.026792377 -0.059565973 -0.01782697 0.10241475 0.03186892 -0.02426065 -0.021108493 0.08510301
-0.06431691 -0.05844125 -0.084164746 0.0692575 -0.025772445 0.037845276 -0.05831528 -0.04174457
-0.059797823 -0.046456937 0.073538154 0.08199161 0.032304004 0.03335824 0.013143642 0.08924988
0.048207898 0.01988814 -0.014977846 0.040099192 -0.099943444 -0.029489506 0.07135159 0.0959323
-0.0020802997 -0.01795608 0.0033522253 -0.009387818 -0.09898849 0.056631144 0.075407356 -0.03565362

bias f4 [30]
00000000: 3de7 54bd 8a2a b4bd 092e f73a c5fc b0bd
00000010: c99f ab3d 96b0 9c3d 3dc2 a83d faeb 0e3d
00000020: f8b8 5c3d 5a74 90bd 9b5b a1bd 222c c63d
00000030: 6d64 92bd fcfa 5f3d dcec a63c 0f25 943d
00000040: 7486 c7bd 1f2e a03d bc0c 9e3d ab06 a0bc
00000050: 3158 9dba 830d 0d3c 2c76 25bd 8990 c7bd
00000060: 353c 283d dac9 ac3a 74a8 983d 2896 9f3c
00000070: 7879 c93d a12f a6bc
-0.05197834 -0.08797176 0.0018858324 -0.08641962 0.08380086 0.076508686 0.08240173 0.034893014
0.053887337 -0.07053442 -0.078788005 0.096763864 -0.07148061 0.054682717 0.020376615 0.07233631
-0.09742442 0.07821297 0.07717273 -0.01953443 -0.0012004433 0.0086091785 -0.0403959 -0.09744365
0.041073043 0.0013182715 0.07454005 0.01948078 0.098376215 -0.020286383

weight f4 [90, 30]
00000000: d410 b73d 8cf1 5fbd d01b 29be 7a62 343e
00000010: ae23 a9bd 701c 2fbc 88be bcbd 0e3b cdbd
00000020: 542a 1e3d 6edb 213e e086 aa3d d0d1 b43d
00000030: a023 39bc 70ff dfbc 3907 24be ce43 043e
00000040: 303e e83d c454 2dbe d050 053e 1484 03be
00000050: f804 023d 2c74 583d 00ca cd3b 74c2 f83d
00000060: 760a 293e c02f f3bc 1bd0 abbd 61b5 1abe
00000070: 3083 083d 4a85 2abe b0dd 1fbd 9055 1bbc
00000080: 9cc6 18be 8690 153e 4054 013c 5823 eb3c
00000090: 70a8 0e3e dd26 b3bd 6836 cd3d 88d4 413d
000000a0: c83e 633d 5686 053e 9c89 1ebd 00bd 00ba
000000b0: 026d 01be 2afa 03be d06e e33c 600f d93d
000000c0: a497 23bd 787b 873d b854 843d 2269 d1bd
000000d0: 577a f4bd 94bb 5c3d c8a9 61bd 2cb7 c03d
000000e0: 9c67 ea3d 07b0 8abd 86d7 073e ca6e 343e
000000f0: 9860 133d 3edb b03c e4e2 3bbb 4212 013e
00000100: d2e4 a63d 0b36 9bbd 4459 09be 7a82 bb3d
00000110: b92a 493d b98c cbbd a394 39be 5a48 683c
00000120: 510e babd 0e3f c93d 5ec5 14bd 08d4 633d
00000130: 056d 733d 0395 f53d 2d89 403c 2606 27be
00000140: 7e0a 283e 43f3 073e 6bd2 b5bc 6aa7 37be
00000150: d543 2c3d 0d57 86bd bdb1 ddba 2fde fbbd
00000160: 708a ec3d 3014 e63d aafe 0ebc 8665 a0bd
00000170: 890b a3bc f128 353e 2fd3 eb3d db3a 2fbe
00000180: ff1c 193d 2ec8 b33d 7410 aebd 25c8 003e
00000190: 96f0 f2bc 10e4 31be 0f58 2f3e f598 29be
000001a0: 4305 843d 57ce 0e3d fc80 96bd f517 e53c
000001b0: bc5d 1bbe 0993 163e d8b2 c9bb d651 98bd
000001c0: 6d5e 833d 44a2 c5bd 63f2 1d3e 0692 343e
000001d0: 0cca 55bd 74ea e03d a24e 5e3d bd87 9bbd
000001e0: 621a 27be ae82 003e 1d3d 38be 8a37 0dbe
000001f0: da98 b93d c105 68bd 32c4 f8bc 6ba5 f5bd
00000200: e58a afbd 1244 c63d 7f22 b73d 3e8a cf3d
00000210: 78d3 693b d587 11bd 2816 233d 8e8c b93d
00000220: abd8 28be deec c4bd f1f3 663d a338 2cbd
00000230: c492 903d fdd3 b83d 2fdc fb3c 16ba 5cbd
00000240: 750e 1e3e f3cf 30be d659 843d ad0e 013e
00000250: 6640 8cbc ab52 f6bd 3ba4 0e3e 7269 0ebe
00000260: 2eff 2cbe 1772 29be 0ace f83d 6570 233e
00000270: 343e d9bd 1a0e 353e 06da 16be 2240 a2bd
00000280: e0c2 7e3c 912f d7bd a5dd f5bc cd6e 023e
00000290: 71fb fdbd f2a9 40bd d48a 07be 6a09 133e
000002a0: e020 9abd 882d c93d d615 1c3e f556 14be
000002b0: 01bf 8b3d 92f3 3e3d 974a efbd 633a aebc
000002c0: a8b2 01bc 6150 adbd 7c46 0d3e 3e5a 52bd
000002d0: 7075 c5bd 36b0 223e ab63 803d 69a2 493d
000002e0: 2673 4f3d 4da2 69bd df13 af3d e676 e7bc
000002f0: a370 c33d 97ec bd3c 6eca ce3c ed08 813d
00000300: 6ce5 3b3e b78b 52bd 7a6c 09bc 4a45 05be
00000310: dd57 44bd a3c7 333e a14b dfbd 212e cc3d
00000320: a171 cebd 7a18 2ebe 21a2 943d 46f9 383d
00000330: 2fa3 843d 6b95 a53d 0f74 d8bd d976 bf3d
00000340: 2913 74bc 3113 bb3d f09e a83a d5bc b4bd
00000350: baf2 653d 1d01 5dbc 2d92 fe3d a6d3 03be
00000360: f6e4 f0bd bfc8 09be dbc1 033c 02c2 c83d
00000370: 7629 0d3e 65b5 2ebe ef86 c23d d564 85bd
00000380: c2c7 28be fade 82bd 0a18 383e ab77 1f3e
00000390: ecae f0bc 65d8 293e bdfc 39be 6abf 2ebe
000003a0: 16c5 b5bd dc7e d43c 1c89 c6bd 6686 69bc
000003b0: 4e75 303b a14d 2cbe 27b0 06be 56b6 903d
000003c0: 80fb bebb 3498 333d 3883 2e3e 58d6 99bc
000003d0: 9839 e83d 3471 17be a0c9 28bc fda6 cdbd
000003e0: f4cd e63d c41e 0f3d dd8c 01be ecb4 a93d
000003f0: da65 00be 0c65 aebd 5b28 cfbd 5839 c53c
0.089387566 -0.054673716 -0.16514516 0.17615691 -0.082587585 -0.010687932 -0.092160285 -0.100210294
0.038614586 0.15806362 0.083265066 0.08829081 -0.011299998 -0.027343482 -0.1601838 0.1291649
0.11339986 -0.16926867 0.13019109 -0.12843353 0.03174302 0.052845165 0.006280184 0.12146464
0.16507897 -0.029685855 -0.08389302 -0.15108253 0.033328235 -0.16652408 -0.039029777 -0.009480849
-0.14919513 0.14605913 0.007893622 0.028703377 0.13931441 -0.08747647 0.10020143 0.047321826
0.055479795 0.13039526 -0.038705453 -0.00049109757 -0.1263924 -0.12888399 0.0277628 0.10598636
-0.039939538 0.06615347 0.06461471 -0.102251306 -0.11937397 0.053889826 -0.055093557 0.09409937
0.11445543 -0.06771856 0.1326581 0.17620388 0.03598079 0.021588918 -0.0028669173 0.12604621
0.08149113 -0.07578667 -0.13412958 0.09155746 0.04911301 -0.0993895 -0.18123107 0.014177406
-0.09084762 0.0982648 -0.036321037 0.05562213 0.05943014 0.11991312 0.011751455 -0.16310939
0.16410252 0.1327639 -0.022195062 -0.17934957 0.042056877 -0.06559572 -0.0016913932 -0.122982375
0.11549842 0.11234319 -0.008727709 -0.07831864 -0.019902961 0.17691399 0.115148894 -0.17112295
0.03738117 0.087784156 -0.08499232 0.12576349 -0.029655736 -0.17372155 0.17123435 -0.16562255
0.06446316 0.03486475 -0.073488206 0.027965525 -0.15172476 0.14704527 -0.006155353 -0.07437484
0.06414495 -0.0965009 0.15424494 0.17633829 -0.05219464 0.109822184 0.05427421 -0.075942494
-0.16318658 0.1254985 -0.17992063 -0.13790718 0.09062357 -0.056646112 -0.03036699 -0.119944416
-0.08571414 0.09680952 0.089421265 0.101337895 0.0035679024 -0.03552993 0.03981605 0.09060012
-0.16488902 -0.09615491 0.056384984 -0.0420462 0.07059243 0.090248086 0.03074464 -0.053888403
0.15435202 -0.17266826 0.06462447 0.12603255 -0.017120551 -0.120274864 0.13929836 -0.13907412
-0.16894218 -0.16547428 0.12148674 0.15960844 -0.106075674 0.1768116 -0.14731607 -0.079223886
0.0155493915 -0.105071194 -0.030012915 0.1273758 -0.12401474 -0.047037072 -0.13236552 0.1435906
-0.07525802 0.098231375 0.15242705 -0.14486296 0.068235405 0.046619006 -0.11684149 -0.021268075
-0.00791613 -0.08462597 0.13796419 -0.051355593 -0.0964154 0.15887532 0.0626901 0.049227152
0.050646923 -0.057039548 0.08548712 -0.028254937 0.09542968 0.023184104 0.02524301 0.063005306
0.18349236 -0.051402774 -0.008387679 -0.13014713 -0.047935355 0.17556624 -0.10903097 0.09969736
-0.10080267 -0.17001525 0.07257486 0.0451596 0.06476437 0.0808514 -0.105690114 0.0934884
-0.014897146 0.0913452 0.001286475 -0.08825079 0.056139685 -0.013489035 0.124302246 -0.12873706
-0.11762421 -0.13455485 0.008041824 0.09802629 0.13785347 -0.17061384 0.09498393 -0.06513373
-0.16482452 -0.06390186 0.1797792 0.15572993 -0.029380284 0.16586454 -0.18162818 -0.17065206
-0.08875482 0.025939398 -0.0969412 -0.0142532345 0.0026925388 -0.16826488 -0.13153134 0.07066028
-0.005828321 0.043846324 0.17042243 -0.018778965 0.1133911 -0.14789277 -0.010301977 -0.10041616
0.11269751 0.03494145 -0.12651391 0.08286461 -0.12538853 -0.08515367 -0.10115119 0.024075195

bias f4 [90]
00000000: 797e 24be 54a2 2ebe 2808 51bd ddd6 99bd
00000010: 1fa9 043e a5f4 353e aa1e 313e 38ad 803d
00000020: e1a6 2fbe 06f8 223e 9b5b 093e ceba 21be
00000030: eed2 bdbd 902f cc3d 8756 27bd 529b 02be
00000040: fa0d f63d 115b 9e3d 974c 573d 5731 ac3d
00000050: 9df0 783d 08b2 c1bd 346c c5bd e114 8fbd
00000060: 5f3d 8cbc 3859 dc3d e532 093e 6340 993d
00000070: c588 b1bc 0a4b 663d 6554 0e3d 54bd 153d
00000080: 2a47 36be 09b9 13be 0579 373e 63af dc3d
00000090: e11c 29be 8499 1cbe c86b f43c 2538 2abe
000000a0: 1ec8 39be ed13 08be e2f2 05be 86c1 2f3e
000000b0: ef0e 8dbd fc84 fd3d 4c98 393a 6f08 123e
000000c0: d9e8 df3d 15d7 383e 108a 21be 3156 91bd
000000d0: e348 0ebe 70e0 07be 0e73 213e 25ef c93d
000000e0: d349 1a3e 1340 033e 8cd3 ad3c 14a4 083e
000000f0: f8cd d13d a00c e5bd 207b 23be d4d2 8e3d
00000100: a4a7 bc3d 2c10 85bd 5d60 463c 769d b4bd
00000110: 4420 16bd 3f3a 373e 5ece 523d 9f07 83bd
00000120: da52 9fbd 5dee 183c 70e8 8a3d 1786 f93d
00000130: fccc 393e a555 22be 3ee3 0d3e 45d6 ce3d
00000140: 5043 31bd ed4a 91bc fcd4 333e 28e2 30be
00000150: 9228 843d 555e ca3d e4c1 34bd a022 c33b
00000160: c239 d93c ceae 6a3d
-0.1606387 -0.17054111 -0.05103317 -0.07511685 0.1295514 0.17769106 0.17296854 0.06283039
-0.17153503 0.15914926 0.13413851 -0.15793917 -0.09268747 0.09970009 -0.040854003 -0.12754562
0.120143846 0.07732213 0.052563276 0.08407848 0.06077634 -0.09457785 -0.09639779 -0.06986404
-0.017119108 0.107592046 0.13398321 0.07482984 -0.021671662 0.056223907 0.034748454 0.03655751
-0.17800584 -0.14426054 0.17917259 0.1077564 -0.16514923 -0.15292937 0.02983655 -0.1662298
-0.18142745 -0.13288851 -0.13080934 0.17163667 -0.06887614 0.123788804 0.0007079884 0.1426103
0.10933084 0.18050797 -0.15775323 -0.07096518 -0.13894992 -0.1326921 0.15766546 0.09860066
0.15067224 0.12817411 0.021219037 0.13343841 0.102443635 -0.11184049 -0.15964937 0.06973806
0.092116624 -0.06497225 0.012107936 -0.08819096 -0.036651865 0.17893313 0.05146634 -0.06397938
-0.077794746 0.009334174 0.06782615 0.12183779 0.18144602 -0.15852983 0.13856217 0.100994624
-0.043277085 -0.017735923 0.17561716 -0.17273772 0.06453051 0.09881274 -0.04413022 0.0059550554
0.026516799 0.057295613

weight f4 [270, 90]
00000000: ba2d 2a3d e1c8 92bd a552 843d 82ae 2bbd
00000010: e4c8 a7bd 48cf 95bc d26a 463d 182a 85bd
00000020: ff8d 8f3d 488a 2c3c 46fa 2bbd f582 a93d
00000030: 66e1 603d 081f c1bd e06f c13b f698 13bd
00000040: 5a11 3abd 751e d2bd b40c 18bd 1174 893d
00000050: ba7a 573d 01d2 cdbd 7430 88bc 407c 05bc
00000060: 067e d0bd a26d 85bd 49e5 d43d 210e 8abd
00000070: f841 c1bd 384d cebc 3004 1cbc eceb bcbd
00000080: 7338 47bd e3a7 9bbd a158 9e3d a447 c63c
00000090: d4ed a53c d38e c23d 579d bcbd 7657 483d
000000a0: a4b1 87bd 04d7 b4bd 909b 993b ce53 1c3d
000000b0: d187 aabd ea36 3e3d cc3f 973c 8173 903d
000000c0: 0059 673a 947e b1bc e011 e13b 22ea 6c3d
000000d0: 0080 a2bd 0cd3 9dbd eeaa a1bd e25f 50bd
000000e0: 8049 203a 6d3f a63d 5d5f a0bd 9714 b0bd
000000f0: 5ab6 c5bd 6a75 683d c0bf d03b 2c9c 5abd
00000100: d644 333d e8b5 433c c9c4 cc3d cfba 9abd
00000110: c330 8fbd 0db8 b23d 623f 5fbd 623b 683d
00000120: fded 853d a022 dbbb acf3 eb3c 2b15 c13d
00000130: bf35 afbd 0028 56ba 7067 b53b 6759 a73d
00000140: 7ad0 8bbd f9ac 9f3d c0ed 90bd 2bfa cd3d
00000150: 3838 84bd c93b d23d 18d9 cbbc 78ca 993c
00000160: f668 2f3d 629e c7bd f0e2 23bd a850 193c
00000170: 3fa8 36bd 3915 a13d 5ed4 333d 1986 9dbd
00000180: 284b 58bc cbe1 d3bd 5064 07bc 549a 07bd
00000190: 24d3 d5bd 4034 c4ba e088 a0bd 003a 3cbc
000001a0: 408c ad3a 90e8 3c3c 60df a5bc 183b 57bd
000001b0: d1a8 d3bd 908a debb 4924 71bd 609a 2b3c
000001c0: 8084 c1bc 4b14 bc3d 22d1 003d 8053 733c
000001d0: 47ee ac3d cf03 903d 837c cb3d e832 28bd
000001e0: 3c48 2dbd 1c59 82bd 56f4 483d 84cd e43c
000001f0: 9093 6a3c af55 cfbd f612 6c3d dc12 b5bd
00000200: 1f62 bd3d 822a 6e3d 608a 9fbb c0a0 9e3a
00000210: fad5 76bd 76d0 adbd 09c7 80bd f11f ad3d
00000220: a1c2 a53d 757c aa3d 4616 733d 79c7 b8bd
00000230: 61f7 a13d f241 643d ace9 8bbd 3a44 323d
00000240: f634 7f3d 1b44 993d e638 123d f22e 9bbd
00000250: dc50 b43c d0e9 a23b 2af5 253d d7cd 8fbd
00000260: 22ba 8cbd 5da6 d23d 198d 8e3d 6489 bdbd
00000270: 1e2a 793d 68aa 26bc 56cf 81bd 88e0 82bd
00000280: 3244 353d 4e69 5b3d 88da 22bd ea76 1c3d
00000290: 2e18 97bd dff9 a03d 18dc 1ebc ac26 70bd
000002a0: 5ced 4bbd 3056 fcbc 5cc6 98bc 881a f8bc
000002b0: 8a42 563d 064f 0c3d f0d1 e4bb 1d1c 5abd
000002c0: 16d1 343d 3cd6 be3c 20bd a03b df6c b23d
000002d0: 0aff 763d c298 93bd dd7e 5ebd 979c 86bd
000002e0: 482f 0a3d aba0 79bd 0868 413d e5ed c03d
000002f0: 53e4 3cbd a576 03bc 6775 bcbd 5ca1 cc3c
00000300: 9bf9 a53d a2dd bf3c c4a9 c63d 309e 29bd
00000310: 8e2f b7bc 96ea 00bd 0ad0 e8bb 28b4 6b3d
00000320: ff25 90bc 1227 313d d9b2 b2bc 4ef5 823d
00000330: 9054 60bb e259 c3bd e295 7e3d 8871 783d
00000340: ce7b 28bc 85d4 c43d 2ce7 893d f8a6 e23c
00000350: aaa2 1a3d a91d 8b3d 6c62 97bd 9bc3 203d
00000360: 724d 18bd b186 933d 3ebd f03c 3bd2 d53d
00000370: 173c d73d 465a 733b f8fb 6a3c 9104 c2bd
00000380: 37b9 c13d 194e 5f3d 4914 4b3d 8603 b9bd
00000390: 8cf3 b43d b642 a6bc 1134 8abd 8c45 3e3c
000003a0: f06b 193d 6a88 e3bc 1067 9abd f58f adbd
000003b0: 1bba 99bc 0c6f 72bd a4a0 903d f022 533d
000003c0: d3b6 813d 2440 8a3d d258 b4bd 5ed5 92bd
000003d0: 00d1 a0bd 5041 eabb 86ff 9a3d 1495 ca3c
000003e0: aa99 273d 0d6a d73d 727a 433d 0c6d 52bc
000003f0: cc7e 133d 687d d4bc 38fe e43c 7b06 973d
0.041547514 -0.07167221 0.06461076 -0.04191447 -0.08192614 -0.018287316 0.048441716 -0.06502169
0.070095055 0.010531016 -0.041986726 0.08276931 0.054902457 -0.09429747 0.005903229 -0.036034547
-0.045426704 -0.102597155 -0.03712149 0.06711591 0.052607276 -0.10049821 -0.016624667 -0.008147299
-0.10180287 -0.065150514 0.10395295 -0.06740976 -0.09436411 -0.025183305 -0.009522483 -0.09224686
-0.04863782 -0.07600381 0.07731748 0.024204083 0.020255007 0.09499898 -0.09209698 0.048911534
-0.06625679 -0.088300735 0.004687734 0.03816586 -0.08326686 0.04643909 0.018463038 0.070532806
0.0008825213 -0.021666802 0.006868586 0.057840474 -0.0793457 -0.077062696 -0.078939304 -0.05087269
0.0006114468 0.08117566 -0.07830689 -0.08597677 -0.096539214 0.0567526 0.0063705146 -0.053371593
0.04376682 0.011945225 0.09998471 -0.07555162 -0.069917224 0.08726511 -0.054503806 0.056697257
0.06539533 -0.006687477 0.028802715 0.094278656 -0.08555173 -0.00081694126 0.0055360124 0.08171349
-0.06826873 0.07796664 -0.07076597 0.100574814 -0.064560354 0.10265309 -0.024883792 0.018773302
0.042824708 -0.09747006 -0.040011346 0.009357609 -0.044594046 0.07865376 0.0439037 -0.07691593
-0.013201512 -0.10345801 -0.008263662 -0.033106163 -0.104406625 -0.0014969185 -0.07838607 -0.011488438
0.001324065 0.011530057 -0.020248115 -0.05254659 -0.103349335 -0.0067914203 -0.058872495 0.010473818
-0.023622751 0.09183558 0.031449445 0.014851451 0.08443885 0.070319764 0.09935858 -0.041064173
-0.042305216 -0.063646525 0.049061142 0.027930029 0.014317408 -0.10123765 0.05763527 -0.08841488
0.09247231 0.058146007 -0.0048687905 0.0012102351 -0.060262658 -0.084870264 -0.06287963 0.08453358
0.08093763 0.083245195 0.059347413 -0.090224214 0.07908512 0.055726953 -0.06831679 0.043522097
0.062306367 0.07483693 0.035698794 -0.075773135 0.022011213 0.0049717203 0.04051701 -0.07021683
-0.068714395 0.102856375 0.06960506 -0.09254721 0.06083118 -0.010172464 -0.06338374 -0.06390482
0.04425449 0.053567223 -0.03975919 0.038199343 -0.07377659 0.07860159 -0.009696029 -0.05863063
-0.04978691 -0.030802816 -0.018649273 -0.030286089 0.05230955 0.03425505 -0.0069830343 -0.053249467
0.044144712 0.023295514 0.004905358 0.08712172 0.060301818 -0.072068706 -0.054320205 -0.06572836
0.033736497 -0.06094424 0.047218353 0.09420375 -0.046116184 -0.0080238925 -0.0920208 0.024979286
0.08104249 0.023421112 0.09700349 -0.041410625 -0.022361543 -0.03147372 -0.0071048783 0.057544857
-0.017596243 0.04325015 -0.021813797 0.063944444 -0.003423009 -0.09538628 0.06215466 0.060655147
-0.010283424 0.096108474 0.06733546 0.027667508 0.037752785 0.067927666 -0.07391819 0.039249044
-0.037183233 0.07203425 0.029387113 0.10440489 0.10509508 0.0037132665 0.014342301 -0.09473527
0.09459155 0.05451784 0.049579892 -0.09033875 0.088355154 -0.020295482 -0.06748212 0.011613261
0.037456453 -0.027775008 -0.07539189 -0.08474723 -0.0187655 -0.059187934 0.0706189 0.05154699
0.06333699 0.06750515 -0.08806004 -0.07169603 -0.078523636 -0.007148899 0.075682685 0.02472929
0.04091803 0.105182745 0.047724195 -0.012843382 0.036009595 -0.025938705 0.027953252 0.07374283

bias f4 [270]
00000000: da23 37bd 0774 d5bd 48d0 a53d ffb1 6f3d
00000010: 272e ca3d ccba 88bc 13a4 a7bd 79c7 813d
00000020: 1ed7 d73d 91d5 05bd d075 a5bc e612 a8bd
00000030: 58e6 153d e0c9 a83d 27c4 5c3b 40e5 a23d
00000040: 8134 cbbb 443f c83c ec6c 153d 40ff 913c
00000050: cc7b 04bd 8b4c 72bd 0c81 663c ee4c ef3d
00000060: 3bf2 363d 8fbf 3dbd 7b62 e6bc 15fb 3abd
00000070: 35fc 95bd b42f 8cbd 5ecd 26bd 8fce a4bd
00000080: ff91 ac3d 432f 15bd 03f6 903c 92da 923d
00000090: e2ec de3d d0a8 cb3b 4bed ae3d d8ad 99bd
000000a0: f014 243d dcab 8fbd 38ca b8bd fdbe a8bd
000000b0: 3d4f 3a3d 151e 033c aa21 3b3d 00d4 bebd
000000c0: 6642 a03d d6d9 5b3c d09d a23d 5c84 bd3a
000000d0: 0769 60bd e984 313c 409c f3bc 34bb b1bd
000000e0: cbc8 003d 0f3c d53c a5fe 79bd e483 c5bc
000000f0: 3d52 abbc 758b 27bd 4b98 8ebd 18bb 903d
00000100: 29c5 ddba d53e 82bd 8ce7 133d dd47 1abd
00000110: 2c15 70bd 7d87 49bd 51ae 18bb 3fc0 423d
00000120: 9cb9 a1bd 0e92 adbd 542f 4fbd 9a6a ca39
00000130: 3616 96bc 9328 723d 5505 86bd 9166 8abd
00000140: 79a5 d6bd edef 27bb 91e3 8a3d 9ba5 bebd
00000150: 9dee fb3c c03c bdbd 2708 52bc 7ef5 73bd
00000160: 3c40 c0bc df41 adbd 3a26 013d 9614 773d
00000170: 0976 95bd 00d1 533c 4952 31bd 1b9b bd3d
00000180: 8399 e23d e7a0 3fbd 5ce9 c03d c245 47bd
00000190: b9f7 cabd 28d5 a93d 1d32 0cbc ccb6 72bc
000001a0: 12f5 9c3d 9c14 37bd 43fe b03d fe32 ad3d
000001b0: 9791 873d 77cc b0bc cde0 65bd 9736 a4bc
000001c0: e5dd 38bd c07e 77bc 7db7 43bd c4df 5cbd
000001d0: 1894 e1bc b858 c1bc 1459 90bd a0b7 3dbc
000001e0: 9d91 e83b 61dd 5a3d 6fea 06bb e92d 9cbd
000001f0: 69bf a4bd 01e5 3e3d 5436 12bd 25ce 73bb
00000200: 389c 923d 5a4b 86bd c24a c73d e898 f63d
00000210: 3c3c ed3d f44d 4cbd e297 b63d 6b13 963d
00000220: 8f87 8b3d adf6 9e3d d5de ab3d eec8 8d3d
00000230: 1d1e 863d d8d6 6d3c 14f4 8bbd ad91 b83a
00000240: 7464 a7bd 21ae d6bd 618c 5ebc 4008 90bc
00000250: 8061 33bc 0c5c ad3c fec0 d23c d65e 113d
00000260: 7e66 56bd 704b d73d a7c7 12bd 4d87 3f3c
00000270: ab33 c23d 1edb ca3d 296e 78bd a830 993c
00000280: b035 c3bb 6769 9c3a baec 003d 4a2a b2bd
00000290: d02a f4bc a44e 6ebd 9374 d0bb 0577 bdbd
000002a0: e76c c23d 19f2 df3d 50fa e5bb cce3 fb3c
000002b0: 4474 7d3d c23d 903d 354e 2cbd a89e babd
000002c0: 5118 593c 7913 c3bb 6df9 4abd e7c8 843d
000002d0: 0209 c33d 663b 32bd 654b dc3d 4a71 9d3d
000002e0: cd48 1a3d e190 963c 90cf 723d e361 52bd
000002f0: f087 013d eae5 8e3d 7f70 aebd dc5d b2bc
00000300: 6e92 703d 6033 883d d76e ef3c d472 75bd
00000310: acab 3f3d 7617 92bd 2751 973d dbd0 a33d
00000320: cc29 acbd a052 7b3d 4e6b 7d3d 4340 2a3d
00000330: b96e 8a3b c3bf babd 16f9 67bd ae42 003b
00000340: b65b f1bc bb76 213d 05df 833d 170b 813d
00000350: 21a9 173d 9cb7 5d3d d44b fbbc f105 98bd
00000360: 6f3f 343c 8240 983d 8cb9 7cbc f5c7 56bd
00000370: 2a5b 84bd e603 b5bc bda2 76bc ce2f 91bc
00000380: 8f57 8cbd 1cf1 923d 9a10 263b b90d d93c
00000390: 1b5b bbbd ab43 a1bc 5a23 273c d0c3 ea3d
000003a0: e182 01bd e2ae 38bd 90cf 563c 30c3 c7bb
000003b0: 526a 7abd 3455 a8bd fbfb 213d 42f9 55bc
000003c0: 0fb6 01bc d045 853c 57f0 bd3c 77c7 20bc
000003d0: 80b3 ee3b bfa2 e2b9 662c bbbd dd37 1b3d
000003e0: 5453 893d 8515 1bbd 081e 68bc 2c40 afbc
000003f0: e4b7 b4bd eea5 8ebd a211 c43d 1922 353d
-0.044711925 -0.10422521 0.08096367 0.05851936 0.09872084 -0.016690634 -0.081855915 0.063368745
0.10539077 -0.032674376 -0.020197779 -0.082067296 0.036596626 0.082416296 0.0033686252 0.07953882
-0.0062013273 0.02444423 0.03648083 0.017821908 -0.032344624 -0.05915503 0.014068853 0.11684595
0.044664603 -0.046325263 -0.028123131 -0.045649607 -0.07323495 -0.06845036 -0.040723197 -0.080472104
0.08426284 -0.036422025 0.017695433 0.07170595 0.108850256 0.0062151924 0.08541354 -0.07503861
0.04005903 -0.070152014 -0.09022945 -0.08239553 0.045485724 0.008002778 0.0456864 -0.093177795
0.078251645 0.013418635 0.079402566 0.0014459002 -0.054787662 0.010834911 -0.029737592 -0.08678284
0.03144149 0.026029615 -0.061033864 -0.024110742 -0.020913238 -0.04090448 -0.06962641 0.07066935
-0.001691972 -0.063596405 0.036109492 -0.03766619 -0.05861394 -0.049201477 -0.002329726 0.04754662
-0.0789673 -0.08475123 -0.050582245 0.00038607867 -0.018321138 0.059120726 -0.06543986 -0.06757844
-0.1048078 -0.0025625185 0.06781686 -0.093089305 0.030753428 -0.09240103 -0.0128193265 -0.05956029
-0.02346813 -0.084598295 0.031530596 0.060322367 -0.07297904 0.012928247 -0.043291364 0.092581
0.11064436 -0.046784308 0.0941951 -0.04865051 -0.099105306 0.082926095 -0.00855687 -0.01481409
0.07663931 -0.04469739 0.086422466 0.084569916 0.06619566 -0.021581871 -0.05612259 -0.020045562
-0.04513349 -0.015105903 -0.04778241 -0.053924337 -0.027536437 -0.023601875 -0.0704824 -0.011579424
0.0070974366 0.05343378 -0.002058651 -0.07625944 -0.08044321 0.046605114 -0.035696343 -0.003720173
0.071587026 -0.06557341 0.09731056 0.12040883 0.115837544 -0.04987903 0.08915688 0.073279224
0.06812965 0.077618934 0.08392111 0.0692309 0.065487124 0.014516555 -0.068336636 0.0014081501
-0.08173457 -0.10482431 -0.013583274 -0.017582059 -0.010948539 0.021162055 0.025726791 0.035490833
-0.052343838 0.105124354 -0.035834935 0.011689973 0.09482511 0.099050745 -0.060651932 0.018699959
-0.005957328 0.0011933268 0.03147576 -0.08699472 -0.02980557 -0.058180466 -0.006361553 -0.09251217
0.09493428 0.10934848 -0.007018365 0.03074827 0.061878458 0.07043029 -0.04206677 -0.091122925
0.013250426 -0.005953249 -0.049554277 0.064836316 0.095232025 -0.043513678 0.10756568 0.07687624
0.037667084 0.01837963 0.05927998 -0.051362883 0.03162378 0.069774464 -0.08517551 -0.021773271
0.058733396 0.06650424 0.029227657 -0.05992396 0.04679458 -0.07133381 0.073885255 0.079988204
-0.084064096 0.061358094 0.06186991 0.04156519 0.004224625 -0.09118607 -0.05663403 0.0019570994
-0.029462676 0.03941987 0.06439022 0.06300943 0.03702653 0.05413018 -0.030675806 -0.07423008
0.011001452 0.07434179 -0.015425097 -0.052436788 -0.06462701 -0.022096585 -0.015053448 -0.01772299
-0.06852638 0.07174894 0.0025339485 0.026495801 -0.09148236 -0.019685587 0.0102013 0.114631295
-0.031618956 -0.045088656 0.01311101 -0.006096266 -0.06113655 -0.08219376 0.039546948 -0.013059916
-0.007916941 0.01626864 0.023185892 -0.009813181 0.0072845817 -0.00043227334 -0.09139328 0.037895072
0.06705347 -0.03786232 -0.014167316 -0.021392904 -0.08824137 -0.06965242 0.09573676 0.04422197
