knn/models/pretrained-autoencoder/autoencoder-in_features180-latent_size3.pt (torch, 62877 bytes, 12 tensors)

weight f4 [27, 180]
0	0xbd690b70	-0.056895673
1	0x3d16e739	0.036841605
2	0x3d0a64bf	0.033787485
3	0x3c4f8c34	0.012667704
4	0xbd3b8bb9	-0.045787547
5	0x3d076d9b	0.033063512
6	0x3d61ae34	0.055097774
7	0x3d3b1e8c	0.04568343
8	0x3c9fa8dd	0.0194897
9	0xbd9879d5	-0.074451126
10	0xbd19ee1c	-0.037580594
11	0x3d936474	0.07196894
12	0xbd6cca8f	-0.057810362
13	0xbd062d9a	-0.032758333
14	0x3c481858	0.012212835
15	0xbd5061c7	-0.050874498
16	0xbcb3e9ca	-0.021962065
17	0xb9167bd6	-0.00014351247
18	0xbcbe3b5f	-0.02322167
19	0xbd62367a	-0.055227734
20	0x3d2fc82f	0.04291552
21	0xbbca6892	-0.0061770165
22	0xbd7f15da	-0.0622767
23	0x3d773faf	0.060363468
24	0xbd988479	-0.07447142
25	0x3d945542	0.07242824
26	0xbd976761	-0.07392765
27	0x3cf019ca	0.029309172
28	0x3ca66f13	0.020316636
29	0xbcac39a5	-0.02102358
30	0xbc866a63	-0.016408151
31	0xbd42849a	-0.04748974
32	0x3d334080	0.043762684
33	0x3d081754	0.033225372
34	0xbd37f864	-0.044914618
35	0x3d8364fa	0.06415744
36	0x3ce5e0ed	0.028061355
37	0x3c4ee175	0.012626995
38	0xbd96b344	-0.07358411
39	0x3cdf4781	0.027255775
40	0xbc69956e	-0.014256818
41	0x3d1246c4	0.03571202
42	0xbca58da2	-0.020209137
43	0xbcecc818	-0.028904006
44	0x3d8639b6	0.06553976
45	0x3d58d502	0.052937515
46	0x3d87c422	0.06629206
47	0xbd329a95	-0.043604452
48	0x3c306e67	0.0107685095
49	0x3d3654dc	0.044514522
50	0x3c878e0b	0.016547224
51	0xbc0cfe03	-0.008605483
52	0x3d468172	0.048463292
53	0xbd919afa	-0.071096376
54	0x3d8d8d2d	0.06911693
55	0x3d57cfe5	0.052688498
56	0xbd8aecce	-0.06783448
57	0xbc3ffd96	-0.011718174
58	0x3be72252	0.007053652
59	0x3c78e4a3	0.01519123
60	0x3d477c3c	0.048702464
61	0x3cda52b9	0.026650773
62	0xbcf62fd7	-0.030052109
63	0xba70954e	-0.00091775216
64	0xbccb9d79	-0.024855362
65	0x3bd4cfd0	0.0064944997
66	0x3d44e918	0.048073858
67	0x3b938d94	0.0045029614
68	0xbd957d9f	-0.07299351
69	0x3d14b4b4	0.036305144
70	0xbd8d3ab8	-0.06895965
71	0xbd39bf48	-0.045348436
72	0xbc404268	-0.0117345825
73	0xbd422572	-0.047398992
74	0xbd881696	-0.06644933
75	0xbd63317d	-0.055467118
76	0x3d947599	0.072489925
77	0xbd7b6c02	-0.0613823
78	0x3c9550aa	0.01822694
79	0x3be6d9a6	0.0070449887
80	0x3d93a200	0.072086334
81	0x3c9d035f	0.019166647
82	0xbd74aa18	-0.059732527
83	0x3d8aa1f8	0.06769174
84	0x3d8694bc	0.065713376
85	0x3cfdb1c7	0.03096856
86	0xbd86cddf	-0.065822355
87	0xbd49f99c	-0.04931031
88	0x3d31aa7b	0.043375473
89	0x3d4d1334	0.05006714
90	0xbd4ea520	-0.050450444
91	0x3a3a4d51	0.0007106858
92	0xbc4a18dc	-0.0123350285
93	0xbc18ea63	-0.009333226
94	0xbd94c881	-0.072648056
95	0xbd921205	-0.07132343
96	0xbd77318d	-0.06034999
97	0x3c931152	0.017952595
98	0xbd11c882	-0.03559161
99	0xbbd9c272	-0.006645494
100	0x3d5c806d	0.053833414
101	0xbcab13b8	-0.020883426
102	0x3c29fd07	0.010375268
103	0x3bf82a43	0.0075733974
104	0xbd268bf9	-0.040660832
105	0xbd02a382	-0.031894214
106	0x3cb92da9	0.02260478
107	0xbc56b080	-0.013103604
108	0xbc2e4de9	-0.010638692
109	0xbd87fb8a	-0.06639774
110	0x3d72b30d	0.059252787
111	0x3d22d2cd	0.039751817
112	0xbd36befb	-0.044615727
113	0xbc915683	-0.017741447
114	0x3d44c21b	0.048036676
115	0x3d0c2864	0.034218207
116	0xbd10a0c6	-0.035309575
117	0xbd2df6c1	-0.04247165
118	0x3cde5d24	0.027144022
119	0xbd570cd1	-0.052502457
120	0xbd5ce86a	-0.053932585
121	0x3cc0e56b	0.023546895
122	0x3d2a9dd1	0.04165441
123	0x3cff5560	0.03116864
124	0xbc537a6f	-0.012907608
125	0x3c0f9339	0.008763128
126	0xbc95058f	-0.018191127
127	0x3c33297c	0.010935184
128	0xbd41d54b	-0.047322553
129	0xbbe329bc	-0.0069324654
130	0x3cb7aaaf	0.022420255
131	0xbd625f15	-0.05526646
132	0x3cf7465c	0.030184917
133	0x3d59f2ae	0.053209953
134	0x3cc13130	0.023583025
135	0x3d4aa212	0.04947097
136	0xbcb853c9	-0.02250089
137	0x3d775c5d	0.06039082
138	0xbc2b6513	-0.01046111
139	0xbcbcfcf5	-0.023069838
140	0x3d4da502	0.05020619
141	0x3d624c21	0.055248383
142	0x3d70d34d	0.058795262
143	0xbce27501	-0.027643682
144	0x3d89558a	0.067057684
145	0x3c35e0a1	0.011100919
146	0x3d810306	0.06299405
147	0xbcf78235	-0.030213455
148	0xbd8d8066	-0.06909256
149	0x3b8fd0ef	0.0043889205
150	0xbc8a7a3b	-0.016903987
151	0x3c2fdffb	0.010734553
152	0xbd150440	-0.036381006
153	0xbd5630e6	-0.052292727
154	0xbd28456c	-0.04108183
155	0xbd804d96	-0.06264798
156	0x3cb9dd70	0.022688597
157	0xbc5ddfdc	-0.013542142
158	0x3d150ad8	0.036387295
159	0xbd8eb5c2	-0.06968261
160	0x3d2dce30	0.042432964
161	0xbd3ec890	-0.04657799
162	0xbd21e671	-0.039526407
163	0x3d11730c	0.035510108
164	0xbd486741	-0.048926596
165	0x3d0e3dd7	0.034726944
166	0x3c2fe20a	0.010735044
167	0x3cb5a3f6	0.02217291
168	0xbd53baaf	-0.051691707
169	0x3ba4de70	0.0050313994
170	0x3b89b26f	0.004202179
171	0x3d28d9a4	0.041223183
172	0xbd512950	-0.05106479
173	0xbd00a97f	-0.031411644
174	0x3cbaa35d	0.022782976
175	0x3cabd07c	0.020973437
176	0x3d462090	0.048370898
177	0x3d9014f6	0.07035248
178	0xbd6a817c	-0.057252392
179	0x3d96fa05	0.07371906
180	0xbd8bd53d	-0.06827781
181	0xbd712d74	-0.058881238
182	0x3ce28c76	0.027654868
183	0xbc5fbc59	-0.013655745
184	0x3c606c0c	0.013697635
185	0x3d963711	0.07334722
186	0xbd428cd8	-0.0474976
187	0xbb5cf772	-0.0033716825
188	0xbc5db23d	-0.013531265
189	0xbd807891	-0.06272996
190	0xbcdd0932	-0.026981924
191	0x3d57f74f	0.052726086
192	0xbcdc85e1	-0.026919307
193	0xbd888c29	-0.066673584
194	0xbca7583d	-0.020427817
195	0xbd539697	-0.051657286
196	0xbc503bdf	-0.012709587
197	0xbce8ae66	-0.028403472
198	0x3d5c58a4	0.05379547
199	0xbd8566f2	-0.06513776
200	0xbceb34dd	-0.02871173
201	0x3d7e95fe	0.062154762
202	0x3cd7e105	0.026352415
203	0x3ada8788	0.0016672472
204	0xbd2629ca	-0.040567197
205	0x3c809fb8	0.01570116
206	0x3c25ff93	0.010131734
207	0x3c6c0e51	0.01440771
208	0xbc76c381	-0.01506126
209	0x3c9a1458	0.018808529
210	0xbd81ee24	-0.0634425
211	0xbd98ffaf	-0.07470643
212	0xbd27a3f2	-0.040927835
213	0x3d04c154	0.032410935
214	0xbd1b022e	-0.037843876
215	0x3d023e84	0.0317979
216	0x3d730ebb	0.05934022
217	0x3aa379b6	0.0012472186
218	0xbd200960	-0.03907144
219	0x3d802ed2	0.0625893
220	0xbca1b0e1	-0.019737663
221	0xbd3f403a	-0.04669211
222	0x3cabc12c	0.020966135
223	0xbd80bff5	-0.06286613
224	0x3bef65d0	0.007305838
225	0x3c616a39	0.013758236
226	0x3d82bf24	0.063841134
227	0xbd06cf3f	-0.03291249
228	0x3ceb9c69	0.028761106
229	0xbc01e491	-0.00792803
230	0x3d446ffa	0.04795835
231	0x3d924196	0.07141416
232	0xbcbfae1e	-0.023398455
233	0x3d6f180f	0.058372553
234	0x3c80f33b	0.015740981
235	0xbc053b33	-0.00813179
236	0x3d843d11	0.0645696
237	0xbd8a695b	-0.06758376
238	0xbd910fcf	-0.070830934
239	0xbd8053b4	-0.06265965
240	0x3d0e5aff	0.03475475
241	0xbcb0c748	-0.0215794
242	0x3d6ae78e	0.057349734
243	0xbd66884b	-0.056282323
244	0xbd251d41	-0.0403111
245	0x3d5c27f4	0.05374904
246	0xbcfdb476	-0.03096984
247	0x3d93547a	0.07193847
248	0xbd33a7aa	-0.04386107
249	0x3ce48458	0.027895138
250	0xbab89139	-0.0014081366
251	0x3d3a8838	0.045540065
252	0x3d72594a	0.059167184
253	0xbc0c2a9b	-0.00855508
254	0xbd746e7d	-0.059675682
255	0xbba9a7fa	-0.005177495

bias f4 [27]
0	0x3b89fa92	0.0042107785
1	0xbd884394	-0.066535145
2	0xbc61e779	-0.013788098
3	0x3bc390c5	0.0059681856
4	0x3cf915af	0.030405847
5	0xbd63fe01	-0.05566216
6	0x3d1b3e3f	0.03790116
7	0xbbdab317	-0.006674181
8	0xbd7e351b	-0.062062364
9	0x3d23fac4	0.04003407
10	0x3d9781dc	0.073978156
11	0xbcd655c8	-0.02616395
12	0xbcc6f788	-0.024287954
13	0x3ca06b88	0.019582525
14	0xbc500858	-0.012697302
15	0xbd28bc30	-0.041195095
16	0x3d5dc3dc	0.054141864
17	0x3d80261c	0.06257269
18	0xbd187da5	-0.0372292
19	0xbc6582f5	-0.014008273
20	0x3c320c0b	0.010867129
21	0xbd4105f6	-0.047124825
22	0x3bce0011	0.006286629
23	0x3d1057ee	0.035240106
24	0x3cca9f89	0.024734275
25	0x3cd2b168	0.02571936
26	0x3d7676e3	0.060171973

weight f4 [9, 27]
0	0x3d73d3c2	0.05952812
1	0xbdea8200	-0.11450577
2	0xbd80037f	-0.06250667
3	0xbd1b5825	-0.037925858
4	0x3ddfa1f7	0.10919564
5	0x3e06d1db	0.13165991
6	0x3e36ebd8	0.17863405
7	0xbd91cc80	-0.071190834
8	0xbc92820b	-0.017884275
9	0x3c674154	0.0141146965
10	0xbc47fdb2	-0.012206482
11	0xbe0aea33	-0.13565902
12	0xbd01d442	-0.031696565
13	0xba9b1647	-0.0011832201
14	0xbc70ef7c	-0.014705535
15	0x3e15641e	0.14588973
16	0x3e093e2b	0.13402621
17	0x3e2848f8	0.16434085
18	0x3d872c0f	0.066002004
19	0x3e256cc6	0.16154775
20	0x3e22ac52	0.15886047
21	0xbe1564c1	-0.14589216
22	0x3e379166	0.17926559
23	0xbdf821c7	-0.121158175
24	0xbe3adb4d	-0.18247719
25	0xbe418a01	-0.189003
26	0xbcf85dbe	-0.030318137
27	0xbe4021a6	-0.18762836
28	0x3dd8c362	0.10584141
29	0xbcdb16f5	-0.026744345
30	0x3caf1bbb	0.021375528
31	0xbe1cf29d	-0.15326925
32	0x3d86000f	0.0654298
33	0xbe385abc	-0.18003362
34	0xbdae1b11	-0.08501256
35	0xbd1ca21a	-0.03824053
36	0x3b8f47d6	0.004372577
37	0xbd324427	-0.043522026
38	0x3de89710	0.11356938
39	0x3c3c294d	0.011484456
40	0x3da7cda1	0.081935175
41	0x3dda8aee	0.1067103
42	0xbc31124f	-0.010807588
43	0xbdc361cc	-0.09540138
44	0xbc087646	-0.00832898
45	0x3e33c80b	0.17556779
46	0xbde26022	-0.11053492
47	0xbd58d783	-0.052939903
48	0xbcf1805e	-0.029480156
49	0xbcbffd1d	-0.023436124
50	0xbbf513b6	-0.0074791564
51	0x3e141676	0.14461693
52	0x3c7fb39b	0.015606786
53	0xbd5d4a92	-0.054026194
54	0xbd9c0374	-0.07617846
55	0xbde630f6	-0.11239807
56	0x3d48f581	0.049062256
57	0xbcce1c25	-0.025159905
58	0x3d3c067b	0.045904618
59	0xbd00dbbd	-0.03145956
60	0xbd8e593a	-0.06950612
61	0x3ce7b6ef	0.028285472
62	0xbe23132b	-0.15925281
63	0x3c5cd70c	0.013479006
64	0xbd5ba69f	-0.0536257
65	0x3e28be57	0.16478859
66	0xbe1cca8d	-0.15311642
67	0x3d2d6d0e	0.04234033
68	0xbe3bd5ee	-0.18343326
69	0xbe12edf5	-0.14348586
70	0x3d2d0b7a	0.042247273
71	0x3d23c718	0.039984792
72	0x3d8cd23c	0.068760365
73	0xbd80df1c	-0.06292555
74	0xbe33b8f2	-0.1755102
75	0x3e15763e	0.14595887
76	0x3d7faf25	0.06242289
77	0xbd9959a5	-0.074878015
78	0x3c458f72	0.012058126
79	0x3d1e17d1	0.03859693
80	0x3deba1a1	0.11505438
81	0xbe280bea	-0.16410795
82	0xbe415dac	-0.18883389
83	0xbe0e18f0	-0.138767
84	0xbe1bc61d	-0.15212293
85	0xbd362245	-0.044466276
86	0x3c11b31a	0.008892799
87	0x3dac45b0	0.08411729
88	0x3d403323	0.046923768
89	0x3c94d162	0.018166248
90	0xbdef0bb3	-0.11672153
91	0xbe096bae	-0.13419983
92	0x3e24fd7d	0.16112323
93	0x3c80bc7f	0.015714882
94	0x3dec9e6c	0.11553654
95	0x3dd7660e	0.10517512
96	0xbe03877d	-0.12844653
97	0x3e3dae00	0.18523407
98	0xbe2c4388	-0.16822636
99	0xbe26456c	-0.1623742
100	0xbe3ea53d	-0.18617721
101	0x3e0452f4	0.12922269
102	0x3e3e05ff	0.18556975
103	0x3c06a537	0.008218101
104	0xbcd37265	-0.025811384
105	0x3d133550	0.035939515
106	0xbc200984	-0.009767894
107	0x3d9b3528	0.07578498
108	0x3e3b0dc8	0.18266976
109	0x3d78c78b	0.060737174
110	0xbdf9942e	-0.12186466
111	0xbe44f2fe	-0.19233319
112	0x3df5cf57	0.120024376
113	0xbdb5b967	-0.08873253
114	0x3e19d786	0.15023622
115	0xbe3ef48e	-0.18647978
116	0x3dd6367f	0.10459613
117	0x3cda61bd	0.026657933
118	0xbe3ae425	-0.18251093
119	0x3da5a5af	0.08088242
120	0xbe143552	-0.14473465
121	0x3d0d1a66	0.034449004
122	0xbe20c234	-0.15699083
123	0x3e2d2d9b	0.16911928
124	0x3d62fda0	0.055417657
125	0x3d09e9ab	0.03367011
126	0x3b125f43	0.0022334612
127	0x3da9687c	0.08271882
128	0x3da41981	0.08012677
129	0x3d865d99	0.06560821
130	0x3dab0f14	0.08352485
131	0xbe351e9d	-0.1768746
132	0x3e0fe6b1	0.14052846
133	0xbe25f15c	-0.16205353
134	0xbe26f05b	-0.16302626
135	0xbda9ff13	-0.08300605
136	0xbccdb3e4	-0.025110193
137	0xbdf976f5	-0.121808924
138	0xbdd7a128	-0.10528785
139	0x3ac0ed59	0.0014719173
140	0xbe401192	-0.18756703
141	0xbe1a4b34	-0.1506775
142	0xbe2ffccb	-0.17186277
143	0xbdc76db8	-0.09737724
144	0xbddc4bf7	-0.10756677
145	0x3c9cc1f0	0.019135445
146	0xbe22a188	-0.15881932
147	0xbd87f1f3	-0.06637945
148	0x3e12a55a	0.14320889
149	0xbe25803d	-0.161622
150	0xbdb8b8cd	-0.09019623
151	0x3e3d870f	0.18508552
152	0xbe0584eb	-0.13038985
153	0x3be914a2	0.0071130553
154	0x3cedb267	0.029015733
155	0xbc92e8a6	-0.017933201
156	0x3e235253	0.15949373
157	0x3d0f6dc5	0.035016794
158	0x3e3c6411	0.18397547
159	0x3e3fa1b4	0.18714029
160	0xbd976edf	-0.07394194
161	0xbdb52806	-0.088455245
162	0x3dfc499a	0.12318726
163	0x3c94fe0e	0.018187549
164	0x3cead123	0.028664177
165	0x3e3733aa	0.17890802
166	0xbb353770	-0.0027651452
167	0x3d29c44c	0.04144697
168	0xbe364081	-0.17798044
169	0xbdcc1591	-0.09965051
170	0xbe2640a6	-0.16235599
171	0xbdf1a811	-0.11799634
172	0xbe2a7be4	-0.16648823
173	0xbda3ce73	-0.079983614
174	0x3d858e43	0.06521275
175	0x3cbf5315	0.023355046
176	0xbe416e28	-0.18889678
177	0x3e1f2333	0.15540771
178	0xbd7693de	-0.06019961
179	0xbdeeed3a	-0.11666341
180	0x3dd038f4	0.10167113
181	0x3d94ad54	0.07259622
182	0x3e2f7dc6	0.17137823
183	0x3d0915dc	0.033468112
184	0x3d831a64	0.06401518
185	0x3e23f58a	0.16011634
186	0xbd84dba8	-0.064872086
187	0xbd965d3d	-0.073420025
188	0xbdb82bfa	-0.08992763
189	0xbde21ee4	-0.11041048
190	0xbddb1a78	-0.10698408
191	0xbe127b85	-0.14304931
192	0xbd807064	-0.06271437
193	0x3e082692	0.13295963
194	0xbdbf81b3	-0.0935091
195	0x3d558c83	0.052135956
196	0x3d03bc25	0.03216185
197	0xbe06757b	-0.13130753
198	0x3e202c81	0.15641977
199	0xbd4b5ed4	-0.049650982
200	0x3da918bd	0.082566716
201	0xbc8b8fab	-0.01703628
202	0x3de0673f	0.10957193
203	0x3d9f5bb0	0.0778116
204	0xbd835e32	-0.06414451
205	0x3d5a0b80	0.053233624
206	0x3dfd76d6	0.12376182
207	0xbc582773	-0.013192999
208	0x3e2e17ab	0.17001216
209	0x3d5b341b	0.05351649
210	0xbdf5bda3	-0.11999061
211	0xbe24866a	-0.160669
212	0x3e0a8017	0.13525425
213	0xbda2c19e	-0.07947086
214	0x3e248989	0.1606809
215	0x3e0ef8c2	0.13962081
216	0x3d4dfbd8	0.050289005
217	0xbc9f5eae	-0.019454326
218	0x3bb9f58d	0.005675024
219	0xbcb8f2d2	-0.022576723
220	0x3dc73832	0.09727515
221	0xbe102cd0	-0.14079595
222	0xbd3b56c4	-0.045737043
223	0x3e32c93d	0.17459579
224	0xbe1b22e5	-0.1515003
225	0xbddaa41a	-0.10675831
226	0xbe09106c	-0.1338517
227	0x3dd2136d	0.102576114
228	0x3b8598d8	0.0040770583
229	0xbc7a6d09	-0.015284785
230	0xbdbf96c2	-0.09354927
231	0xbd2f241b	-0.042759042
232	0x3e1908a4	0.14944702
233	0xbd619e89	-0.05508283
234	0x3dba443e	0.090950474
235	0xbdaed9c6	-0.08537631
236	0xbd48e8f1	-0.049050275
237	0x3d87d91a	0.06633206
238	0xbe1cd9c8	-0.15317452
239	0x3d700ff0	0.05860895
240	0xbe00eb4e	-0.12589762
241	0xbdb19209	-0.08670432
242	0x3e2978aa	0.16549936

bias f4 [9]
0	0xbc897d9f	-0.016783534
1	0xbe440b1c	-0.19144863
2	0x3db0e255	0.086369194
3	0xbe218655	-0.157739
4	0xbe161276	-0.1465548
5	0x3e242f5b	0.1603369
6	0xbd07dcb3	-0.03316946
7	0x3d88c1be	0.066775784
8	0xbd3f153e	-0.046651118

weight f4 [3, 9]
0	0xbdc03688	-0.09385401
1	0xbe22339b	-0.15839998
2	0xbd10e516	-0.035374723
3	0x3dd83635	0.10557214
4	0xbe924787	-0.28570196
5	0x3ea4c28a	0.32179672
6	0xbe986c3e	-0.29770082
7	0x3e65c04f	0.22436641
8	0xbdcb48e9	-0.09926016
9	0xbdd31689	-0.103070326
10	0xbe97c00c	-0.29638708
11	0xbe4b37bf	-0.19845484
12	0xbe0a665e	-0.13515612
13	0xbe8a7dd0	-0.27049112
14	0x3d6110e2	0.05494774
15	0x3e2429f7	0.16031633
16	0x3e9fab82	0.31185538
17	0xbe9cad65	-0.3060104
18	0x3e6cc8ef	0.23123525
19	0x3e045c53	0.12925844
20	0x3d6b7b7a	0.057490803
21	0xbe32afc0	-0.17449856
22	0x3e69418d	0.22778912
23	0xbdf15ad0	-0.11784899
24	0xbe4e6862	-0.20157006
25	0xbdb8a049	-0.09014947
26	0xbe568a26	-0.20951137

bias f4 [3]
0	0xbe168353	-0.14698534
1	0x3e8c72f6	0.27431458
2	0x3e4ab212	0.19794491

weight f4 [9, 3]
0	0x3e120f8c	0.14263743
1	0xbeff9ebc	-0.49925792
2	0xbf05857a	-0.52156794
3	0xbe162994	-0.14664298
4	0x3d60feaa	0.054930367
5	0x3f00f5b8	0.5037494
6	0x3edbead8	0.4295261
7	0xbef5c7cb	-0.48003992
8	0xbd4b9080	-0.049698353
9	0x3f11746c	0.5681827
10	0x3ef1b5b3	0.47208938
11	0xbe20f292	-0.15717533
12	0xbe77033e	-0.2412233
13	0x3eb269ef	0.34846446
14	0x3f1054c8	0.56379366
15	0xbea701f6	-0.32618684
16	0xbbcaa32e	-0.0061840033
17	0xbecf1671	-0.4044681
18	0x3d0a376b	0.033744257
19	0xbec1b54b	-0.37833628
20	0x3e88ba86	0.26704806
21	0x3ec1224c	0.3772148
22	0x3e2294f0	0.15877128
23	0x3e7a9a74	0.24472982
24	0x3f077efc	0.5292814
25	0x3e7b2bc9	0.24528421
26	0xbf079fe1	-0.5297833

bias f4 [9]
0	0xbe1cea56	-0.15323767
1	0xbe269d59	-0.16270961
2	0xbe051db0	-0.12999606
3	0xbd787011	-0.06065375
4	0x3cced610	0.025248557
5	0x3ebf1d5c	0.37327087
6	0x3e869e2a	0.26292545
7	0xbcc966f3	-0.024585223
8	0x3e585198	0.21124876

weight f4 [27, 9]
0	0xbe97716a	-0.29578716
1	0x3e8020a6	0.2502491
2	0x3d836b5c	0.064169616
3	0xbd3dd6d7	-0.046347465
4	0x3df8ffbd	0.12158153
5	0xbe57200f	-0.21008323
6	0xbe1b2d29	-0.15153946
7	0xbea28bf3	-0.31747398
8	0x3a50b700	0.00079618394
9	0xbeaaa12e	-0.33326095
10	0x3e9ecf73	0.31017646
11	0x3e38b662	0.18038324
12	0x3e017c78	0.12645137
13	0x3ea9b222	0.33143717
14	0xbcfe6346	-0.031053197
15	0x3e0d4d64	0.13799053
16	0x3e964b02	0.293541
17	0xbe2742ab	-0.16334026
18	0xbb99cc40	-0.004693538
19	0x3d1f78a8	0.038933426
20	0x3e176f70	0.14788604
21	0x3e0d4237	0.1379479
22	0xbcf3d263	-0.029763406
23	0x3dbf1e7b	0.093319856
24	0x3e9686d2	0.29399735
25	0xbd85b7ff	-0.06529235
26	0x3e864d95	0.26231065
27	0xbe4108e6	-0.1885105
28	0xbdef870f	-0.11695682
29	0x3e58eab2	0.21183279
30	0x3cbbf9d4	0.022946276
31	0xbd2f6d1b	-0.04282866
32	0xbc5640ac	-0.013076942
33	0xbe824538	-0.25443435
34	0x3e8f07e2	0.27935702
35	0xbde3fa1f	-0.11131691
36	0x3e1c26f8	0.1524924
37	0x3e9e796d	0.30952016
38	0x3ea99931	0.33124688
39	0x3db8a321	0.09015489
40	0xbd446ffc	-0.04795836
41	0x3e5be8cb	0.21475522
42	0xbe98b241	-0.29823497
43	0xbe43bfb3	-0.19116096
44	0x3e911001	0.28332523
45	0x3e89b27f	0.26893994
46	0x3d9218d5	0.071336426
47	0x3e094190	0.13403916
48	0x3ba1c99f	0.004937365
49	0x3dfb1aa3	0.1226094
50	0xbea140a8	-0.3149464
51	0xbe1aa33e	-0.15101334
52	0x3e75547f	0.23958014
53	0x3dc0b461	0.094094045
54	0x3e59c1f6	0.21265396
55	0xbbd82b00	-0.006596923
56	0xbd985e60	-0.074398756
57	0xbcb0dd50	-0.021589905
58	0xbe96dbcb	-0.29464564
59	0x3d82cd34	0.06386796
60	0x3cd6b9d0	0.02621165
61	0x3e69eef2	0.22845057
62	0xbdd4e1d0	-0.10394633
63	0xbe9f850e	-0.311562
64	0x3e8c1be4	0.2736503
65	0xbe8366b4	-0.25664294
66	0xbd966c06	-0.073448226
67	0x3dc1fa72	0.09471597
68	0xbe7ce032	-0.24694899
69	0xbe412b0d	-0.18864079
70	0xbe7c797d	-0.24655719
71	0x3e0e991a	0.13925591
72	0x3e27c99e	0.16385505
73	0xbdab829a	-0.0837452
74	0xbde06e7c	-0.10958573
75	0xbba74bcc	-0.0051054712
76	0xbd9255f4	-0.071453005
77	0x3e429493	0.19001989
78	0x3e6590f6	0.2241858
79	0xbda18f69	-0.078886814
80	0xbd1ce0e6	-0.038300417
81	0xbdf555bc	-0.11979243
82	0xbe74f2b3	-0.23920707
83	0x3d8a9ba0	0.06767964
84	0x3df13020	0.11776757
85	0xbd47f058	-0.048813194
86	0xbba6a100	-0.0050851107
87	0xbe26d070	-0.1629045
88	0x3e9b2917	0.30304787
89	0xbe6a8d33	-0.22905426
90	0xbe11a083	-0.14221387
91	0xbd0bf508	-0.034169227
92	0xbe80caac	-0.25154626
93	0x3de78a10	0.1130563
94	0xbe13a59e	-0.14418647
95	0xbe137d4e	-0.14403269
96	0xbdd62206	-0.10455708
97	0x3d9d1780	0.07670498
98	0xbded4e30	-0.11587179
99	0x3dd96234	0.10614434
100	0x3e2aacb3	0.16667442
101	0xbd046e78	-0.032331914
102	0xbe0c6e23	-0.13713889
103	0x3df387ec	0.118911594
104	0x3e92ce42	0.28672987
105	0x3e7e25b5	0.24819072
106	0x3ea7c700	0.32769012
107	0xbde67ef8	-0.11254686
108	0xbde27076	-0.110566065
109	0xbe5ce0e0	-0.21570158
110	0x3e79c6c2	0.24392226
111	0xbe0b59be	-0.13608453
112	0x3e6635f2	0.22481516
113	0xbd0d9b08	-0.034571677
114	0x3d23ca28	0.039987713
115	0xbe677898	-0.22604597
116	0xbd062c68	-0.032757193
117	0xbe58b85b	-0.21164076
118	0x3dcc8140	0.0998559
119	0x3d60f2c0	0.054919004
120	0x3d9d8c7c	0.07692811
121	0x3cc15cd0	0.023603827
122	0x3e4672a2	0.19379666
123	0xbd823140	-0.0635705
124	0xbe496a2e	-0.1966941
125	0xbd90f574	-0.070780665
126	0x3d9e098c	0.07716665
127	0xbea5a9ab	-0.3235601
128	0x3dfae264	0.12250212
129	0x3d778768	0.060431868
130	0x3e45ff6a	0.19335714
131	0xbe530e3b	-0.20610897
132	0xbde83f4c	-0.11340198
133	0x3b77fa80	0.0037838519
134	0xbe87d796	-0.26531667
135	0x3d521e98	0.051298708
136	0xbdee62ef	-0.11639964
137	0xbe78ca06	-0.24295816
138	0xbd223eb9	-0.0396106
139	0x3e935bae	0.28780884
140	0x3e83ff75	0.25780836
141	0xbd81f5e1	-0.06345726
142	0x3e3fce49	0.18731035
143	0xbe60857b	-0.21925919
144	0x3d9e49d4	0.07728925
145	0x3d69473d	0.056952704
146	0xbea0a62c	-0.3137678
147	0x3c9f20f6	0.019424897
148	0xbe0fd0e0	-0.14044523
149	0x3e38d5ed	0.18050356
150	0x3e885ebf	0.26634786
151	0x3dc50a23	0.09621074
152	0xbe854446	-0.2602865
153	0x3df3e014	0.11907974
154	0xbddf7959	-0.10911817
155	0x3deba8ec	0.11506829
156	0xbdeb5820	-0.11491418
157	0x3da3ae1e	0.079921946
158	0xbe9b3383	-0.30312738
159	0x3d17e052	0.037079163
160	0xbdbc39c6	-0.09190707
161	0xbe8d8b75	-0.2764546
162	0xbbb142c0	-0.0054095685
163	0xbe9994a7	-0.29996225
164	0x3e00b4ca	0.12568966
165	0xbc7aa044	-0.015296999
166	0x3d126577	0.035741296
167	0xbe897aee	-0.268516
168	0x3a536f1b	0.0008065567
169	0x3cf29628	0.029612616
170	0xbe84f579	-0.2596853
171	0x3ddc9dec	0.10772309
172	0x3d253548	0.040334016
173	0x3e4ecfd2	0.20196465
174	0xbe8f549b	-0.27994236
175	0x3cfa16d0	0.030528456
176	0x3ea94dcd	0.3306717
177	0xbe88e977	-0.2674062
178	0x3e6ed8ee	0.2332494
179	0xbe7fe116	-0.24988207
180	0xbe7c2476	-0.24623284
181	0x3dc08700	0.09400749
182	0xbe2db10e	-0.16962072
183	0x3d7dcdb2	0.061963744
184	0xbe232238	-0.15931022
185	0xbe942e5a	-0.28941613
186	0x3e704a82	0.23465922
187	0xbe4c1094	-0.19928199
188	0xbde6ca05	-0.11269001
189	0x3e53570a	0.20638672
190	0x3e657e8e	0.22411558
191	0x3c52d380	0.012867808
192	0xbe97781e	-0.2958383
193	0x3cbbe640	0.02293694
194	0xbb496c00	-0.003073454
195	0x3e060708	0.1308862
196	0x3e6c50d2	0.23077706
197	0xbe7f3a8e	-0.2492468
198	0x3e0611de	0.13092753
199	0xbd215cc0	-0.039395094
200	0xbe823af8	-0.25435615
201	0xbe7a004e	-0.24414179
202	0xba8c1400	-0.0010687113
203	0x3b288e80	0.0025719702
204	0xbd6609a8	-0.056161553
205	0xbd4ab060	-0.04948461
206	0x3ea9c243	0.33156022
207	0x3e8067d9	0.2507923
208	0xbe43b980	-0.19113731
209	0x3e469312	0.1939204
210	0x3e3865f4	0.18007642
211	0x3e598180	0.21240807
212	0x3e3c86de	0.18410823
213	0x3e50da71	0.20395829
214	0x3e21ef54	0.15813953
215	0x3e800c6e	0.25009483
216	0x3e0fc4e2	0.14039949
217	0xbe49a54f	-0.19691966
218	0x3e53f4b2	0.20698813
219	0x3e586e2e	0.2113578
220	0x3e426f0d	0.18987675
221	0x3e17441e	0.14772078
222	0x3dcc30d7	0.09970253
223	0x3d1ee4ad	0.0387923
224	0x3dbdd99b	0.092700206
225	0x3d9ec394	0.07752147
226	0x3ea4465f	0.3208494
227	0x3ea1850d	0.31546822
228	0x3e6e4253	0.23267488
229	0x3dd5fae8	0.10448247
230	0x3e0e6c40	0.13908482
231	0x3dbba027	0.09161406
232	0x3e959c85	0.29220977
233	0xbdedb5e0	-0.116069555
234	0x3d26b0b8	0.040695876
235	0x3e5ba0aa	0.21448007
236	0xbda29504	-0.07938579
237	0x3e16e566	0.14735946
238	0xbe97edec	-0.29673707
239	0x3d157638	0.036489695
240	0x3e75b50e	0.23994848
241	0xbea35447	-0.31900236
242	0xbe93ea6e	-0.28889793

bias f4 [27]
0	0x3e847f4c	0.2587837
1	0xbe26af62	-0.1627784
2	0x3da4b034	0.080414206
3	0x3e1a0913	0.15042524
4	0x3e37d418	0.17952001
5	0x3e819903	0.2531205
6	0xbd213798	-0.03935966
7	0x3e1c3e49	0.15258135
8	0x3d21847c	0.039432988
9	0xbd4ac960	-0.049508452
10	0xbce813b0	-0.0283297
11	0x3ea1a0da	0.31568033
12	0xbe49c888	-0.19705403
13	0xbdcb9cc6	-0.099420115
14	0xbdb9fc86	-0.09081368
15	0xbdda5d77	-0.10662358
16	0xbcdd354a	-0.02700295
17	0x3e57d703	0.21078114
18	0x3e342e57	0.17595802
19	0xbe5fe390	-0.21864152
20	0x3e49bef1	0.19701745
21	0xbe779263	-0.24176936
22	0xbd93ba34	-0.0721325
23	0xbd077c8c	-0.03307776
24	0x3d147b5b	0.036250453
25	0xbde7b2a3	-0.11313369
26	0xbdcc1936	-0.09965746

weight f4 [180, 27]
0	0xbbe5f64d	-0.0070178867
1	0xbd5e3cd2	-0.05425722
2	0xbe14891f	-0.14505433
3	0xbcce701e	-0.025199946
4	0xbc304c34	-0.010760356
5	0x3d28abb8	0.04117939
6	0x3db6ecb2	0.08931865
7	0xbe097e55	-0.13427098
8	0x3e10ea77	0.14151941
9	0xbccb9310	-0.024850398
10	0xbd8301f4	-0.06396857
11	0xbdd2e2e2	-0.10297181
12	0x3dcc5f3a	0.099791005
13	0xbdfe86e6	-0.124280736
14	0xbd8eb01c	-0.06967184
15	0xbd88cd99	-0.0667984
16	0x3e0971b1	0.13422276
17	0x3c3dcfc4	0.01158518
18	0x3e12f163	0.14349894
19	0xbdcbf0e5	-0.09958056
20	0x3dfdb08f	0.123871915
21	0xbb1a6580	-0.0023559034
22	0x3d8fd2f2	0.070226565
23	0x3e409eb6	0.18810543
24	0x3b76ddd6	0.0037668846
25	0xbe24fbcb	-0.16111676
26	0x3ca259f8	0.019818291
27	0x3dcc372c	0.09971461
28	0x3e0a9e0e	0.13536856
29	0xbdb1f966	-0.08690147
30	0x3e2d63e5	0.16932638
31	0xbdd20c88	-0.102562964
32	0xbdfa05b1	-0.12208117
33	0x3d9815be	0.07426022
34	0xbda155a8	-0.07877666
35	0xbab491c7	-0.0013776355
36	0xbe1f389c	-0.15548939
37	0x3e170257	0.14746986
38	0xbe03f6e5	-0.12887152
39	0xbc8cb2f8	-0.017175183
40	0x3cdb39a0	0.026760876
41	0x3da1eff2	0.07907094
42	0xbd5275e2	-0.051381953
43	0x3e1cf150	0.15326428
44	0xbd2404c0	-0.040043592
45	0xbcf2c182	-0.029633287
46	0xbe3d3673	-0.18477802
47	0xbe44ca84	-0.19217879
48	0xbe27d31e	-0.16389129
49	0xbdeb664e	-0.114941224
50	0x3e039b80	0.12852287
51	0xbd1adbd8	-0.037807316
52	0x3e07722b	0.13227145
53	0xbe041356	-0.12898001
54	0xbe324e29	-0.17412628
55	0xbdf074f6	-0.117410585
56	0xbcb31ccc	-0.021864317
57	0xbe2e7043	-0.17035012
58	0xbe093a1a	-0.1340107
59	0xbd40469a	-0.04694233
60	0xbdb48afb	-0.08815571
61	0x3d10461b	0.035223108
62	0x3e126adf	0.1429858
63	0x3db1c41a	0.086799815
64	0xbd9995a6	-0.07499246
65	0x3d427e89	0.047483955
66	0xbdccaaab	-0.0999349
67	0xbe3e4094	-0.18579322
68	0x3d03fe4c	0.03222494
69	0xbe3c55ef	-0.18392156
70	0x3cd4be8c	0.025969766
71	0x3e064749	0.1311313
72	0xbde1cfab	-0.11025938
73	0xbe289b28	-0.16465437
74	0x3c78b0d9	0.0151788825
75	0xbd01e62c	-0.03171365
76	0x3dd4f8c6	0.10399012
77	0x3cb7299d	0.02235871
78	0x3da39d50	0.07988989
79	0xbe3a782e	-0.18209907
80	0xbe189446	-0.14900312
81	0xbd9979e1	-0.0749395
82	0x3d7db878	0.0619435
83	0xbda03893	-0.07823291
84	0xbb786e64	-0.0037907595
85	0x3d924ad2	0.07143177
86	0x3d37e0d6	0.044892155
87	0xbe0d5e1d	-0.13805433
88	0x3d2410c8	0.040055066
89	0xbddd75f5	-0.10813514
90	0x3d44b6e0	0.048025966
91	0xbd1dfd24	-0.03857149
92	0xbd4148a0	-0.0471884
93	0xbe048e82	-0.12944987
94	0x3d9f202a	0.07769807
95	0x3e00fd57	0.12596641
96	0x3c752158	0.014961563
97	0xbd48b6b5	-0.049002368
98	0x3e0ac7bd	0.13552757
99	0xbd72b4d4	-0.059254482
100	0x3e446043	0.19177346
101	0x3db09821	0.08622766
102	0x3b843640	0.0040347874
103	0x3d25cf4c	0.040480897
104	0x3e02d3a8	0.12776053
105	0x3dc17061	0.09445263
106	0xbcb5b543	-0.022181159
107	0x3e17c723	0.14822058
108	0xbdeeada3	-0.11654212
109	0x3e1adec4	0.15124041
110	0xbb78e7bf	-0.0037979928
111	0xbe0014f8	-0.12507999
112	0x3dfe4df3	0.124172114
113	0xbde525c1	-0.111888416
114	0x3c15c160	0.0091403425
115	0xbd5d39e2	-0.05401028
116	0x3d510eb6	0.05103942
117	0xbd989704	-0.07450679
118	0x3dabd2de	0.08389829
119	0x3e12ca22	0.1433492
120	0xbdfa1f71	-0.12213028
121	0xbda919e1	-0.08256889
122	0xbd61766c	-0.055044577
123	0x3e074af7	0.1321219
124	0x3d00266a	0.031286635
125	0x3d9f61c6	0.07782321
126	0xbe080262	-0.13282159
127	0xbe194ef8	-0.1497153
128	0x3da767e3	0.08174112
129	0xbda39057	-0.07986515
130	0xbe0a68d1	-0.13516547
131	0x3c1e2009	0.009651192
132	0x3e24588f	0.16049407
133	0xbe2a3b1b	-0.1662411
134	0xbda82b41	-0.08211375
135	0xbe45fdc8	-0.19335091
136	0xbdd62144	-0.10455564
137	0x3dd32ca7	0.10311251
138	0xbe305330	-0.17219234
139	0x3d1529ff	0.036417004
140	0x3d46ed32	0.04856605
141	0xbb43f300	-0.0029899478
142	0xbd971784	-0.07377532
143	0xbd79b68a	-0.0609651
144	0x3d37a674	0.044836476
145	0xbdaeca33	-0.0853466
146	0xbde67a8e	-0.11253844
147	0xbe3ca962	-0.1842399
148	0x3d19cd34	0.037549213
149	0xbd8bd7ea	-0.06828292
150	0x3db587ab	0.08863767
151	0xbe075cf3	-0.13219051
152	0x3dac4385	0.08411316
153	0x3e09c7f1	0.13455178
154	0x3ccdfba0	0.025144398
155	0x3cc845f8	0.024447426
156	0xbdd84698	-0.1056034
157	0x3da688fe	0.08131598
158	0x3d9856f5	0.07438461
159	0x3d902753	0.070387505
160	0x3dca6306	0.098821685
161	0x3d1de910	0.038552344
162	0x3903a979	0.00012556267
163	0xbc5da45e	-0.013527958
164	0x3e0b1e31	0.13585736
165	0x3d458f2a	0.048232235
166	0x3e3ad82e	0.18246529
167	0x3d63a9d2	0.055581875
168	0xbe3b8a99	-0.1831459
169	0xbe22d644	-0.15902048
170	0x3de1900e	0.110138044
171	0x3e05a089	0.1304952
172	0xbdbdeef9	-0.09274096
173	0xbb28b6ea	-0.002574379
174	0xbc79d8a0	-0.015249401
175	0xbda5c105	-0.08093456
176	0x3c1b6420	0.009484321
177	0x3dba6ee5	0.09103183
178	0xbe3fae27	-0.18718778
179	0x3d985824	0.074386865
180	0x3e14d568	0.14534533
181	0xbe368b27	-0.1782652
182	0x3dd44b2e	0.10365902
183	0xbdcaf843	-0.099106334
184	0x3e1c14e3	0.15242343
185	0x3d58c02f	0.052917656
186	0x3dc7f375	0.097632326
187	0xbcbe87fe	-0.023258206
188	0xbd98545e	-0.07437967
189	0xbb7e128e	-0.0038768384
190	0xbe0c7c45	-0.1371928
191	0xbdec1feb	-0.11529525
192	0xbe02817e	-0.1274471
193	0xbc8cdfcd	-0.01719656
194	0xbd9800bd	-0.07422016
195	0x3d929152	0.07156624
196	0x3d2d734c	0.042346284
197	0x3d90a298	0.07062262
198	0x3e115b9d	0.14195104
199	0x3e2385a7	0.15968953
200	0xbd824914	-0.06361595
201	0x3de67a1a	0.11253758
202	0xbddbc4c7	-0.10730892
203	0x3dfe7452	0.1242453
204	0xbdc7aaad	-0.09749351
205	0x3d706a82	0.058695324
206	0xbd19c4d0	-0.03754121
207	0x3dc674f4	0.09690276
208	0x3d4d8ea4	0.05018486
209	0xbc5d1ba0	-0.013495356
210	0xbcb99500	-0.022654057
211	0x3e1a2c89	0.15056051
212	0x3c60b2b1	0.013714478
213	0xbe41e905	-0.18936546
214	0x3de017ad	0.10942016
215	0x3e030b9f	0.12797402
216	0xbd87e9de	-0.066364035
217	0xbb59e5c3	-0.003324852
218	0xbd20d002	-0.03926087
219	0x3e3371ac	0.17523831
220	0xbd45c89d	-0.048287023
221	0x3b9e8c1b	0.004838479
222	0x3cc87500	0.024469852
223	0x3dcdbf47	0.10046249
224	0xbe20c0c2	-0.15698531
225	0x3db4ec8a	0.08834179
226	0x3e421543	0.18953423
227	0x3e0c7f7d	0.13720508
228	0xbddd35d9	-0.10801286
229	0xbc924238	-0.017853841
230	0x3d409ed8	0.047026485
231	0xbdc07a0e	-0.0939828
232	0xbe35be84	-0.17748457
233	0xbda70447	-0.08155113
234	0xb9d6530a	-0.0004087913
235	0x3c822bb0	0.015889972
236	0x3dc689af	0.0969423
237	0xbe12961c	-0.14315075
238	0x3d854ee6	0.06509189
239	0x3e3a71d7	0.18207489
240	0xbd0b9cd6	-0.034085117
241	0x3e08c830	0.13357615
242	0xbddb7f34	-0.107176214
243	0x3c8429a4	0.016133137
244	0x3c9ab01f	0.01888281
245	0xbd738712	-0.059454985
246	0x3c67aa86	0.014139777
247	0xbd424224	-0.047426358
248	0x3e22c7b5	0.15896495
249	0xbcf25168	-0.029579833
250	0xbc0ec921	-0.008714945
251	0x3d9e5aac	0.07732138
252	0x3de84676	0.11341564
253	0xbd87fae6	-0.06639652
254	0xbe053b2d	-0.13010855
255	0x3e0d6031	0.13806225

bias f4 [180]
0	0xbd8133e9	-0.06308729
1	0x3d37757a	0.04478977
2	0xbddf6382	-0.109076515
3	0x3db2237d	0.08698175
4	0x3cf393da	0.029733587
5	0x3d49d43b	0.049274664
6	0x3dc1f141	0.09469844
7	0xbe0c455c	-0.13698334
8	0x3d734e00	0.05940056
9	0xbe00b37d	-0.1256847
10	0x3d5ec959	0.05439124
11	0xbc2aa0ab	-0.010414283
12	0xbe26d9fa	-0.16294089
13	0x3c133a94	0.008986134
14	0x3e13702e	0.14398262
15	0x3e145f92	0.14489582
16	0xbe3f1e75	-0.18663962
17	0x3b509104	0.0031824717
18	0xbdb8518d	-0.089999296
19	0xbe159995	-0.14609368
20	0xbe4be898	-0.19912946
21	0x3d06650e	0.032811217
22	0xbd822f74	-0.06356707
23	0x3dfe44c3	0.12415459
24	0xbe26b447	-0.16279708
25	0x3d1c0095	0.038086493
26	0xbda574e7	-0.08078938
27	0x3ddf11f9	0.108921
28	0xbc92b7cc	-0.017909907
29	0x3de9b025	0.1141055
30	0xbe27ff94	-0.16406089
31	0x3e158fa7	0.1460558
32	0x3dada49d	0.08478663
33	0x3dca3ed2	0.09875263
34	0x3d790058	0.060791343
35	0x3d8b61a7	0.06805735
36	0x3d51dbe7	0.051235106
37	0xbc21f0f2	-0.009884106
38	0xbe2f1ca7	-0.17100774
39	0xbe3e268d	-0.18569393
40	0x3cef5ad9	0.029218124
41	0x3c610502	0.013734104
42	0x3c2f815e	0.010711996
43	0xbc37b7c6	-0.011213249
44	0xbd846e66	-0.06466369
45	0x3dbace05	0.09121326
46	0x3d55f97c	0.05223988
47	0xbde384d0	-0.11109316
48	0xbdc73d82	-0.097285286
49	0x3df766bd	0.12080143
50	0xbe378da1	-0.17925121
51	0xbddc7aed	-0.10765634
52	0xbd891200	-0.06692886
53	0x3de5c8b9	0.112199254
54	0xbdaf5f62	-0.08563115
55	0x3e1ec079	0.1550311
56	0x3dde7918	0.108629405
57	0x3d0e68ad	0.034767795
58	0x3c0c8985	0.008577709
59	0x3d9815e3	0.074260496
60	0x3add015c	0.0016861367
61	0x3e0bc7c3	0.13650422
62	0xbd9b5f08	-0.07586485
63	0xbd993544	-0.07480863
64	0xbe3e8aaf	-0.18607591
65	0x3e03d344	0.1287356
66	0xbd9b4932	-0.0758232
67	0xbda472a4	-0.080296785
68	0x3bd25ad4	0.006419519
69	0x3c9fa6d3	0.019488728
70	0xbdb7a811	-0.08967603
71	0x3d4a38ea	0.049370684
72	0x3dde17d8	0.108443916
73	0xbddd1334	-0.10794678
74	0xbdfa1dac	-0.12212691
75	0xbe2d78af	-0.16940568
76	0xbd083dce	-0.033262067
77	0x3de7300d	0.11288462
78	0xbd6019d4	-0.05471213
79	0xbd6a761e	-0.05724155
80	0xbded347f	-0.115822785
81	0xbdad8d40	-0.08474207
82	0xbdb8cb9f	-0.09023213
83	0xbd6c2a8a	-0.057657756
84	0xbe133f9e	-0.14379737
85	0xbd82e966	-0.063921735
86	0x3da7a5c6	0.08185916
87	0x3d9e05c1	0.07715941
88	0x3e1a1524	0.15047127
89	0xbd5af286	-0.053453945
90	0x3e061d3e	0.13097093
91	0x3e095815	0.13412507
92	0xbdf3b0bb	-0.11898943
93	0x3d3ee969	0.046609316
94	0x3d423b6d	0.047419954
95	0x3c0b58fe	0.008505104
96	0x3d7b89f5	0.061410863
97	0x3da39d88	0.07989031
98	0xbcba1a69	-0.022717671
99	0xbdc96cbf	-0.09835195
100	0x3de5e9ad	0.11226211
101	0xbe0068ea	-0.12540022
102	0x3c4f8ca0	0.012667805
103	0xbc82b1db	-0.015953949
104	0xbe021113	-0.12701826
105	0x3da1117b	0.07864662
106	0xbe01d90f	-0.12680458
107	0x3e0316af	0.12801622
108	0xbcf22349	-0.02955784
109	0xbce39b49	-0.027784007
110	0xbe26e023	-0.16296439
111	0x3e2a79b2	0.16647986
112	0x3a0e0a6d	0.00054184237
113	0x3dceed98	0.10103911
114	0xbd8aa078	-0.06768888
115	0xbd11bdaa	-0.03558127
116	0x3d7ddc82	0.06197787
117	0xbd9d5e7f	-0.07684039
118	0x3d51d908	0.051232368
119	0xbe0dea53	-0.13858919
120	0x3d934f01	0.07192803
121	0x3d3cd9fb	0.04610632
122	0xbd8db64e	-0.069195375
123	0x3abb8b61	0.0014308506
124	0x3e137c98	0.14402997
125	0xbc2b3f32	-0.010452079
126	0xbd8b0e11	-0.06789792
127	0xbde75e45	-0.11297277
128	0x3e0463d4	0.12928706
129	0x3cb82a4c	0.022481106
130	0xbde241d0	-0.11047709
131	0x3de6f87d	0.11277864
132	0xbdda213e	-0.10650872
133	0x3c1b6fd7	0.009487114
134	0x3de9d14c	0.11416873
135	0xbe0218ee	-0.12704822
136	0x3e4c274f	0.1993687
137	0x3c75823a	0.014984662
138	0xbd2598c3	-0.040428888
139	0x3d3e54ff	0.046467777
140	0x3e0fb032	0.14032057
141	0xbc97f467	-0.018549157
142	0xbdc3d3de	-0.09561895
143	0xbca6ed7b	-0.020376911
144	0xbd9cd917	-0.07658594
145	0xbdb9a78b	-0.090651594
146	0xbd0ad0d0	-0.033890545
147	0x3ddebef0	0.10876262
148	0xbd6bc94e	-0.057565026
149	0x3d59339f	0.053027745
150	0x3d2a0f1a	0.04151831
151	0xbced4a64	-0.028966136
152	0xbd27c9c4	-0.040963903
153	0x3bc1c294	0.005913088
154	0x3dc967b0	0.0983423
155	0xbd426eb6	-0.047468863
156	0x3e577d37	0.2104386
157	0x3cb717ed	0.022350276
158	0xbd5850f8	-0.052811593
159	0x3e311f25	0.17297037
160	0x3e45c9ba	0.19315234
161	0x3e31f53a	0.17378703
162	0x3e28e9a9	0.16495384
163	0x3e53a30c	0.20667666
164	0x3dcdcac8	0.10048443
165	0xbc02ce7e	-0.007983802
166	0x3dd1830e	0.10230075
167	0x3ccc4016	0.024932902
168	0xbdbad0b8	-0.09121841
169	0x3cedd617	0.02903275
170	0x3e07c1bd	0.13257499
171	0xbbf1842f	-0.007370494
172	0x3e2fedfa	0.17180625
173	0x3e38fd6f	0.18065427
174	0x3ca80c1b	0.020513585
175	0xbd807e37	-0.062740736
176	0x3cf3d3b0	0.029764026
177	0x3e03ada8	0.12859213
178	0x3d335821	0.04378522
179	0x3d7eb2f3	0.062182378
