knn/models/pretrained-autoencoder/autoencoder-in_features180-latent_size12.pt (torch, 214150 bytes, 12 tensors)

weight f4 [108, 180]
0.050854478 0.018252054 -0.037281528 0.0047289245 0.0069941687 0.047491614 -0.014406685 0.041803803
0.03696563 -0.04456075 0.054586086 0.05279745 -0.034647238 -0.038264226 -0.03327356 -0.061775945
-0.022839734 -0.022329474 0.06448642 0.053174138 0.01893706 0.06972269 -0.0021854716 -0.06574562
0.06741138 0.009624282 0.05147165 -0.018071776 0.0060033333 0.032624286 -0.012676537 0.01566647
0.055266738 0.046482705 0.035823997 -0.007151817 -0.025900949 -0.053101595 0.019025363 -0.07178997
0.04463442 -0.002878417 0.057083808 0.05902892 -0.0348384 0.053702082 0.002486599 0.06911646
0.02745317 0.06422733 -0.016829696 0.028157486 -0.053644344 -0.006315938 0.06091122 0.044006918
-0.015263857 -0.047362708 -0.049140155 0.043441188 -0.041329216 0.06335365 0.036953792 0.0019988199
-0.0028088249 0.045906637 -0.062624544 -0.043088857 -0.07177143 0.025985882 -0.07300097 -0.06119579
-0.060488652 0.059325933 -0.04459735 0.045900747 0.045349255 -0.049539886 0.0023814894 0.039595112
-0.008607772 -0.06176997 0.048328545 -0.025481494 0.04330003 0.07212173 0.071457446 0.011911253
-0.052920945 0.011208664 0.07345944 -0.062096488 -0.005243744 0.032733887 -0.011336201 0.07073665
-0.018996833 0.05698236 0.054517303 -0.07290719 -0.043915723 -0.0157497 0.027648091 0.011050928
-0.0415779 -0.053411998 -0.06387699 0.005499971 -0.039784826 -0.0035436891 0.025764378 -0.022857979
0.020033464 -0.0026502472 0.01473125 -0.042877734 0.027192518 0.0001905327 -0.028288102 -0.01529212
-0.026256327 -0.01179723 0.009302942 -0.07275822 0.05569398 -0.0020133534 0.051885154 -0.0331708
-0.049758688 -0.020328915 -0.028153833 -0.07015512 -0.047357995 0.04188138 -0.016220307 0.023190608
0.0107202 -0.010186933 0.057545222 -0.045314718 -0.054738276 0.03727815 -0.018633286 0.013877575
0.015238132 -0.04749272 -0.06373746 -0.024951715 0.044334933 -0.019234953 -0.022267668 0.038727794
0.002954237 0.0008870215 -0.054260906 -0.068691626 -0.03608608 0.059846234 0.065186255 0.025589911
0.0726676 -0.057566 0.034628127 0.017009048 -0.03781494 0.065432884 0.0014721788 0.073011555
0.05524969 -0.021042233 -0.011379159 0.0067149242 -0.064825885 0.06694343 -0.020303259 -0.06439096
-0.0057801493 -0.016144171 0.029986821 0.034389935 -0.015345323 0.0631065 0.004762271 -0.07370495
0.051329825 -0.023172671 -0.026875222 -0.061158065 0.07310067 0.001389017 0.04492414 -0.02091278
-0.06753176 -0.012226511 -0.05275898 0.011352293 -0.05035824 0.05617084 0.058023702 -0.045880236
-0.0065654507 0.046895858 0.0639457 0.0125452615 0.061714258 0.02149889 0.006110397 0.028825233
0.028623937 -0.028198043 -0.011518088 0.053222746 -0.04754538 5.3907934e-06 0.023484346 0.008875987
-0.023598233 -0.049409647 -0.071142666 0.061768223 -0.042209893 0.014090345 0.019818453 0.05882993
-0.053210575 -0.01870588 0.058985945 -0.0142304655 0.06017569 0.030918952 -0.060936302 0.06605948
-0.032590717 -0.0026507792 0.007846148 -0.057605654 0.006748486 -0.05525075 -0.020953717 -0.040473007
-0.012224736 0.011098068 0.004212775 -0.07165737 0.023887942 0.007527123 -0.014525459 -0.017615166
0.016566474 0.06491657 0.058674563 0.0141308755 0.060195107 0.010268235 -0.057732206 0.023338672
00000000: c94c 503d 5585 953c 84b4 18bd 18f5 9a3b
00000010: 572f e53b 9186 423d 040a 6cbc 773a 2b3d
00000020: 4669 173d 5585 36bd a995 5f3d 2442 583d
00000030: 43ea 0dbd f3ba 1cbd db49 08bd c608 7dbd
00000040: 651a bbbc 4dec b6bc 7511 843d 20cd 593d
00000050: e521 9b3c c5ca 8e3d 213a 0fbb a4a5 86bd
00000060: fa0e 8a3d 2aaf 1d3c f0d3 523d 430b 94bc
00000070: 9cb7 c43b 0ba1 053d 40b1 4fbc f856 803c
00000080: 605f 623d a664 3e3d 2fbc 123d ca59 eabb
00000090: 3a2e d4bc 0f81 59bd 14db 9b3c 9f06 93bd
000000a0: 95d2 363d d3a3 3cbb b6d0 693d 4fc8 713d
000000b0: b6b2 0ebd b7f6 5b3d 35f6 223b ee8c 8d3d
000000c0: 78e5 e03c 9e89 833d 6ede 89bc 87aa e63c
000000d0: 2cba 5bbd eef5 cebb 0b7e 793d 9940 343d
000000e0: 4215 7abc 66ff 41bd 3047 49bd 63ef 313d
000000f0: d348 29bd 8fbf 813d dc5c 173d a2fe 023b
00000100: 4314 38bb 9908 3c3d 4c41 80bd f17d 30bd
00000110: e6fc 92bd 58e0 d43c 8881 95bd 70a8 7abd
00000120: f3c2 77bd c0ff 723d b6ab 36bd 6c02 3c3d
00000130: 24c0 393d 56ea 4abd c312 1c3b 7c2e 223d
00000140: 9d07 0dbc 8202 7dbd 27f4 453d 91be d0bc
00000150: 5f5b 313d 8fb4 933d 4858 923d 6b27 433c
00000160: a2c3 58bd 8ba4 373c e771 963d e358 7ebd
00000170: b6d3 abbb f813 063d 79bb 39bc 60de 903d
00000180: 3f9f 9bbc 5666 693d 894d 5f3d 5d50 95bd
00000190: f9e0 33bd 8405 81bc 407e e23c f40e 353c
000001a0: 974d 2abd 8ac6 5abd f0d1 82bd 1a39 b43b
000001b0: 6af5 22bd 3d3d 68bb d10f d33c a840 bbbc
000001c0: 381d a43c c5af 2dbb 575b 713c 90a0 2fbd
000001d0: d8c2 de3c bbc9 4739 73bc e7bc cd8b 7abc
000001e0: 8217 d7bc 2b49 41bc 5e6b 183c 4302 95bd
000001f0: 5f1f 643d 77f2 03bb 8785 543d 1bde 07bd
00000200: c4cf 4bbd d388 a6bc dea2 e6bc 7dad 8fbd
00000210: 75fa 41bd cf8b 2b3d 73e0 84bc 3bfa bd3c
00000220: c7a3 2f3c 18e7 26bc 8ab4 6b3d ed9b 39bd
00000230: 3e35 60bd f9b0 183d d5a4 98bc c55e 633c
00000240: 5ca9 793c ba87 42bd c988 82bd 8a67 ccbc
00000250: 8c98 353d 9f92 9dbc af6a b6bc 09a1 1e3d
00000260: df9b 413b 0187 683a af40 5ebd 32ae 8cbd
00000270: ffce 13bd 5321 753d 5f80 853d efa1 d13c
00000280: c0d2 943d 53ca 6bbd 39d6 0d3d 8f56 8b3c
00000290: d7e3 1abd ad01 863d 20f6 c03a 1587 953d
000002a0: 804d 623d c360 acbc a76f 3abc de08 dc3b
000002b0: 6fc3 84bd a319 893d 0553 a6bc 68df 83bd
000002c0: 6867 bdbb c840 84bc eca6 f53c 76dc 0c3d
000002d0: f36a 7bbc fb3d 813d d30c 9c3b 9ff2 96bd
000002e0: 393f 523d 9dd4 bdbc 6d29 dcbc e180 7abd
000002f0: ceb5 953d ad0f b63a 6002 383d 4751 abbc
00000300: 174e 8abd b451 48bc cd19 58bd f8fe 393c
00000310: 7144 4ebd 6513 663d 43aa 6d3d eaec 3bbd
00000320: fe22 d7bb df15 403d f7f5 823d a48a 4d3c
00000330: 17c8 7c3d 711e b03c ba39 c83b e522 ec3c
00000340: bf7c ea3c 95ff e6bc 5db6 3cbc 1800 5a3d
00000350: f2be 42bd 90e2 b436 3e62 c03c 966c 113c
00000360: 1551 c1bc c561 4abd 3fb3 91bd ad00 7d3d
00000370: 48e4 2cbd 31db 663c 4f5a a23c a7f7 703d
00000380: 55f3 59bd 133d 99bc 3f9b 713d e626 69bc
00000390: c97a 763d be49 fd3c 5898 79bd 314a 873d
000003a0: d87d 05bd b2b8 2dbb 218d 003c e8f3 6bbd
000003b0: 6722 dd3b 9c4e 62bd 21a7 abbc 06c7 25bd
000003c0: 424a 48bc acd4 353c 510b 8a3b 19c1 92bd
000003d0: a5b0 c33c 16a6 f63b 31fc 6dbc ae4d 90bc
000003e0: 6ab6 873c fbf2 843d bd54 703d 3085 673c
000003f0: 258f 763d 193c 283c 9b78 6cbd be30 bf3c

bias f4 [108]
0.0644305 -0.04982165 0.06065019 0.0287437 -0.051742736 -0.024711214 0.048024006 -0.023108462
-0.035494354 0.06388264 0.055490233 -0.03727321 0.036756974 0.014655421 -0.011532148 -0.06539542
0.0010269419 0.015465507 -0.030452717 0.053614855 0.042677417 0.0020456037 0.04175975 -0.03469864
0.004545591 -0.011179157 -0.052986316 0.013232644 -0.009412142 0.073204674 -0.058035236 0.017812144
0.02564706 -0.021175038 -0.016813979 -0.059538364 -0.03730848 0.04629416 -0.04963158 0.033997327
0.011325349 -0.0013815669 -0.066219516 0.046177946 0.0029341946 0.035080533 0.044904273 0.006185387
0.044064697 0.014484093 0.03243315 0.0049312543 0.02903123 -0.0041013192 0.05288963 0.030994957
0.019438023 -0.014067387 -0.041881822 0.06856808 0.002982693 0.06844556 0.051460423 0.011874707
-0.057852425 0.026245523 -0.07259863 -0.0006918151 -0.058454968 0.037703138 -0.013020988 0.073292784
-0.042890932 -0.039819088 0.05782321 0.0061340895 0.017933784 0.07517172 -0.036965992 -0.0019700655
-0.049420446 -0.015575035 0.07110734 0.06113042 0.023496963 0.02548836 0.008064487 0.025193548
0.054321077 -0.05313357 -0.041203722 -0.035038278 0.020261131 0.068153396 0.04080334 0.02913598
-0.055822067 -0.037661564 0.0022287697 -0.0658308 0.031568754 -0.037168704 -0.051375184 -0.008307771
-0.044491198 -0.033019464 -0.055182796 -0.026777552
00000000: 23f4 833d c911 4cbd 556c 783d e877 eb3c
00000010: 31f0 53bd 2c6f cabc d2b4 443d f54d bdbc
00000020: 8762 11bd e7d4 823d ba49 633d cbab 18bd
00000030: 7b8e 163d 4a1d 703c 56f1 3cbc 09ee 85bd
00000040: 749a 863a 0a63 7d3c fa77 f9bc 409b 5b3d
00000050: 84ce 2e3d 890f 063b 460c 2b3d 2920 0ebd
00000060: 2ef3 943b c828 37bc 2e08 59bd bbcd 583c
00000070: 6335 1abc 55ec 953d 5bb6 6dbd c6ea 913c
00000080: c819 d23c 4677 adbc 78bd 89bc 80de 73bd
00000090: c7d0 18bd f29e 3d3d 7c4a 4bbd c840 0b3d
000000a0: f58d 393c b115 b5ba 199e 87bd 1625 3d3d
000000b0: 9e4b 403b 9bb0 0f3d 8bed 373d c9ae ca3b
000000c0: 2f7d 343d b04e 6d3c 9fd8 043d 5c96 a13b
000000d0: e7d2 ed3c 5c64 86bb cca2 583d 23e9 fd3c
000000e0: 7d3c 9f3c e67a 66bc 468c 2bbd 6c6d 8c3d
000000f0: 4979 433b 302d 8c3d 2ac8 523d 228e 423c
00000100: aaf6 6cbd da00 d73c 97ae 94bd ed5a 35ba
00000110: 7a6e 6fbd 9b6e 1a3d fb55 55bc 871a 963d
00000120: 67ae 2fbd 5719 23bd 08d8 6c3d 7900 c93b
00000130: dfe9 923c a1f3 993d a769 17bd 371c 01bb
00000140: 186d 4abd 6e2e 7fbc baa0 913d e463 7a3d
00000150: b47c c03c f7cc d03c e920 043c b362 ce3c
00000160: c77f 5e3d 96a2 59bd 3cc5 28bd 4c84 0fbd
00000170: acfa a53c 0294 8b3d 6721 273d 94ae ee3c
00000180: aea5 64bd 0343 1abd 8d10 123b 4cd2 86bd
00000190: 3d4e 013d 363e 18bd c96e 52bd 511d 08bc
000001a0: 673c 36bd 6b3f 07bd 5b07 62bd 995c dbbc

weight f4 [36, 108]
-0.044373732 0.061648373 -0.09289555 0.0942548 -0.01365493 -0.067092344 0.07102899 -0.08425054
0.095201194 0.02595745 0.004576337 0.02925622 0.036777403 -0.09306699 0.049788363 -0.076471716
0.0826429 0.056629147 0.02112213 0.010193424 -0.061838496 -0.053988993 0.061397985 0.04074304
-0.051620957 -0.035561204 -0.025739009 -0.068063915 0.026443902 0.06466281 -0.092014425 0.06351296
0.072328955 0.064026676 0.008087721 -0.050749313 0.08371561 0.01309314 -0.055773385 0.021073136
0.017886413 -0.019598018 -0.057403337 0.07820882 -0.046083048 -0.0052599595 -0.067164615 0.032174204
-0.046925515 0.03667759 0.0036694824 0.0017681619 0.045152258 0.052904844 -0.09198939 -0.09442763
0.03206413 0.017952329 0.0622639 -0.019045496 0.0048746923 0.025493173 -0.08185299 -0.05621756
0.043575957 0.038402155 0.029742507 0.032990403 -0.08021341 0.043735024 0.09040257 -0.0003395419
-0.088615716 -0.004220936 -0.03342945 0.06578325 0.09195154 0.007798152 -0.07696657 0.09131029
-0.026204346 0.070945814 0.08169023 0.022763869 0.07486639 -0.090788744 0.0121262595 -0.09245094
-0.08632944 0.00633787 0.08566746 -0.045369063 0.0647983 0.01324714 -0.036050543 0.03575199
-0.043397933 -0.07586281 -0.031654354 -0.0012491067 0.055260513 0.06544244 -0.022278698 -0.04215177
-0.06411494 -0.07634174 0.066890396 0.009889971 0.05718704 0.020229138 0.078818925 -0.028120313
0.078664295 0.08437043 0.009973283 0.05098964 -0.022860017 -0.08287676 0.02922705 -0.06349599
-0.03941488 0.055889 0.0048504435 -0.012697299 0.020503683 0.0054477244 -0.021078635 0.05864207
0.044956986 0.008792416 -0.02959385 0.064069256 -0.06578171 0.07373671 0.00035813273 0.0016620011
-0.021874601 0.018473588 0.0040505016 -0.04941262 0.018656332 -0.07840944 -0.08307339 -0.055391382
-0.07645564 0.0694298 -0.05862108 0.035419937 -0.027674217 0.025318483 -0.043531716 -0.042651456
0.009722813 -0.032858454 -0.046111077 -0.0774972 -0.08805169 -0.060185034 0.061174776 0.073398806
0.01104706 0.04402293 -0.025153734 0.08850256 0.08980891 -0.029985316 0.04478908 -0.059652794
0.075015016 -0.06401356 0.08851548 0.03288914 -0.043495897 -0.017679079 0.06551026 0.07937038
0.0383423 0.038914654 0.0921035 0.07135103 -0.01446286 0.025105396 0.085931785 0.004425733
0.07521744 -0.094416805 0.042623527 -0.08771409 0.018385187 -0.06836916 0.035795093 0.031812843
0.011729198 0.0041390145 0.00073575956 -0.019045547 0.052562114 0.026535144 -0.09609418 0.067704886
-0.028273782 -0.036489774 -0.021636851 -0.0057814196 -0.01383157 -0.01882632 -0.040419713 -0.03019119
0.011679033 -0.05083955 -0.04231011 0.019853486 0.025952313 -0.04643968 0.03131353 0.02602951
-0.040506735 -0.0017309191 -0.046070255 -0.0052063335 0.089651205 0.018398518 -0.08434333 -0.015223937
-0.03383472 -0.0959666 0.080828264 -0.06844318 0.0907823 0.021852238 0.09422915 -0.054487597
0.050350115 0.0785628 0.011577133 0.024548661 0.03685311 0.06887443 -0.042717867 -0.045745008
-0.036638975 -0.042521413 0.021277767 0.07810313 0.08366218 0.091122575 0.006145077 -0.014380298
0.07062882 0.0069083027 -0.007049104 -0.014900584 -0.0019350757 0.016995098 0.043938383 -0.08336923
00000000: 3bc1 35bd 0183 7c3d 0640 bebd a908 c13d
00000010: edb8 5fbc b667 89bd a677 913d 8c8b acbd
00000020: d8f8 c23d b8a4 d43c 19f5 953b beaa ef3c
00000030: e7a3 163d e899 bebd e2ee 4b3d 349d 9cbd
00000040: ae40 a93d f7f3 673d 5108 ad3c 5202 273c
00000050: 5d4a 7dbd 9023 5dbd 747c 7b3d 2de2 263d
00000060: 7f70 53bd a0a8 11bd 9dda d2bc 1865 8bbd
00000070: e2a0 d83c ef6d 843d 0f72 bcbd 1513 823d
00000080: 3421 943d 6b20 833d 5c82 043c 83de 4fbd
00000090: 1773 ab3d 9c84 563c a272 64bd 92a1 ac3c
000000a0: 8786 923c 068c a0bc c31f 6bbd f22b a03d
000000b0: 94c1 3cbd bd5b acbb 9a8d 89bd 19c9 033d
000000c0: f834 40bd 3e3b 163d b37b 703b abc1 e73a
000000d0: 93f1 383d c0b2 583d ef64 bcbd 4663 c1bd
000000e0: ad55 033d c310 933c 6e08 7f3d 4d05 9cbc
000000f0: e2bb 9f3b 0fd7 d03c 8aa2 a7bd 6244 66bd
00000100: b47c 323d 944b 1d3d 8fa6 f33c f220 073d
00000110: ee46 a4bd 7f23 333d fc24 b93d 8b04 b2b9
00000120: 287c b5bd c74f 8abb 52ed 08bd 5eb9 863d
00000130: 1751 bc3d a487 ff3b a6a0 9dbd e400 bb3d
00000140: 7faa d6bc 0a4c 913d 354d a73d 4b7b ba3c
00000150: 8d53 993d 73ef b9bd 38ad 463c eb56 bdbd
00000160: 7dcd b0bd e8ad cf3b 6c72 af3d e9d4 39bd
00000170: f9b4 843d 880a 593c bca9 13bd ae70 123d
00000180: 08c2 31bd f65d 9bbd ffa7 01bd 11b9 a3ba
00000190: d958 623d b006 863d d181 b6bc 56a7 2cbd
000001a0: b24e 83bd 0f59 9cbd d5fd 883d 8c09 223c
000001b0: f53c 6a3d 94b7 a53c d16b a13d 925c e6bc
000001c0: bf1a a13d 67ca ac3d fb66 233c 83da 503d
000001d0: ee44 bbbc 4abb a9bd 916d ef3c 300a 82bd
000001e0: 7f71 21bd ddeb 643d 78f0 9e3b 5508 50bc
000001f0: 57f7 a73c d382 b23b 1aad acbc ab32 703d
00000200: d124 383d 110e 103c cd6e f2bc be36 833d
00000210: 90b8 86bd 4603 973d c3c3 bb39 81d7 d93a
00000220: 5d32 b3bc ec55 973c 12ba 843b e364 4abd
00000230: 2ad5 983c 2195 a0bd 6222 aabd 13e2 62bd
00000240: c694 9cbd 3631 8e3d a81c 70bd 7f14 113d
00000250: 0ab5 e2bc b568 cf3c 504e 32bd 4bb3 2ebd
00000260: 6f4c 1f3c 9696 06bd f8de 3cbd dab6 9ebd
00000270: 7254 b4bd 9584 76bd 6792 7a3d 1d52 963d
00000280: bafe 343c 6351 343d 340f cebc d540 b53d
00000290: bced b73d c4a3 f5bc c174 373d 7d56 74bd
000002a0: 79a1 993d 8b19 83bd 9b47 b53d c3b6 063d
000002b0: c128 32bd b7d3 90bc 3e2a 863d f08c a23d
000002c0: d10c 1d3d f964 1f3d c3a0 bc3d 7d20 923d
000002d0: a2f5 6cbc d5a9 cd3c 01fd af3d bd05 913b
000002e0: 9a0b 9a3d 995d c1bd 0296 2e3d 72a3 b3bd
000002f0: 889c 963c 2105 8cbd e09d 123d 2f4e 023d
00000300: d22b 403c 92a0 873b fddf 403a 6805 9cbc
00000310: 5f4b 573d 3b60 d93c 07cd c4bd dca8 8a3d
00000320: 6b9e e7bc 4d76 15bd c43f b1bc 1072 bdbb
00000330: cf9d 62bc a839 9abc 248f 25bd 8453 f7bc
00000340: 6a59 3f3c 223d 50bd 5e4d 2dbd c7a3 a23c
00000350: f299 d43c 8937 3ebd 9e42 003d d73b d53c
00000360: 64ea 25bd 02e0 e2ba 2ab4 3cbd e499 aabb
00000370: 0d9b b73d 7db8 963c 32bc acbd d26d 79bc
00000380: 4696 0abd 238a c4bd 4a89 a53d f02b 8cbd
00000390: 12ec b93d 7703 b33c 36fb c03d 632e 5fbd
000003a0: ec3b 4e3d 89e5 a03d 04ae 3d3c 461a c93c
000003b0: 49f3 163d 0a0e 8d3d eef8 2ebd 1e5f 3bbd
000003c0: c012 16bd ef2a 2ebd b64e ae3c 89f4 9f3d
000003d0: 1457 ab3d 799e ba3d a45c c93b 579b 6bbc
000003e0: d8a5 903d 0b5f e23b 2cfc e6bb 9421 74bc
000003f0: 5ea2 fdba 4e39 8b3c bcf8 333d 7dbd aabd

bias f4 [36]
0.04416669 -0.06485319 -0.03156607 -0.03827467 -0.04154067 -0.080209106 -0.026624074 0.07699301
-0.0361381 -0.091430634 -0.067983486 0.073509306 0.08545459 -0.059669793 0.09077165 -0.03899129
0.062957264 0.007087838 -0.0124938935 -0.08735038 0.09013847 0.006601662 0.026555542 -0.04344213
0.07541423 0.010735845 0.037968382 -0.031754073 0.062692516 -0.09416852 -0.06804412 0.08633914
-0.014623472 0.053941987 -0.06659609 -0.07862217
00000000: 22e8 343d c0d1 84bd 6c4b 01bd e6c5 1cbd
00000010: 8d26 2abd ac44 a4bd bb1a dabc 83ae 9d3d
00000020: 8b05 14bd fc3f bbbd ed3a 8bbd 0c8c 963d
00000030: d102 af3d 5068 74bd 7de6 b93d 55b5 1fbd
00000040: bdef 803d 1841 e83b 30b3 4cbc c2e4 b2bd
00000050: 859a b83d c152 d83b 028b d93c 60f0 31bd
00000060: c772 9a3d 66e5 2f3c bc84 1b3d 8f10 02bd
00000070: ef64 803d 6ddb c0bd b75a 8bbd 93d2 b03d
00000080: 4997 6fbc 46f2 5c3d 8863 88bd a904 a1bd

weight f4 [12, 36]
0.026021741 -0.1091537 -0.10464713 0.033156596 0.029264383 -0.009764503 -0.12024163 0.05069379
-0.11753966 -0.13294101 0.02689315 0.13247171 0.05890481 0.12602296 0.058570378 -0.100379914
-0.16333956 -0.09699443 0.020995619 0.03968298 -0.14344901 0.0062122326 0.14818713 0.14238605
-0.10788923 0.053543758 0.086223125 -0.16301659 0.050959766 0.077440634 -0.104836136 0.062611595
-0.0036495556 -0.017916843 -0.13768399 0.10263341 -0.034817975 0.09673766 0.14796646 0.116994604
-0.008833172 -0.08151273 0.036638465 0.03221889 -0.01297537 0.13015476 0.1005773 0.0012903655
-0.014258486 -0.13938698 0.032814097 -0.08045798 -0.16328922 0.14615801 -0.06915042 0.09063879
0.112159714 0.12757616 0.04230201 -0.15195167 -0.092208415 -0.13721308 0.008191579 -0.04082142
-0.1286435 -0.0010687924 0.07546363 0.088181935 -0.052596424 -0.02910498 -0.07340871 0.16058259
0.0011915345 0.0723865 -0.02663555 -0.013990652 0.14295825 0.019529672 -0.12964791 -0.086552426
-0.11389701 -0.07934219 0.061706334 -0.0761903 0.12898141 0.10518936 -0.096964754 0.0079079345
-0.0350621 -0.1414536 -0.07431957 0.03315739 0.08575581 -0.00895986 0.07581426 -0.09266376
-0.13084975 -0.04177939 0.020612277 0.027655471 0.13829839 -0.11345266 -0.12492156 -0.04302157
-0.11395179 0.041440964 -0.0005184488 0.12358071 0.15978248 -0.09137098 0.088829 -0.041105166
-0.07145675 0.061360847 -0.0065732645 -0.08323734 0.11807742 -0.14667124 -0.13308565 -0.15873827
-0.16109546 0.13281031 0.14693892 0.11342317 -0.16249484 0.13931946 0.04008183 0.1418285
-0.06664651 -0.13738385 -0.020050028 0.08487298 0.14474437 0.1481438 -0.043951284 0.06672615
0.12488731 -0.13662614 0.0069581154 -0.10260725 -0.16301197 0.105158135 0.15611562 0.15087527
0.13821094 0.036825 0.08647178 0.16735382 -0.022128964 0.030110257 0.018089171 -0.15695
-0.07774848 -0.04619749 -0.12934534 0.08266967 0.04179002 0.09101042 -0.02389418 0.0036574563
-0.06624645 -0.11117998 0.1106346 0.08948048 -0.13141373 0.079826236 0.04961623 0.1536962
0.11555268 -0.017465733 -0.14968596 0.14495733 -0.07279081 -0.14282493 0.06915229 0.035959132
-0.02116458 -0.115351394 -0.08663891 -0.07462109 -0.099245735 0.11603876 -0.07914935 0.15846007
-0.08587394 -0.107302316 -0.07681857 -0.038925134 0.15229869 0.06262993 -0.021188492 -0.08599418
-0.11402086 0.07766788 0.06791272 0.12697408 0.074135944 -0.049403545 -0.06906412 -0.092149556
0.021012539 -0.11357179 0.008527719 0.10812708 0.12211788 -0.1159648 0.06210164 -0.025399964
0.11476597 0.0029130096 -0.10693995 0.06804191 -0.005903055 0.08276311 -0.099488646 -0.071356386
0.056297448 0.120661244 0.14438805 0.07412755 0.14962511 -0.105931565 0.13765101 -0.10599123
0.15300557 0.004232994 0.15204969 -0.061260317 -0.160569 0.11235582 -0.085866444 -0.03679286
0.11553655 -0.04415861 0.059233744 -0.10029352 0.0048239413 0.07806883 -0.12156226 0.04177945
0.01990546 -0.14015652 -0.0022739258 0.10482399 -0.07354547 0.099780716 -0.10735434 -0.021999888
-0.0005822628 0.055793326 -0.09973223 0.11454755 -0.097388744 0.09143221 0.0073639997 -0.14971279
00000000: 8c2b d53c fa8b dfbd 3c51 d6bd 36cf 073d
00000010: dcbb ef3c 4bfb 1fbc 3e41 f6bd 4ba4 4f3d
00000020: a2b8 f0bd b021 08be 064f dc3c aaa6 073e
00000030: 2c46 713d 2a0c 013e 7ee7 6f3d fc93 cdbd
00000040: 7c42 27be 04a5 c6bd 01ff ab3c 9f8a 223d
00000050: 4ce4 12be fc8f cb3b 5ebe 173e a6cd 113e
00000060: 07f5 dcbd b350 5b3d c095 b03d d2ed 26be
00000070: 30bb 503d 3299 9e3d 54b4 d6bd 823a 803d
00000080: 622d 6fbb 58c6 92bc 08fd 0cbe 7731 d23d
00000090: 4b9d 0ebd 651e c63d 8584 173e de9a ef3d
000000a0: 02b9 10bc 25f0 a6bd 3712 163d f4f7 033d
000000b0: a596 54bc 4a47 053e 79fb cd3d 7b21 a93a
000000c0: 6d9c 69bc 76bb 0ebe 1368 063d 27c7 a4bd
000000d0: 4a35 27be 72aa 153e bc9e 8dbd d4a0 b93d
000000e0: feb3 e53d 53a3 023e df44 2d3d 3899 1bbe
000000f0: c4d7 bcbd 9681 0cbe f935 063c 5c34 27bd
00000100: 1fbb 03be b916 8cba ad8c 9a3d bb98 b43d
00000110: 596f 57bd 916d eebc 4e57 96bd c36f 243e
00000120: 432d 9c3a 603f 943d cc32 dabc 0c39 65bc
00000130: a663 123e b1fc 9f3c 6cc2 04be 6642 b1bd
00000140: d642 e9bd 287e a2bd c8bf 7c3d a909 9cbd
00000150: b413 043e 856d d73d 7595 c6bd 4890 013c
00000160: 479d 0fbd 36d9 10be dc34 98bd 0bd0 073d
00000170: bea0 af3d 60cc 12bc 8244 9b3d 7fc6 bdbd
00000180: 7afd 05be de20 2bbd 14db a83c ba8d e23c
00000190: 189e 0d3e de59 e8bd e0d6 ffbd 6337 30bd
000001a0: 8e5f e9bd 00be 293d 83e8 07ba e217 fd3d
000001b0: 059e 233e b520 bbbd fbeb b53d e45d 28bd
000001c0: eb57 92bd 8355 7b3d 8a64 d7bb 5778 aabd
000001d0: 93d2 f13d fc30 16be 9b47 08be 498c 22be
000001e0: 35f6 24be 6dff 073e 2877 163e 684a e83d
000001f0: 0c65 26be c3a9 0e3e d82c 243d 7e3b 113e
00000200: f77d 88bd 5aae 0cbe f53f a4bc e3d1 ad3d
00000210: de37 143e 02b3 173e 4306 34bd b8a7 883d
00000220: ebc4 ff3d b9e7 0bbe e700 e43b c023 d2bd
00000230: 9cec 26be 265d d73d c6dc 1f3e 0c7f 1a3e
00000240: 2b87 0d3e d0d5 163d 1e18 b13d cd5e 2b3e
00000250: cd47 b5bc c9a9 f63c be2f 943c 80b7 20be
00000260: 983a 9fbd 9439 3dbd 1b73 04be b74e a93d
00000270: 032c 2b3d ac63 ba3d babd c3bc efb1 6f3b
00000280: 38ac 87bd 54b2 e3bd 6594 e23d 8b41 b73d
00000290: 5291 06be f07b a33d 633a 4b3d 8962 1d3e
000002a0: e2a6 ec3d 4c14 8fbc 4747 19be b26f 143e
000002b0: 5913 95bd b340 12be b79f 8d3d e249 133d
000002c0: 5761 adbc 5a3d ecbd be6f b1bd f1d2 98bd
000002d0: 5941 cbbd bba5 ed3d 0e19 a2bd 5b43 223e
000002e0: adde afbd 51c1 dbbd 0e53 9dbd f66f 1fbd
000002f0: 30f4 1b3e 1f44 803d 7d93 adbc b71d b0bd
00000300: c583 e9bd 5610 9f3d d315 8b3d 7e05 023e
00000310: 96d4 973d 5f5b 4abd 7d71 8dbd e8b8 bcbd
00000320: 7d22 ac3c 5498 e8bd d9b7 0b3c bb71 dd3d
00000330: f018 fa3d f47e edbd 4a5e 7e3d 9613 d0bc
00000340: 6c0a eb3d 31e8 3e3b 5503 dbbd 8f59 8b3d
00000350: 6a6e c1bb b57f a93d b4c0 cbbd 4c23 92bd
00000360: 2798 663d 3e1d f73d 76da 133e 2fd0 973d
00000370: 5337 193e a6f2 d8bd 63f4 0c3e ee11 d9bd
00000380: 7ead 1c3e edb4 8a3b eab2 1b3e 19ec 7abd
00000390: 336c 24be cf1a e63d bfda afbd 1cb4 16bd
000003a0: 6d9e ec3d a9df 34bd 159f 723d b066 cdbd
000003b0: 2712 9e3b 8de2 9f3d a2f5 f8bd ee20 2b3d
000003c0: c610 a33c 3185 0fbe 2506 15bb f6ad d63d
000003d0: 029f 96bd d559 cc3d 98dc dbbd 1c39 b4bc
000003e0: ffa2 18ba 8b87 643d 6940 ccbd e897 ea3d
000003f0: c073 c7bd cf40 bb3d b54d f13b 4f4e 19be

bias f4 [12]
0.06413405 0.1009431 -0.14808631 -0.1460157 0.15528184 0.08757629 0.050795548 0.050987434
-0.13570957 0.07473115 -0.068657525 -0.08066734
00000000: b658 833d 42bb ce3d f0a3 17be 2485 15be
00000010: 3402 1f3e 335b b33d fe0e 503d 33d8 503d
00000020: 73f7 0abe a50c 993d 519c 8cbd eb34 a5bd

weight f4 [36, 12]
0.0016103168 0.2617732 0.20599869 -0.091892675 -0.10791553 0.2863625 -0.21176817 -0.09150839
-0.21088548 -0.0092933485 -0.15175365 -0.06971164 0.14423776 0.1703953 0.23642354 -0.0070166583
-0.13938257 -0.14558414 0.0063046473 0.14305075 -0.15739243 0.20049897 0.27065402 0.2528003
-0.17248715 0.088826984 0.22825143 -0.105676755 -0.27911443 -0.11747519 0.25232622 0.13423724
-0.26084095 -0.051741492 -0.23975982 0.28704572 0.103228845 -0.24916004 -0.26874515 0.22970822
-0.19241935 -0.09686736 0.12671784 -0.26269823 0.03694393 0.07416175 0.26702687 0.2893806
0.011626182 -0.084575966 -0.096924454 0.28012535 -0.195984 0.21926557 -0.1532129 0.11018792
0.16009401 0.27205333 -0.27011925 -0.02710078 0.17603701 0.0010498094 0.16600244 -0.1418728
0.09020015 0.15435849 0.085298955 -0.02599759 0.26460695 -0.22099158 -0.2256887 -0.25122252
-0.2611934 -0.06477698 -0.20748097 0.15175204 -0.023446055 -0.1264465 -0.0006382218 -0.09760505
0.18362969 -0.15809844 -0.04985501 0.2588088 -0.014090401 -0.15685405 -0.1766183 -0.23899478
0.21792713 -0.12695736 -0.23228112 0.2836669 0.01458936 -0.12925915 -0.20666456 -0.25720724
-0.113099314 -0.22726808 0.1649143 -0.0749139 0.28754514 -0.07844964 -0.17960335 0.07116206
0.16752908 0.112915345 0.013280035 -0.21460223 -0.0023998313 -0.10591896 -0.13155557 -0.097758636
0.02819235 -0.27314427 -0.011507797 0.1773067 0.09548764 0.08652402 -0.16606611 -0.06093312
0.17181127 -0.25950214 -0.23030451 0.10211933 0.17012814 -0.091674715 0.13519564 0.078501455
0.018733332 -0.13377446 -0.087131776 0.099792235 0.06747089 -0.022850346 0.034563594 -0.031607468
0.25671092 0.039712742 -0.1968512 0.028692339 -0.14308195 0.1967705 -0.16257367 0.21991602
0.07744081 0.06515837 -0.056669522 0.26527837 0.006729699 -0.08621367 0.24347848 -0.26088563
0.27781826 -0.08699234 -0.16194327 0.27514625 0.2865099 -0.1660596 -0.1445298 -0.26355064
-0.104734115 0.23539601 -0.046239417 -0.058278702 -0.21612388 -0.031534303 -0.27447122 -0.13873462
-0.16478352 0.13390155 0.15228906 0.12898205 0.102847666 -0.07167799 -0.28639743 0.24647816
-0.2496869 0.24389572 -0.19254583 -0.046475373 0.09878974 -0.23170388 0.010085699 0.061282784
-0.2775994 0.11830591 0.2649081 0.14660297 0.22861148 0.20449764 -0.1389541 0.15788472
-0.1665918 -0.12673372 0.22321157 0.26663712 0.23143247 0.022517791 -0.11257986 -0.08941612
-0.2788467 0.17330658 0.0028304942 0.037192676 -0.19541912 -0.055521403 0.09427712 -0.21603818
-0.13442484 0.11555004 0.19229218 -0.2430443 0.059922244 0.26366448 -0.026507152 0.24892792
0.27771753 -0.10586445 0.024551392 -0.008717656 0.07981181 -0.19354278 -0.14673111 0.26902193
-0.11355741 -0.18939209 0.083880186 -0.1528496 0.13596134 0.053498335 0.13992375 -0.09886326
0.026207432 0.110692956 -0.23943049 0.07823935 0.26333502 0.07391829 0.23018041 0.12542781
0.02291628 -0.15370825 0.13757424 -0.18880923 0.027472006 0.18100719 0.1190517 0.18193194
0.08861465 -0.26983804 0.17738694 -0.2517512 -0.12197852 0.0043057604 -0.21796328 -0.053053606
00000000: 4411 d33a 2307 863e 52f1 523e 3a32 bcbd
00000010: d102 ddbd 1b9e 923e c1d9 58be c068 bbbd
00000020: 5df2 57be 2143 18bc 4f65 1bbe fac4 8ebd
00000030: 10b3 133e 1b7c 2e3e 0319 723e ffeb e5bb
00000040: 4eba 0ebe 0214 15be 3797 ce3b e57b 123e
00000050: 7b2b 21be 9a4f 4d3e 2a93 8a3e 0a6f 813e
00000060: 79a0 30be ecea b53d beba 693e 0e6d d8bd
00000070: 16e8 8ebe d596 f0bd e730 813e 7d75 093e
00000080: f28c 85be e3ee 53bd 9983 75be a8f7 923e
00000090: a569 d33d cf23 7fbe f798 89be a238 6b3e
000000a0: 9409 45be 6562 c6bd 52c2 013e 6280 86be
000000b0: 8552 173d 1ee2 973d bfb7 883e b229 943e
000000c0: be7b 3e3c 2a36 adbd 5480 c6bd 976c 8f3e
000000d0: 08b0 48be 2787 603e d8e3 1cbe 34aa e13d
000000e0: afef 233e 934a 8b3e 124d 8abe 7402 debc
000000f0: 0c43 343e c299 893a 8bfc 293e 1a47 11be
00000100: dbba b83d 2710 1e3e 38b1 ae3d e6f8 d4bc
00000110: 907a 873e 9e4b 62be f01a 67be 3da0 80be
00000120: 24bb 85be cba9 84bd e475 54be e364 1b3e
00000130: f111 c0bc 317b 01be 574e 27ba 28e5 c7bd
00000140: 6c09 3c3e 8fe4 21be c434 4cbd 9682 843e
00000150: 6ddb 66bc 599e 20be 6ddb 34be 0cbb 74be
00000160: 4a28 5f3e 1c01 02be 1adb 6dbe ca3c 913e
00000170: 3608 6f3c 835c 04be e09f 53be abb0 83be
00000180: 9da0 e7bd f7b8 68be 4bdf 283e 756c 99bd
00000190: 1e39 933e 34aa a0bd f1e9 37be 6abd 913d
000001a0: be8c 2b3e 2940 e73d 8194 593c b0c0 5bbe
000001b0: 7d46 1dbb 0aec d8bd 81b6 06be ae35 c8bd
000001c0: a5f3 e63c 91d9 8bbe 338b 3cbc e38f 353e
000001d0: 068f c33d 8133 b13d 3c0d 2abe 0295 79bd
000001e0: 4bef 2f3e 77dd 84be f2d4 6bbe f023 d13d
000001f0: 1236 2e3e f4bf bbbd ba70 0a3e 5fc5 a03d
00000200: a576 993c 2cfc 08be 2572 b2bd df5f cc3d
00000210: 2e2e 8a3d a630 bbbc 8e92 0d3d d576 01bd
00000220: 9d6f 833e d4a9 223d 5c93 49be 320c eb3c
00000230: 1384 12be 357e 493e b679 26be aa31 613e
00000240: 4a99 9e3d c071 853d 4d1e 68bd 91d2 873e
00000250: cf84 dc3b cb90 b0bd 6c52 793e cd92 85be
00000260: 323e 8e3e 0a29 b2bd 75d4 25be f8df 8c3e
00000270: 6db1 923e 870b 2abe 9fff 13be 1cf0 86be
00000280: d77e d6bd a70b 713e 8b65 3dbd a6b5 6ebd
00000290: 944f 5dbe 1d2a 01bd 7e87 8cbe 7310 0ebe
000002a0: 03bd 28be 7d1d 093e aaf1 1b3e df13 043e
000002b0: cca1 d23d e9cb 92bd afa2 92be c564 7c3e
000002c0: ecad 7fbe cdbf 793e bc2a 45be f65c 3ebd
000002d0: 4652 ca3d c843 6dbe 7d3e 253c a803 7b3d
000002e0: 8221 8ebe 5e4a f23d 09a2 873e 171f 163e
000002f0: 2119 6a3e d467 513e fc49 0ebe 88ac 213e
00000300: 0a97 2abe 7cc6 01be 9391 643e a984 883e
00000310: a2fc 6c3e 3b77 b83c 4590 e6bd cc1f b7bd
00000320: ffc4 8ebe 4877 313e d07f 393b 5957 183d
00000330: f31b 48be 696a 63bd 5d14 c13d 1d39 5dbe
00000340: aaa6 09be 80a5 ec3d 3ee8 443e 9be0 78be
00000350: 0771 753d 08ff 863e 8725 d9bc f6e6 7e3e
00000360: fe30 8e3e 76cf d8bd 0020 c93c 80d4 0ebc
00000370: 6074 a33d 1430 46be ae40 16be 3ebd 893e
00000380: ca90 e8bd 00f0 41be 60c9 ab3d 9b84 1cbe
00000390: 7339 0b3e 1221 5b3d 2c48 0f3e d278 cabd
000003a0: f8b0 d63c fdb2 e23d 442d 75be f43b a03d
000003b0: d9d3 863e 7962 973d 6ab4 6b3e 2670 003e
000003c0: ecba bb3c b265 1dbe 43e0 0c3e 3557 41be
000003d0: f90c e13c f359 393e 61d1 f33d 5e4c 3a3e
000003e0: 997b b53d 3628 8abe eca4 353e 89e5 80be
000003f0: e0cf f9bd 5617 8d3b c431 5fbe bd4e 59bd

bias f4 [36]
-0.18354288 0.1950091 0.1474468 0.19543946 0.24274522 0.050129727 0.07373403 -0.17489602
0.20689742 0.12903774 -0.023397043 -0.1616978 0.21600245 -0.21989076 0.1128602 0.08984461
0.17702809 0.12599955 -0.25970387 -0.09987996 0.2630966 0.26986852 -0.15803587 -0.20260704
0.02104573 -0.054712776 -0.15686777 -0.24099702 -0.22825782 0.20791608 0.11415542 -0.17094485
0.16730648 -0.22067893 0.25032943 0.16704401
00000000: aaf2 3bbe 77b0 473e 4bfc 163e 4821 483e
00000010: 3492 783e d454 4d3d de01 973d f117 33be
00000020: ebdc 533e 7822 043e 28ab bfbc 1c94 25be
00000030: bf2f 5d3e 0b2b 61be 4023 e73d 7300 b83d
00000040: da46 353e 0706 013e e8f7 84be dd8d ccbd
00000050: 99b4 863e 352c 8a3e 28d4 21be 3878 4fbe
00000060: 1868 ac3c 811a 60bd f2a1 20be ecc7 76be
00000070: 6bbc 69be f4e7 543e 51ca e93d 2b0c 2fbe
00000080: 6452 2b3e a8f9 61be 2e2b 803e 960d 2b3e

weight f4 [108, 36]
0.020791845 0.14370619 -0.09492806 0.11924334 0.14327934 0.043550644 -0.08577284 -0.13070041
-0.04872543 0.08021087 0.101392254 0.023412488 -0.10753061 -0.116463006 -0.04005893 -0.0060542617
0.09313696 0.044841304 0.124730125 -0.004882039 -0.07936358 -0.0018172362 0.015349091 0.019141257
0.16399896 -0.0429999 0.15674658 -0.14683603 0.12494533 0.11890952 0.14841738 0.05220151
0.08001491 0.12821423 -0.016108308 -0.12854627 0.13500544 0.04901371 0.14633171 -0.07236008
0.12540624 0.09728467 -0.14837638 -0.07338251 0.110719115 -0.16059968 0.035422668 0.039231867
-0.115169674 -0.05203037 -0.04465645 0.10175111 0.11200755 0.032793127 0.15003486 0.11791793
0.14991486 -0.0033777044 -0.020005222 0.0796368 -0.16565412 -0.013013347 0.13801636 0.09091063
-0.15346086 0.123867676 0.027949693 0.1440527 -0.16513689 -0.006307587 -0.010229914 -0.15613703
0.1245945 0.10219353 -0.1568705 0.053193744 0.06271276 -0.14858112 -0.034112517 0.14627321
-0.0012852673 -0.013154639 0.11721443 -0.11834108 -0.0054400493 -0.01747728 -0.10412513 0.086440675
-0.14150675 0.10127983 0.12768538 -0.13570032 0.15538342 0.027542684 -0.081743546 -0.011948153
-0.07640771 -0.14572586 -0.1246537 0.15105017 -0.16021031 0.11824477 -0.045094445 0.021878138
0.06722491 0.047045335 0.092574686 0.031617768 0.14392905 0.1404666 0.08471703 -0.079620585
-0.01075515 -0.025785426 0.010663437 -0.09351254 0.09781133 0.13972323 0.06595711 -0.15964526
0.016540086 -0.023634708 0.15591866 -0.02036298 -0.0735913 -0.008649122 -0.13517699 0.07563103
0.057807997 -0.10629215 0.065318964 0.1306438 0.051577836 -0.15135154 0.1519791 0.006260991
-0.09975678 0.06483308 -0.09140615 -0.03275585 -0.11624758 0.0076212436 0.046083916 0.022453196
-0.029558944 -0.002782125 -0.0609745 0.060790233 0.13181163 0.024157397 -0.103672415 0.010819559
-0.10410841 0.021180212 -0.08484983 -0.07852038 0.035312567 0.056211952 0.14164929 -0.093486354
-0.10913111 0.13498491 -0.025748909 0.06124158 0.14572524 0.03997828 -0.08037569 -0.115721546
0.1402518 -0.12290364 0.016768947 0.05729477 -0.10969645 -0.04472512 0.14112096 -0.047466658
0.03889806 0.15059115 -0.06138617 0.1139931 0.1119345 -0.105686724 0.006308794 0.03861974
-0.03692667 0.0726801 -0.14091143 0.118388966 -0.016982317 -0.12074604 0.045754254 0.0427704
-0.1661765 0.017922267 -0.11186918 0.029585734 0.067360654 0.04159014 -0.004426375 0.033171594
0.15490441 -0.06329086 0.1226062 -0.15074205 -0.019456029 0.031055823 -0.030635789 -0.014713824
-0.100443624 0.100560114 0.07480632 0.12219398 -0.12307638 -0.105525434 -0.057896063 -0.020716071
-0.14648174 0.073049605 0.0055175745 0.089605376 0.087605365 0.008074136 0.036583282 0.06913139
0.09698138 -0.031932198 -0.06857696 -0.092227474 0.14283644 0.1334971 0.13909186 -0.1437078
-0.014927385 0.051780432 -0.02205412 -0.11343889 0.16381484 -0.14923105 0.07831648 -0.013318241
-0.16602199 -0.020379132 0.026211023 -0.06467526 -0.066887364 0.124273814 -0.015398756 0.06592113
-0.020714741 0.101668075 -0.14892596 0.023290858 0.11397897 -0.10248451 -0.0808752 -0.042390287
00000000: a953 aa3c b727 133e a569 c2bd da35 f43d
00000010: d2b7 123e 2962 323d aca9 afbd 54d6 05be
00000020: 5194 47bd 9945 a43d bea6 cf3d 8ccb bf3c
00000030: 0239 dcbd 2884 eebd d514 24bd d462 c6bb
00000040: 97be be3d 84ab 373d 8272 ff3d 83f9 9fbb
00000050: 5f89 a2bd 5430 eeba c17a 7b3c 20ce 9c3c
00000060: 58ef 273e aa20 30bd 2d82 203e 2f5c 16be
00000070: 56e3 ff3d d686 f33d bafa 173e 40d1 553d
00000080: dbde a33d 974a 033e 92f5 83bc a2a1 03be
00000090: de3e 0a3e 9ac2 483d fbd7 153e 8631 94bd
000000a0: 7e6a 003e 2f3d c73d faef 17be 9249 96bd
000000b0: b4c0 e23d 3e74 24be 5c17 113d 98b1 203d
000000c0: 14de ebbd cc1d 55bd afe9 36bd e362 d03d
000000d0: 3764 e53d 1652 063d bda2 193e f57e f13d
000000e0: 4883 193e 7a5c 5dbb fee1 a3bc 9e18 a33d
000000f0: 3ca1 29be ef35 55bc 2954 0d3e 5a2f ba3d
00000100: d824 1dbe 56ae fd3d c1f6 e43c 8d82 133e
00000110: a519 29be e0af cebb 5f9b 27bc 63e2 1fbe
00000120: 672b ff3d d74a d13d a9a2 20be afe1 593d
00000130: 8c6f 803d a625 18be 91b9 0bbd a5c8 153e
00000140: 6a76 a8ba 8e86 57bc 1e0e f03d cf5c f2bd
00000150: 7142 b2bb 832c 8fbc 8e3f d5bd cf07 b13d
00000160: 25e7 10be cd6b cf3d f5bf 023e 06f5 0abe
00000170: d51c 1f3e 32a1 e13c 2969 a7bd 30c2 43bc
00000180: a57b 9cbd 2939 15be 704a ffbd e5ac 1a3e
00000190: 2c0e 24be 502a f23d f4b4 38bd c839 b33c
000001a0: 37ad 893d 9cb2 403d cc97 bd3d a281 013d
000001b0: 2362 133e 7ad6 0f3e 1f80 ad3d 1e10 a3bd
000001c0: 5e36 30bc f53b d3bc b2b5 2e3c 8183 bfbd
000001d0: 4e51 c83d 9b13 0f3e 8514 873d 0c7a 23be
000001e0: 137f 873c 939d c1bc 24a9 1f3e 44d0 a6bc
000001f0: 09b7 96bd 0cb5 0dbc d66b 0abe 71e4 9a3d
00000200: 14c8 6c3d b3af d9bd f3c5 853d 7dc7 053e
00000210: 4843 533d e6fb 1abe 69a0 1b3e 0029 cd3b
00000220: 484d ccbd 35c7 843d 2633 bbbd 002b 06bd
00000230: 3613 eebd a0bb f93b 7dc2 3c3d c4ef b73c
00000240: 9925 f2bc 5054 36bb 66c0 79bd 2eff 783d
00000250: a1f9 063e bce5 c53c 3452 d4bd 8544 313c
00000260: ca36 d5bd 2082 ad3c bfc5 adbd 4bcf a0bd
00000270: e9a3 103d 813e 663d 830c 113e c675 bfbd
00000280: 2280 dfbd 7c39 0a3e 60ef d2bc 73d8 7a3d
00000290: ff38 153e 44c0 233d 029c a4bd 6bff ecbd
000002a0: 2b9e 0f3e e7b4 fbbd 085f 893c ecad 6a3d
000002b0: 88a8 e0bd b031 37bd 0382 103e 666c 42bd
000002c0: 9253 1f3d 9134 1a3e 1170 7bbd 3775 e93d
000002d0: ea3d e53d 4872 d8bd 00ba ce3b bc2f 1e3d
000002e0: 6c40 17bd 4ed9 943d 164b 10be ea75 f23d
000002f0: 801e 8bbc b349 f7bd d068 3b3d 0430 2f3d
00000300: 2c2a 2abe b8d1 923c ab1b e5bd c85d f23c
00000310: 62f4 893d 6c5a 2a3d 200b 91bb f0de 073d
00000320: 439f 1e3e a39e 81bd f618 fb3d 205c 1abe
00000330: 4062 9fbc c868 fe3c e8f7 fabc 4012 71bc
00000340: 63b5 cdbd 76f2 cd3d 0e34 993d d640 fa3d
00000350: 780f fcbd b81d d8bd 6c24 6dbd c0b4 a9bc
00000360: 4fff 15be 089b 953d c5cc b43b 0683 b73d
00000370: 716a b33d 6249 043c 5ad8 153d c294 8d3d
00000380: 2c9e c63d 56cb 02bd 1472 8cbd c2e1 bcbd
00000390: b743 123e 77b3 083e 196e 0e3e 2328 13be
000003a0: fe91 74bc b817 543d d8aa b4bc a652 e8bd
000003b0: 14bf 273e 06d0 18be 6464 a03d c034 5abc
000003c0: ab01 2abe 23f2 a6bc 80b8 d63c 7674 84bd
000003d0: 3efc 88bd 4583 fe3d 104b 7cbc a801 873d
000003e0: f6b1 a9bc 5a37 d03d 0c80 18be 78cc be3c
000003f0: ce6d e93d 66e3 d1bd e6a1 a5bd 70a1 2dbd

bias f4 [108]
0.108145386 0.065433234 0.07565119 0.03759024 0.00090259465 -0.07840258 0.08981966 -0.15654448
-0.022936301 -0.12941168 0.0020608788 -0.049881324 0.14502676 -0.14329766 -0.022400659 -0.00395695
0.040222175 0.09151965 -0.12221631 -0.11939472 0.15863542 -0.05572643 0.08264913 0.160515
0.12059107 0.1263078 -0.10740396 0.09904969 -0.16466737 0.141765 0.05704698 -0.1264725
-0.023506343 -0.13509604 0.10500445 0.08751711 0.011864126 0.014852903 0.13252518 -0.055318296
-0.0367792 0.012124083 -0.08553201 -0.09355732 -0.102504574 0.15931413 -0.1207906 0.15902545
0.15585388 0.14273173 -0.058249757 -0.028401181 0.026075765 0.07217993 0.067953035 0.047466084
0.05526173 -0.09402665 0.124654435 0.107581764 -0.1253804 -0.020715741 0.12184121 -0.15806471
0.12650485 0.059721794 -0.053613987 -0.08751583 -0.04460258 0.15081564 -0.02471472 -0.013225606
-0.029612318 -0.10275485 0.008108731 0.18710703 -0.11476928 0.10622133 0.059027985 0.11270591
0.16970024 -0.08769636 -0.14330009 -0.00012351974 0.10465805 -0.15479362 -0.09678672 0.068404496
0.12794556 0.02337782 0.051785372 0.07951149 0.15442693 0.047736812 0.013516586 0.02384898
-0.09389059 -0.005151971 0.13065933 -0.050579607 -0.10174706 0.14871739 0.10287072 -0.07293938
-0.12253831 -0.01315777 0.12988898 0.048714586
00000000: 547b dd3d dc01 863d 03ef 9a3d 39f8 193d
00000010: 1a9c 6c3a 8891 a0bd 5ff3 b73d 324d 20be
00000020: e9e4 bbbc 7f84 04be cf0f 073b 5c50 4cbd
00000030: e581 143e 9fbc 12be 9681 b7bc 4da9 81bb
00000040: 02c0 243d a76e bb3d 8b4c fabd 3885 f4bd
00000050: 5371 223e 6641 64bd f243 a93d 0b5e 243e
00000060: 73f8 f63d d556 013e 9bf6 dbbd 90da ca3d
00000070: 909e 28be d82a 113e 18aa 693d 0282 01be
00000080: 6090 c0bc 9e56 0abe 930c d73d 2c3c b33d
00000090: c061 423c 9759 733c aeb4 073e 7095 62bd
000000a0: c9a5 16bd 17a4 463c 682b afbd fb9a bfbd
000000b0: ebed d1bd 3e23 233e 1061 f7bd 91d7 223e
000000c0: 2998 1f3e 4428 123e 4c97 6ebd 98a9 e8bc
000000d0: d89c d53c 12d3 933d f62a 8b3d cc6b 423d
000000e0: 205a 623d 0b91 c0bd d34a ff3d d453 dc3d
000000f0: b863 00be 0fb4 a9bc e287 f93d b7db 21be
00000100: 7d8a 013e d79e 743d 579a 5bbd 803b b3bd
00000110: 32b1 36bd 6a6f 1a3e 8676 cabc 36b0 58bc
00000120: 8895 f2bc 2371 d2bd 7cda 043c fc98 3f3e
00000130: 280c ebbd 928a d93d 54c7 713d 5bd2 e63d
00000140: e6c5 2d3e 269a b3bd 42bd 12be 1485 01b9
00000150: f656 d63d 3882 1ebe 1e38 c6bd a817 8c3d
00000160: 2904 033e d882 bf3c e61c 543d ecd6 a23d
00000170: 1822 1e3e ad87 433d ac74 5d3c f05e c33c
00000180: b649 c0bd ddd1 a8bb 8fcb 053e 902c 4fbd
00000190: c360 d0bd 5f49 183e e2ad d23d 3e61 95bd
000001a0: 5ef5 fabd b093 57bc 9e01 053e f288 473d

weight f4 [180, 108]
-0.05481071 -0.10144328 0.05294518 -0.051804136 0.039590966 -0.034634273 -0.09941228 0.0781846
-0.04618765 -0.08790637 -0.08048681 -0.02323389 -0.08629596 0.012734719 -0.05515844 -0.02075107
0.03582705 -0.034353904 -0.016919976 -0.059200507 -0.08031001 -0.06712604 -0.0041726176 0.06727322
0.07632758 0.082846716 -0.08546841 -0.06111048 -0.04106619 -0.070488095 -0.0149765 0.090399675
-0.01646056 -0.013078637 0.059023198 0.06484322 -0.060745608 0.0919979 0.0641084 0.087217204
-0.08596514 -0.08925859 -0.018284999 -0.026644781 -0.0070541576 0.019724153 0.085873954 0.08796333
-0.067215145 0.02525304 0.07670633 0.083166204 0.013555549 0.052755337 0.048959143 -0.054525103
-0.0341951 -0.0430877 -0.020422306 0.06606446 0.061633386 -0.072447985 0.01022549 -0.05239512
-0.018513178 -0.06390885 0.06250161 -0.043701403 -0.042708896 -0.09109175 -0.02964057 -0.024296684
-0.0027740449 0.002465926 -0.08141784 0.007499691 0.03888742 -0.04095862 0.014553578 0.0049746227
0.04895699 -0.08911598 -0.09010084 -0.08723916 0.043144014 -0.046210196 0.08185788 0.057959292
-0.01491123 -0.08312271 0.09269981 -0.09358166 0.06851801 -0.061861254 -0.006112517 0.09371184
0.088638864 0.016858907 0.06342493 -0.0729177 -0.05607365 0.03627462 0.040079344 0.021002525
-0.07917761 -0.08836454 -0.030954106 0.06814357 -0.04842339 -0.09783944 0.013984259 0.028523652
0.04736418 0.017335929 0.09200934 0.0031132847 -0.015095345 0.07093551 0.0072248373 0.024359085
-0.041096035 -0.045611255 -0.09191776 0.029776338 0.036634248 0.019077215 -0.041106075 -0.0071253926
0.0035913938 0.029687889 0.08107442 0.019758724 -0.041722614 -0.04635113 0.050651856 -0.014866282
0.022279382 0.054806568 0.018049154 0.036430307 -0.080660455 -0.072983414 0.0036997672 -0.04929364
0.046734832 -0.08774238 0.040864892 -0.016781047 -0.012792802 0.066263705 -0.0711088 -0.06993761
-0.014511287 0.03974839 0.02769316 0.053378534 0.05941222 -0.06561371 -0.04597112 0.0069274753
-0.06405405 -0.077971384 0.052596383 -0.055940166 -0.025630808 0.031973816 0.006207579 0.046187945
-0.0071115224 0.048418004 0.042155825 0.08090978 -0.0913813 -0.06908259 0.02868417 0.06538174
0.05639278 -0.012493421 -0.033090167 -0.07881737 -0.057679474 0.0052227676 -0.035867378 -0.0029637425
0.07523764 0.019060502 -0.039791834 -0.077679425 0.040095538 0.06540323 0.006014222 0.00051257916
-0.047688358 0.071641885 -0.074703105 -0.037472084 0.021226967 0.07318493 -0.03672707 -0.018047925
-0.06723508 -0.023551473 0.07585667 0.09088772 0.035109945 -0.06553496 -0.05216179 0.08589073
0.071298786 0.0008958131 -0.033996895 0.005495152 0.085594326 -0.058024727 -0.06317132 0.08331271
-0.07627558 0.005359453 -0.034776233 0.07400729 0.075343095 -0.031069182 -0.09671536 -0.07334423
0.051880058 0.014994204 -0.093013436 0.05083298 -0.016516654 0.020285606 -0.06407997 0.036484346
0.036477327 0.024537873 -0.036994886 -0.086395234 0.08930418 -0.054137636 0.037966628 -0.09309908
-0.027026739 -0.027795827 -0.029040352 -0.097507775 -0.061709117 -0.04553708 -0.073290534 0.066411726
-0.048718464 0.02814117 0.010726813 -0.031066244 -0.08973576 -0.08223514 -0.04315145 0.01816278
00000000: 3281 60bd 7fc1 cfbd 0cdd 583d 9330 54bd
00000010: 232a 223d abdc 0dbd aa98 cbbd 3f1f a03d
00000020: 432f 3dbd 4108 b4bd 45d6 a4bd 0055 bebc
00000030: f0bb b0bd 48a5 503c d1ed 61bd 26fe a9bc
00000040: 63bf 123d aeb6 0cbd c39b 8abc 3b7c 72bd
00000050: 9379 a4bd 6179 89bd 74ba 88bb 8bc6 893d
00000060: a251 9c3d 8aab a93d 100a afbd fc4e 7abd
00000070: 0535 28bd 105c 90bd fe5f 75bc 7723 b93d
00000080: 4cd8 86bc c847 56bc 4fc2 713d 86cc 843d
00000090: 63d0 78bd 6569 bc3d 444b 833d ef9e b23d
000000a0: 7e0e b0bd 35cd b6bd 6cca 95bc 2846 dabc
000000b0: 9026 e7bb 8c94 a13c afde af3d 1e26 b43d
000000c0: 18a8 89bd 77df ce3c 3518 9d3d 0b53 aa3d
000000d0: 1818 5e3c fb15 583d 6289 483d b755 5fbd
000000e0: 2910 0cbd ba7c 30bd ae4c a7bc ce4c 873d
000000f0: 4a73 7c3d 9c5f 94bd d088 273c 449c 56bd
00000100: f3a8 97bc a5e2 82bd d800 803d 3e00 33bd
00000110: 86ef 2ebd 508e babd c8d0 f2bc d709 c7bc
00000120: c0cc 35bb 609b 213b 66be a6bd f8bf f53b
00000130: 6a48 1f3d 3ac4 27bd 2172 6e3c 2902 a33b
00000140: 2087 483d 7082 b6bd ca86 b8bd 72aa b2bd
00000150: c7b7 303d e746 3dbd 1ba5 a73d b966 6d3d
00000160: 3b4e 74bc 3d3c aabd 66d9 bd3d bea7 bfbd
00000170: 2c53 8c3d 3a62 7dbd 824b c8bb feeb bf3d
00000180: 4b88 b53d b11b 8a3c eee4 813d e055 95bd
00000190: 7cad 65bd b294 143d 3d2a 243d 7d0d ac3c
000001a0: df27 a2bd 78f8 b4bd 7793 fdbc db8e 8b3d
000001b0: 9b57 46bd 0b60 c8bd 3c1e 653c 6faa e93c
000001c0: f100 423d 1404 8e3c 656f bc3d 4008 4c3b
000001d0: 7752 77bc a346 913d 54be ec3b b48c c73c
000001e0: 5154 28bd ded2 3abd 613f bcbd 82ed f33c
000001f0: cb0d 163d d247 9c3c d85e 28bd 207c e9bb
00000200: 975d 6b3b 0434 f33c 580a a63d 0cdd a13c
00000210: 55e5 2abd afda 3dbd 5278 4f3d b591 73bc
00000220: 4083 b63c da7c 603d d2db 933c f237 153d
00000230: 4f31 a5bd 5478 95bd cb77 723b 21e8 49bd
00000240: 066d 3f3d 47b2 b3bd f261 273d 6878 89bc
00000250: e798 51bc 44b5 873d 7ea1 91bd 733b 8fbd
00000260: c0c0 6dbc 35cf 223d c4dc e23c 73a3 5a3d
00000270: 3a5a 733d 7b60 86bd 374c 3cbd e0ff e23b
00000280: c52e 83bd 76af 9fbd 4e6f 573d 8421 65bd
00000290: b3f7 d1bc faf6 023d f268 cb3b 922f 3d3d
000002a0: c607 e9bb f551 463d 96ab 2c3d 07b4 a53d
000002b0: 1e26 bbbd 2c7b 8dbd 11fb ea3c dde6 853d
000002c0: 1efc 663d 35b1 4cbc 8e89 07bd 006b a1bd
000002d0: 5041 6cbd c023 ab3b ace9 12bd 593b 42bb
000002e0: 3116 9a3d c524 9c3c c3fc 22bd 6416 9fbd
000002f0: 383b 243d 21f2 853d f312 c53b 9b5e 063a
00000300: de54 43bd fbb8 923d f1fd 98bd 547c 19bd
00000310: 2de4 ad3c fbe1 953d 206f 16bd 3ed9 93bc
00000320: 8cb2 89bd 05ef c0bc be5a 9b3d 5723 ba3d
00000330: 72cf 0f3d 3137 86bd 9aa7 55bd 7be7 af3d
00000340: 1905 923d 00d5 6a3a 5440 0bbd ad10 b43b
00000350: 144c af3d 56ab 6dbd f75f 81bd db9f aa3d
00000360: 5f36 9cbd 5a9e af3b 8671 0ebd 2291 973d
00000370: 7b4d 9a3d cc84 febc b412 c6bd 8035 96bd
00000380: 2f80 543d 40aa 753c d47d bebd 3e36 503d
00000390: ef4d 87bc 002e a63c 5c3c 83bd 9c70 153d
000003a0: 4069 153d a603 c93c f387 17bd fcef b0bd
000003b0: 1ce5 b63d 6dbf 5dbd e582 1b3d bbaa bebd
000003c0: 2e67 ddbc 13b4 e3bc 08e6 edbc 28b2 c7bd
000003d0: b3c2 7cbd 1785 3abd 5919 96bd df02 883d
000003e0: 038d 47bd 5088 e63c 84bf 2f3c a37e febc
000003f0: 62c7 b7bd e66a a8bd 93bf 30bd 1cca 943c

bias f4 [180]
-0.07582993 -0.09227825 -0.109244004 -0.02493054 -0.08796745 0.034894507 0.05886583 -0.073868744
-0.091536716 -0.07196912 0.061302744 -0.010203317 -0.02310248 -0.052767064 -0.025459874 0.015742023
-0.10038158 -0.024210773 0.060112264 -0.08123191 0.0002319537 -0.04213248 0.049944915 -0.101976134
0.006815072 -0.022686934 -0.023565663 -0.07563563 -0.103814706 -0.031892836 -0.063591965 -0.10711094
-0.056769926 -0.0656103 -0.011799857 -0.04174238 0.025299508 -0.02690546 0.039581593 0.05230426
-0.037901156 -0.09596139 -0.09584764 0.055890873 0.009425315 -0.008576047 0.0054520513 0.0060539814
0.00014228829 0.05548186 0.019173233 -0.07505132 -0.054619115 -0.10519114 0.018246999 -0.11100961
-0.083762355 -0.019788556 0.058033485 0.04559986 0.031298142 0.048373736 -0.09531429 -0.024972327
0.028392928 -0.09785883 -0.015954766 -0.09130669 -0.09244257 -0.10097938 -0.04888881 0.019834565
0.029952463 -0.008118718 0.07265361 -0.08369849 -0.09882116 -0.022462947 -0.0033959402 0.0046043755
0.047295276 0.02542216 0.06500587 -0.045933682 0.044656172 0.062156133 -0.03879669 0.06284418
-0.042697493 -0.0715229 0.003830473 0.061302677 -0.040987965 -0.04250021 -0.07674673 -0.07479185
0.05514574 -0.057431612 -0.081863835 -0.07557385 -0.027540226 0.01925812 -0.049824465 -0.019176757
0.033354875 0.05059805 0.011684063 0.06979233 0.00428338 -0.06693956 0.069535315 0.040292673
-0.058291446 -0.0704763 0.0075359386 -0.05304846 0.07551185 0.05012682 -0.07556042 -0.034779083
0.047965877 -0.047909644 0.07553148 -0.06460191 0.10758126 -0.017201139 0.021957807 -0.05891923
-0.06752533 0.012808105 -0.039691634 0.01952081 0.054177042 0.07880473 0.09855197 0.043295104
0.0933133 -0.011923901 -0.06198687 0.09249736 -0.03409096 0.029423783 -0.05024402 0.05445114
-0.04690515 0.0068402756 0.04214798 0.055060543 0.014178978 0.017364664 -0.031400416 0.006624339
0.032770243 0.105750956 -0.059715573 -0.031051323 0.10135229 0.10332286 0.0054890034 0.03527035
0.10430604 -0.007142749 0.0857876 0.029854456 0.061831728 0.10938965 0.0922611 -0.0001515919
0.11080063 0.053535465 -0.0498555 0.11234394 0.098227255 0.05655083 0.05926296 -0.03559363
-0.0062239785 0.03895724 0.08774094 0.04224395
00000000: b94c 9bbd 61fc bcbd 52bb dfbd 223b ccbc
00000010: 4728 b4bd 8bed 0e3d 4c1d 713d 7f48 97bd
00000020: 9a77 bbbd 8c64 93bd 9618 7b3d d02b 27bc
00000030: 6a41 bdbc 4722 58bd 3a91 d0bc 6af5 803c
00000040: dc94 cdbd ac55 c6bc 4738 763d ea5c a6bd
00000050: 9938 7339 1b93 2cbd 0a93 4c3d ddd8 d0bd
00000060: f850 df3b f3d9 b9bc c70c c1bc dae6 9abd
00000070: ce9c d4bd 10a2 02bd 813c 82bd fb5c dbbd
00000080: 9587 68bd b15e 86bd 3054 41bc 0ffa 2abd
00000090: ea40 cf3c d768 dcbc 4f20 223d fe3c 563d
000000a0: 3e3e 1bbd 6887 c4bd c44b c4bd d4ed 643d
000000b0: a36c 1a3c 8c82 0cbc 1fa7 b23b 7a60 c63b
000000c0: 3933 1539 f240 633d 2f11 9d3c 82b4 99bd
000000d0: 4bb8 5fbd 746e d7bd bb7a 953c 0259 e3bd
000000e0: 998b abbd 9c1b a2bc 85b4 6d3d ebc6 3a3d
000000f0: 7b32 003d 8a23 463d 2334 c3bd c492 ccbc
00000100: 4998 e83c 366a c8bd 92b3 82bc 00ff babd
00000110: 8852 bdbd 47ce cebd a23f 48bd 197c a23c
00000120: de5e f53c 5f04 05bc 6acb 943d 1d6a abbd
00000130: c062 cabd 3704 b8bc 6c8e 5ebb 4de0 963b
00000140: b1b8 413d 2242 d03c cc21 853d f524 3cbd
00000150: 64e9 363d 6e97 7e3d 47e9 1ebd 73b4 803d
00000160: 91e3 2ebd 997a 92bd ac08 7b3b 8418 7b3d
00000170: ffe2 27bd b314 2ebd 642d 9dbd 782c 99bd
00000180: 80e0 613d 693d 6bbd 3aa8 a7bd 76c6 9abd
00000190: 0a9c e1bc 34c3 9d3c bd14 4cbd 9318 9dbc
000001a0: 1f9f 083d e73f 4f3d 836e 3f3c 48ef 8e3d
000001b0: 995b 8c3b 9c17 89bd 8868 8e3d ee09 253d
000001c0: 03c3 6ebd e155 90bd 09f0 f63b 5849 59bd
000001d0: f5a5 9a3d c851 4d3d 6cbf 9abd 8374 0ebd
000001e0: de77 443d e73c 44bd 40b0 9a3d 024e 84bd
000001f0: 9053 dc3d 67e9 8cbc dce0 b33c 4a55 71bd
00000200: b84a 8abd 16d9 513c b293 22bd 1bea 9f3c
00000210: bfe8 5d3d 6064 a13d 9ed5 c93d 3556 313d
00000220: 0b1b bf3d 775c 43bc f2e5 7dbd 426f bd3d
00000230: f6a2 0bbd 250a f13c accc 4dbd 2908 5f3d
00000240: 9d1f 40bd 6424 e03b 5ca3 2c3d 2a87 613d
00000250: f24e 683c 5740 8e3c b99d 00bd fc10 d93b
00000260: 173a 063d f593 d83d 5198 74bd 585f febc
00000270: ca91 cf3d f09a d33d 19dd b33b a477 103d
00000280: 689e d53d b90d eabb 69b1 af3d 5591 f43c
00000290: 4443 7d3d ae07 e03d 63f3 bc3d a4f4 1eb9
000002a0: 71eb e23d 0148 5b3d 4835 4cbd 9414 e63d
000002b0: 5f2b c93d d8a1 673d b8bd 723d a0ca 11bd
000002c0: 84f2 cbbb a091 1f3d 86b1 b33d fe07 2d3d
